navigation/checkpoint.pth (torch_old, 28463 bytes, 6 tensors)

fc1.weight f4 [64, 37]
0	0x3d8585b1	0.0651964
1	0xbdc58bf2	-0.09645833
2	0xbd1d1d33	-0.038357925
3	0xbe7c7e0e	-0.24657461
4	0xbe4a88be	-0.19778726
5	0x3cbd436d	0.02310344
6	0xbe90c243	-0.2827321
7	0x3e073436	0.1320351
8	0x3cc94882	0.024570707
9	0xbe293422	-0.16523793
10	0x3d86d066	0.065827176
11	0xbe03a501	-0.12855913
12	0xbdb536e6	-0.08848362
13	0xbda9dfe0	-0.08294654
14	0xbf0f245b	-0.5591485
15	0xbd368ac0	-0.044565916
16	0x3d364986	0.04450371
17	0x3e2deec6	0.16985616
18	0xbcbfac8f	-0.023397712
19	0x3e009b18	0.12559164
20	0x3da631b1	0.08114947
21	0xbd9f4d58	-0.07778424
22	0x3db8c998	0.09022826
23	0x3e31d60d	0.1736681
24	0x3da3e10d	0.080019094
25	0xbb846672	-0.0040405327
26	0x3d5b08f6	0.053475343
27	0xbc02d2ef	-0.007984861
28	0xbdac3558	-0.08408612
29	0xbe19324a	-0.1496059
30	0xbd57d6b5	-0.052694995
31	0xbb52c275	-0.0032159362
32	0xbc0ae89b	-0.008478309
33	0x3d165362	0.036700614
34	0xbec31ebd	-0.3810939
35	0x3d582b28	0.052775532
36	0xbca905c0	-0.020632625
37	0x3e53848b	0.2065603
38	0x3c0dcf13	0.008655327
39	0x3d572a5f	0.052530643
40	0xbdac87ed	-0.08424363
41	0x3c8f411d	0.017487103
42	0x3dadfed8	0.08495873
43	0xbe58d6b4	-0.21175653
44	0xbd9933ee	-0.07480608
45	0xbe2ba834	-0.16763383
46	0xbd9fe7b4	-0.07807866
47	0x3e25fcfb	0.16209786
48	0xbdb7b4d0	-0.08970034
49	0xbc2cf60b	-0.010556708
50	0x3d88d520	0.06681275
51	0xbe9034d6	-0.2816531
52	0x3e6a88b9	0.22903718
53	0xbe5768cf	-0.21036075
54	0xbcc0a4bc	-0.023516051
55	0xba920fb4	-0.0011143596
56	0xbe0a34a3	-0.13496642
57	0xbc840899	-0.016117381
58	0xbe54cba1	-0.20780803
59	0xbdaae1ef	-0.08343875
60	0xbd928ad0	-0.07155383
61	0x3b3e011e	0.0028992365
62	0x3cfc9ce3	0.030836528
63	0x3d18ca58	0.037302345
64	0xbe534023	-0.20629935
65	0x3c06058f	0.008180036
66	0xbe5338ce	-0.20627138
67	0x3df2409c	0.118287295
68	0x3dbb1e19	0.091366
69	0x3d6deb85	0.058085937
70	0xbd3d4336	-0.046206675
71	0x3c31056f	0.010804518
72	0xbd9e67ac	-0.077346176
73	0x3b2216d5	0.0024732847
74	0xbe32017c	-0.17383379
75	0x3e7a398b	0.24436013
76	0x3e54467d	0.20730014
77	0x3e35631a	0.17713585
78	0xbe38c199	-0.18042602
79	0xbed739b3	-0.4203621
80	0x3e6ba18b	0.23010843
81	0x3e7ac28e	0.24488279
82	0x3d8e6e0f	0.06954586
83	0xbf0ac98f	-0.54213804
84	0xbcbb6e85	-0.022879848
85	0xbd17b52c	-0.037038013
86	0x3bfd2908	0.0077258386
87	0x3dfb0f0f	0.122587316
88	0x3e721d4f	0.23643993
89	0xbeb646ee	-0.3560099
90	0x3e34da56	0.17661414
91	0x3e634a01	0.22196199
92	0x3e286175	0.16443427
93	0xbe6e57b7	-0.23275648
94	0xbce50636	-0.027957063
95	0xbcc17581	-0.0236156
96	0x3d128381	0.035769943
97	0xbd7fb5f3	-0.06242938
98	0xbd586e31	-0.05283946
99	0xbe5150a3	-0.20440917
100	0x3e6a69b5	0.22891887
101	0x3e677c14	0.22605926
102	0xbd0edc1b	-0.034877878
103	0xbe949cbc	-0.2902583
104	0xbe40a06c	-0.18811196
105	0xbc4a2155	-0.012337049
106	0x3d799aaf	0.060938533
107	0xbdee3a2a	-0.11632188
108	0x3c948477	0.01812957
109	0x3cd7d79b	0.026347926
110	0xbb8c812f	-0.004287861
111	0xbc4f9a38	-0.012671046
112	0xbe0218e3	-0.12704806
113	0x3e285c4e	0.16441461
114	0x3d465e84	0.04842998
115	0xbf4dbf1d	-0.8036974
116	0xbd8a1987	-0.0674315
117	0xbe046463	-0.1292892
118	0x3d910f04	0.07082942
119	0xbcdf0caa	-0.027227718
120	0x3e1d1745	0.15340908
121	0x3e0fad55	0.14030965
122	0xbd008236	-0.03137418
123	0xbe5fbd7d	-0.21849628
124	0xbe0e716f	-0.13910459
125	0xbe8afd14	-0.27146208
126	0x3cae6178	0.021286711
127	0xbea43660	-0.32072735
128	0xbdfe8e17	-0.12429445
129	0xbdf5927b	-0.119908296
130	0xbe9e1ca2	-0.3088122
131	0x3da85c31	0.08220709
132	0xbebeeded	-0.37290898
133	0x3d8142b1	0.063115485
134	0xbe823af1	-0.25435594
135	0xbe5bb3c8	-0.214553
136	0xbe4b379d	-0.19845434
137	0xbe9867cd	-0.29766694
138	0x3de7d673	0.113202
139	0x3e49d66a	0.19710699
140	0x3e99000d	0.2988285
141	0x3d68952a	0.05678288
142	0xbe247aed	-0.16062517
143	0xbe462ac0	-0.19352245
144	0x3c2acf35	0.010425379
145	0xbf962bb1	-1.1732084
146	0x3df7e094	0.12103382
147	0x3c69929f	0.014256149
148	0xbe12c6bd	-0.14333625
149	0xbe45d04e	-0.19317743
150	0xbdbc8370	-0.09204757
151	0xbe34f33b	-0.1767091
152	0xbc894f9c	-0.016761594
153	0x3dae9185	0.085238494
154	0x3e75f2c1	0.24018385
155	0x39ffdcdf	0.00048801952
156	0x3ccf5ebd	0.02531373
157	0xbe7c107a	-0.2461566
158	0xbcfe8470	-0.03106901
159	0x3c0ad703	0.008474114
160	0xbdf5653d	-0.119822
161	0x3b1ff5ab	0.0024407904
162	0xbe3e7e11	-0.18602778
163	0xbddd3b68	-0.108023465
164	0x3d818026	0.063232705
165	0x3ca87879	0.020565258
166	0xbe1e44fa	-0.15456
167	0x3d795067	0.060867693
168	0xbe7ec638	-0.24880302
169	0xbd632ee7	-0.05546465
170	0x3d79e915	0.0610133
171	0x3e7824d2	0.24232796
172	0x3e8a1917	0.26972267
173	0xbc2e63a2	-0.0106438715
174	0xbdc3f5ad	-0.09568343
175	0x3d8e643f	0.06952714
176	0x3e334792	0.1750777
177	0x3e381399	0.17976226
178	0x3e8222ae	0.25417084
179	0xbf12cde0	-0.5734539
180	0xbe64778b	-0.22311227
181	0x3bb5f15c	0.005552454
182	0xbf917480	-1.1363678
183	0xbc24b044	-0.010051791
184	0x3be30e0a	0.006929164
185	0x3cd204d2	0.025637064
186	0xbd33264c	-0.043737695
187	0x3c0848e3	0.008318159
188	0x3d9acbac	0.075583786
189	0x3e023fae	0.12719604
190	0x3e9c12c8	0.3048308
191	0xbd4000b8	-0.046875685
192	0xbec5919e	-0.3858766
193	0xbd9fd0b2	-0.07803477
194	0xbfabc018	-1.3417997
195	0x3bf24ef5	0.0073946663
196	0xbdc5a963	-0.096514486
197	0x3c850507	0.016237749
198	0xbddcd1a3	-0.107821725
199	0x3db57197	0.08859556
200	0x3c420f6c	0.011844497
201	0xbd9efa50	-0.07762587
202	0x3d3ffbca	0.046870984
203	0x3d9088a8	0.07057315
204	0xbda69d4c	-0.08135471
205	0x3dd06ecd	0.101773836
206	0x3d026976	0.031838857
207	0x3e0c47ea	0.13699308
208	0x3de65bb3	0.11247959
209	0x3e0e49cf	0.13895343
210	0xbcd05c7c	-0.025434725
211	0xbd9d9213	-0.07693877
212	0x3d4ae4c5	0.049534578
213	0x3dde7555	0.10862223
214	0x3e037724	0.12838417
215	0x3d5ed9d4	0.054406956
216	0xbd48c91a	-0.04901991
217	0xbd4fc548	-0.05072525
218	0x3d9b7914	0.07591453
219	0xbde31fbf	-0.110900395
220	0xbd3b3ca2	-0.04571212
221	0x3c37292e	0.011179252
222	0x3e24f1c6	0.16107854
223	0xbe4cde84	-0.20006758
224	0xbe4e519c	-0.20148319
225	0xbd3d4a5e	-0.0462135
226	0xbea3d3d4	-0.3199755
227	0xbdf9f72d	-0.12205348
228	0xbdd9806d	-0.106201984
229	0xbdb72d38	-0.08944172
230	0x3de634ce	0.112405404
231	0x3ecc0f8f	0.3985562
232	0xb99dd98c	-0.0003010746
233	0x3de2462c	0.110485405
234	0x3d473959	0.048638675
235	0xbd5b0621	-0.05347264
236	0x3d11a219	0.03555498
237	0x3ba80f4a	0.0051287757
238	0xbe3ca0f9	-0.18420781
239	0xbe6077e3	-0.21920733
240	0x3e0bb08a	0.13641563
241	0xbce96782	-0.02849174
242	0x3ce729d9	0.028218197
243	0x3c2237f5	0.0099010365
244	0xbe57136a	-0.210035
245	0xbe40f7aa	-0.18844476
246	0x3d13b51a	0.036061384
247	0xbe1e9170	-0.15485168
248	0xbe70c38c	-0.23512095
249	0x3d2e9343	0.04262091
250	0xbdfa2edc	-0.12215969
251	0xbd89506e	-0.06704794
252	0x3daafa1f	0.08348488
253	0x3c69cfe2	0.0142707545
254	0xbe327066	-0.17425689
255	0xbd450a65	-0.048105616

fc1.bias f4 [64]
0	0x3de84e8f	0.11343109
1	0xbcfe2851	-0.031025084
2	0xbdb3936b	-0.08768352
3	0xbdb2bf04	-0.087278396
4	0x3e45dffd	0.19323726
5	0xbc6601d4	-0.014038522
6	0xbdf5550b	-0.11979111
7	0x3d9a2c76	0.075280115
8	0xbc9e7855	-0.019344488
9	0xbe5f0540	-0.21779346
10	0x3e3fbc55	0.18724187
11	0x3e60df8a	0.21960273
12	0x3e2875f5	0.16451247
13	0x3d9ed640	0.07755709
14	0xbdc34211	-0.095340855
15	0xbde7ed92	-0.1132461
16	0x3d9f1666	0.07767944
17	0xbd136507	-0.03598502
18	0xbc3e47b3	-0.011613774
19	0xbe50b808	-0.20382702
20	0xbdb149a9	-0.08656628
21	0x3d7429dc	0.059610233
22	0x3d1c103f	0.03810143
23	0xbd871f01	-0.065977104
24	0xbe484a18	-0.19559515
25	0x3e091abd	0.13389106
26	0xbc91fd48	-0.01782097
27	0xbe7921b1	-0.24329259
28	0x3e2c1f3e	0.16808793
29	0x3e1bf453	0.15229921
30	0x3c2bb7ee	0.010480864
31	0xbd34e3f0	-0.04416269
32	0x3e0243bf	0.12721156
33	0x3dc283d9	0.09497804
34	0xbe15f98c	-0.14645976
35	0x3c2570f0	0.010097727
36	0xbd297a6e	-0.041376524
37	0x3c37a3d8	0.011208497
38	0xbcbeb725	-0.02328069
39	0xbe2a3f1c	-0.16625637
40	0xbdcd1304	-0.100133926
41	0xbd32d29f	-0.043657895
42	0xbdcf3ec1	-0.10119391
43	0x3e526fe0	0.2055049
44	0x3c4d7ff8	0.012542717
45	0xbc1c2101	-0.009529353
46	0xbce5fcd4	-0.02807466
47	0xbe23e918	-0.16006887
48	0xbdecc5f7	-0.11561196
49	0x3dee39cb	0.11632117
50	0xbe164281	-0.14673807
51	0x3d563097	0.052292433
52	0xbd52b67e	-0.05144357
53	0xbd014a7e	-0.031565182
54	0xbdfa7de0	-0.1223104
55	0xbd8af23d	-0.067844845
56	0x3e01ea04	0.12686926
57	0xbc257960	-0.010099739
58	0xbd68c905	-0.056832332
59	0xbdee16f0	-0.11625469
60	0x3d0420bc	0.03225778
61	0x3bec9eb3	0.007221067
62	0x3c89d8e1	0.016827049
63	0x3d159321	0.036517266

fc2.weight f4 [64, 64]
0	0x3ce3be45	0.027800689
1	0xbc7f7e82	-0.015594127
2	0xbe5e8c9d	-0.21733327
3	0xbe35f3a2	-0.1776872
4	0xbe1ae187	-0.15125094
5	0xbdecbe4d	-0.115597345
6	0x3b8eb15c	0.004354639
7	0x3d30bd5e	0.043149345
8	0x3e20d92a	0.15707842
9	0xbe86396e	-0.2621569
10	0xbd2de103	-0.042450916
11	0xbde2f4c0	-0.110818386
12	0xbebfff9f	-0.3749971
13	0x3d737b65	0.05944385
14	0xbd4b843e	-0.049686663
15	0x3e51a0e5	0.20471533
16	0xbe325e69	-0.17418827
17	0xbe97f2a7	-0.29677317
18	0x3d3eec49	0.046612058
19	0xbd8ad876	-0.06779568
20	0xbeb0c873	-0.3452793
21	0x3dc40e95	0.09573094
22	0x3d0505a4	0.032476082
23	0xbc1eb4b3	-0.009686637
24	0xbe897ceb	-0.26853117
25	0xbe0a3008	-0.13494885
26	0x3e33e459	0.17567576
27	0x3e300e91	0.17193057
28	0xbe102c37	-0.14079367
29	0xbd5d2f52	-0.054000206
30	0x3e8c6145	0.2741796
31	0xbe04c480	-0.12965584
32	0x3dcca48a	0.09992321
33	0x3c9bb854	0.019008793
34	0xbd66026c	-0.056154653
35	0x3e5dd954	0.21664935
36	0xbd376d81	-0.044782165
37	0x3d33e762	0.043921836
38	0xbf2943fa	-0.6611935
39	0xbe87bd03	-0.26511392
40	0xbde9fdad	-0.11425338
41	0x3d2d8286	0.042360805
42	0xbb48762a	-0.003058801
43	0x3d8a08af	0.067399375
44	0x3e0bebcf	0.13664173
45	0xbdabcb3e	-0.08388375
46	0xbdce0eb3	-0.100613974
47	0x3d545382	0.05183745
48	0xbd8bde7a	-0.068295434
49	0xbea14f9f	-0.3150606
50	0xbe19f3ca	-0.15034404
51	0x3d535570	0.05159515
52	0xbedfe172	-0.4372669
53	0xba811abd	-0.0009849888
54	0x3c08687f	0.008325695
55	0xbc2581a3	-0.010101709
56	0xbdc4a47d	-0.09601686
57	0xbdeace61	-0.11465145
58	0xbe8a8f0c	-0.2706226
59	0xbd740474	-0.05957456
60	0x3e3092fd	0.17243572
61	0x3f35ec95	0.7106412
62	0xbea066b9	-0.3132837
63	0x3cb2c340	0.021821618
64	0xbd2eabcd	-0.04264431
65	0x3d96c7cb	0.07362326
66	0xbe7e2d39	-0.24821939
67	0x3ea9a303	0.3313218
68	0x3d361003	0.044448864
69	0x3ddc39e2	0.10753228
70	0xbe9fd621	-0.31218055
71	0xba3f31f3	-0.0007293515
72	0xbd3d81dc	-0.04626642
73	0xbe0e8a82	-0.13920024
74	0x3dec1d43	0.11529019
75	0x3e80eb04	0.25179303
76	0xbd459c25	-0.048244614
77	0x3d0532db	0.032519203
78	0xbdcc4df4	-0.09975806
79	0x3d0e6f39	0.03477404
80	0x3de19dcc	0.110164255
81	0x3dc1c870	0.094620585
82	0xbdf8631a	-0.12128277
83	0xbe1d3cc0	-0.15355206
84	0x3d91ac29	0.07112915
85	0xbe86a275	-0.2629582
86	0xbd892e36	-0.06698267
87	0xbe15d677	-0.14632593
88	0xbcd69fc3	-0.026199227
89	0x3df9504b	0.12173518
90	0xbeaad3bb	-0.33364663
91	0xbf10d01a	-0.5656754
92	0x3e7be89a	0.24600449
93	0xbd867cfb	-0.06566807
94	0xbe164b2c	-0.14677113
95	0x3ca9da9a	0.02073412
96	0xbdcf4302	-0.101202026
97	0x3dca8fac	0.098906845
98	0x3d360cae	0.044445686
99	0xbd904818	-0.07045001
100	0xbdaa08cc	-0.08302459
101	0xbc20ba29	-0.009810009
102	0x3eda9420	0.42691135
103	0xbe854dd7	-0.2603595
104	0x3dbfb73e	0.093611225
105	0xbdf3dd97	-0.11907499
106	0x3afe0528	0.0019380199
107	0xbde1c278	-0.1102342
108	0x3d1840fe	0.037171356
109	0xbe20288a	-0.15640464
110	0xbe05faf3	-0.13084011
111	0xbce53e46	-0.027983796
112	0xbe6be0e7	-0.23035012
113	0xbeae8e9d	-0.3409318
114	0xbc6975f0	-0.01424931
115	0x3d99ceb5	0.07510129
116	0xbcca24b6	-0.024675708
117	0xbecd01f9	-0.40040568
118	0x3d383760	0.044974685
119	0x3da427f3	0.08015432
120	0xbda73704	-0.0816479
121	0xbe058405	-0.13038643
122	0x3e2aeae0	0.1669116
123	0x3c9d6b39	0.019216167
124	0xbd240fc3	-0.040054094
125	0x3d74a04c	0.059723184
126	0x3d078b31	0.033091728
127	0xbc519719	-0.012792372
128	0x3dfbb76e	0.12290846
129	0x3cb1f642	0.02172387
130	0x3d281645	0.041036863
131	0x3da38e59	0.07986135
132	0x3e878977	0.26472065
133	0xbdeed1a0	-0.116610765
134	0xbc6c2e30	-0.014415309
135	0x3aa00a3a	0.0012210079
136	0x3d87bdaf	0.06627976
137	0xbe6863cf	-0.22694324
138	0x3dc69a06	0.096973464
139	0xbe4747ab	-0.19460933
140	0x3e934d4a	0.28769904
141	0xbb4fb0b5	-0.003169102
142	0xbdc79ada	-0.097463325
143	0x3e1d71a3	0.1537538
144	0xbe592913	-0.21207075
145	0xbd069442	-0.032856233
146	0x3d6cf052	0.057846375
147	0xbb8b3db6	-0.0042493
148	0x3d98d2db	0.074620925
149	0xbe3264a5	-0.17421205
150	0xbdab11ed	-0.083530284
151	0x3dba1e69	0.090878315
152	0x3aa802be	0.00128182
153	0x3dc45693	0.09586825
154	0x3d7a9d90	0.06118542
155	0xbe5162ba	-0.20447817
156	0xbeb2498a	-0.3482173
157	0x3e85e7b4	0.26153338
158	0xbe6f8067	-0.23388825
159	0xbd5f4c1f	-0.054515954
160	0x3d306529	0.043065224
161	0xbe9b2cc0	-0.3030758
162	0xbe868ab0	-0.26277685
163	0x3d3bb3e1	0.045825843
164	0x3cefbd1b	0.029264977
165	0x3d18b89e	0.03728544
166	0xbe4762af	-0.19471239
167	0x3d98a97f	0.07454204
168	0x3e0e51a2	0.13898328
169	0x3e7e13a1	0.24812175
170	0xbdcbe529	-0.09955818
171	0xbe308c43	-0.17241006
172	0xbcfd2437	-0.030901058
173	0x3ec9e321	0.39431098
174	0x3dbe1341	0.09281016
175	0xbe57ff47	-0.21093474
176	0x3e97fa10	0.2968297
177	0xbe27b89a	-0.16379014
178	0x3ec37d45	0.3818151
179	0xbe0b5a4f	-0.13608669
180	0xbdad5deb	-0.08465179
181	0x3bf6d6b1	0.0075329174
182	0xbe605fab	-0.21911494
183	0x3b89ee83	0.004209341
184	0xbe0eea82	-0.13956645
185	0xbdefd168	-0.11709863
186	0x3c2ab6dd	0.010419575
187	0x3e6c2e38	0.23064506
188	0x3e16b93c	0.14719099
189	0xbe81ecb2	-0.25375897
190	0x3e05fb3c	0.1308412
191	0x3d856f39	0.06515355
192	0xbed2dcfb	-0.4118422
193	0xbbef4404	-0.0073018093
194	0x3eaa2e96	0.33238667
195	0xbe00597b	-0.12534134
196	0xbe1fdd1b	-0.15611689
197	0xbd025d0f	-0.03182703
198	0xbe2d9d71	-0.1695459
199	0x3d4c6e10	0.04990965
200	0xbc4a11cd	-0.012333346
201	0xbd512ad6	-0.051066242
202	0x3b56eaea	0.0032793828
203	0xbd00e279	-0.03146598
204	0xbdeb98e8	-0.11503774
205	0xbd7ea26d	-0.06216662
206	0xbea0b0be	-0.31384844
207	0xbe1e36ba	-0.15450564
208	0x3ce7b8ba	0.028286327
209	0x3a9f14ba	0.0012136914
210	0x3c6b301a	0.01435473
211	0xbe2bb821	-0.16769458
212	0x3d7186f5	0.058966596
213	0x3d2e8b40	0.042613268
214	0x3de23c5d	0.1104667
215	0x3a73e42b	0.0009303714
216	0x3cafa92f	0.021442978
217	0xbda190b8	-0.07888931
218	0x3e003581	0.1252041
219	0x3e8b58d2	0.27216202
220	0x3e86193f	0.26191136
221	0xbbae14d3	-0.005312541
222	0x3db82e42	0.08993198
223	0xbc641cb4	-0.013922859
224	0xbd8dda2e	-0.0692638
225	0x3ad9475a	0.001657705
226	0xbe88eaa5	-0.2674152
227	0xbd71cd67	-0.059033778
228	0xbcbdc762	-0.023166362
229	0x3d266fe5	0.040634055
230	0xba079020	-0.00051713176
231	0xbef735e1	-0.48283294
232	0xbe2ff16e	-0.17181942
233	0x3eb4d8d4	0.35321677
234	0x3e2f38bb	0.17111485
235	0xbda62cbd	-0.08114002
236	0xbcbc6bcd	-0.023000622
237	0x3db41145	0.087923564
238	0x3d5799d5	0.05263694
239	0xbc369859	-0.011144721
240	0x3dfc62d7	0.1232354
241	0xb81b64e4	-3.704884e-05
242	0xbe765faa	-0.2405993
243	0xbe4c25b5	-0.19936259
244	0x3ddcf95a	0.107897475
245	0x3de6ccf6	0.11269562
246	0xbd8f66e6	-0.07002048
247	0x3d85f025	0.065399446
248	0xbe0ecf40	-0.13946247
249	0xbe6d2307	-0.23157893
250	0xbdd3ef3e	-0.10348366
251	0x3cb8bb95	0.022550384
252	0xbe8af249	-0.27137974
253	0xbd2cff95	-0.04223593
254	0xbe846e45	-0.2586538
255	0x3af7f40e	0.0018917338

fc2.bias f4 [64]
0	0x3d84aee6	0.06478672
1	0x3ce6ae54	0.028159298
2	0x3d5ac5fc	0.05341147
3	0x3ce419c2	0.027844314
4	0x3e0c9e43	0.13732247
5	0xbe0d3735	-0.13790591
6	0xbd907d96	-0.070552036
7	0xbd0ba006	-0.034088157
8	0x3e3c400d	0.18383808
9	0x3eca7f77	0.39550373
10	0xbab1ae26	-0.0013555929
11	0x3e70423d	0.23462768
12	0x3d8bc6c9	0.06825025
13	0xbcb92310	-0.022599727
14	0xbb4c0e31	-0.0031136388
15	0x3e8ff2b0	0.28114843
16	0x3dbd77d7	0.09251373
17	0x3e108c50	0.14116025
18	0xbc4dacd3	-0.012553412
19	0x3e03a154	0.1285451
20	0x3e83ceba	0.25743657
21	0x3ef7d216	0.4840247
22	0xbe369973	-0.17831974
23	0xbd3072e8	-0.043078333
24	0xbd5a669a	-0.053320505
25	0xbe06b852	-0.1315625
26	0x3e06edd7	0.13176666
27	0xbde55979	-0.11198706
28	0xbde913be	-0.11380719
29	0x3e3c4332	0.18385008
30	0x3e0a4ef0	0.13506675
31	0x3d534347	0.051577833
32	0xbd7c3247	-0.061571386
33	0x3e3f8e0c	0.1870653
34	0xbcccf472	-0.025018904
35	0x3dba7eef	0.09106242
36	0xbd879fe0	-0.066222906
37	0xbd8979ff	-0.06712722
38	0x3dd9195d	0.10600541
39	0x3bd6f328	0.006559748
40	0xbe166ad4	-0.14689189
41	0x3ed38581	0.41312793
42	0x3e8f7e36	0.2802598
43	0xbdf66af7	-0.12032121
44	0x3d496f6e	0.049178533
45	0xbdf6e3a4	-0.12055138
46	0x3e62965a	0.22127667
47	0xbe1e261d	-0.15444227
48	0x3cb9dedf	0.022689281
49	0xbd4713fa	-0.048603036
50	0x3c17587e	0.009237407
51	0x3edbeb63	0.42953023
52	0xbcf300ef	-0.029663531
53	0xbd54659d	-0.05185472
54	0x3e5f0948	0.21780884
55	0xbe5d49b0	-0.21610141
56	0xbe4ff9d0	-0.2031014
57	0xbe17b7c3	-0.14816193
58	0x3cfe9e2b	0.03108128
59	0xbe10bb39	-0.1413392
60	0xbd6a9515	-0.057271082
61	0x3e7c970d	0.24666996
62	0x3d9d332b	0.07675775
63	0xbe2ca796	-0.16860804

fc3.weight f4 [4, 64]
0	0x3e9eb82f	0.30999896
1	0x3e3c38ea	0.18381086
2	0x3ea7500a	0.32678252
3	0xbe844131	-0.25830987
4	0x3e5c2d37	0.21501623
5	0x3e5797ee	0.2105405
6	0xbe6c19b6	-0.23056683
7	0xbe78196a	-0.24228445
8	0x3e919f10	0.28441668
9	0x3e06fb2a	0.13181749
10	0x3b3ddaa9	0.0028969443
11	0x3ebe13b1	0.37124398
12	0xbcd37c31	-0.025816055
13	0x3d78247e	0.060581677
14	0x3eb355d5	0.35026422
15	0x3dd6f7b2	0.10496463
16	0x3ed2b35a	0.4115246
17	0x3e5b13ae	0.21394226
18	0x3e2fdf81	0.17175104
19	0x3e456c5b	0.19279616
20	0x3dc42958	0.09578198
21	0x3e4c8b59	0.19975032
22	0xbcdfd380	-0.02732253
23	0xbd9a0671	-0.0752076
24	0xbf05b777	-0.5223307
25	0x3e772dd3	0.24138574
26	0xbe8626ac	-0.2620138
27	0xbea9ba0f	-0.33149764
28	0x3d53c660	0.051702857
29	0x3da18fd1	0.07888759
30	0x3e0b9c30	0.136338
31	0x3df6689c	0.120316714
32	0x3ee50864	0.44732964
33	0x3e6f5293	0.23371343
34	0x3d9d4453	0.076790474
35	0x3cc0feed	0.023559058
36	0x3c0eafcb	0.0087089045
37	0x3d8bcb82	0.068259254
38	0x3e25e498	0.16200483
39	0x3d28a763	0.041175257
40	0x3da4c460	0.08045268
41	0x3e062c58	0.13102853
42	0x3e7acce4	0.24492222
43	0xbe96bb29	-0.29439667
44	0x3e624c5a	0.22099438
45	0xbda1191f	-0.078661196
46	0x3deae653	0.11469712
47	0x3dc91aec	0.09819588
48	0xbdcba258	-0.09943074
49	0x3e31172e	0.17293999
50	0xbcfa78a9	-0.030575113
51	0x3e46da01	0.194191
52	0x3dfe13ae	0.12406097
53	0xbe602104	-0.21887594
54	0x3d992ece	0.074796304
55	0xbe45854c	-0.1928913
56	0xbe85abea	-0.26107723
57	0xbc2c773d	-0.0105264755
58	0x3d3c7f1b	0.046019655
59	0xbd6da595	-0.05801924
60	0x3ceb5fb6	0.028732162
61	0x3e2724d0	0.16322637
62	0x3dfdd31d	0.12393782
63	0xbe1b04a9	-0.15138496
64	0x3ea9da4f	0.3317437
65	0x3e3c2a68	0.18375552
66	0x3ed8d3fa	0.42349225
67	0xbdaf7c5f	-0.08568644
68	0x3e32b461	0.17451622
69	0x3e8859f6	0.26631135
70	0xbdfc98c2	-0.12333824
71	0xbdb23c34	-0.08702889
72	0x3e0a3767	0.13497697
73	0x3e0a1cf4	0.13487607
74	0x3c6adc56	0.014334759
75	0x3e7cff68	0.24706805
76	0x3d29dc55	0.04146989
77	0x3df76168	0.12079126
78	0x3e73a727	0.23794232
79	0x3e373d77	0.1789454
80	0x3f2f0c4b	0.6837813
81	0x3e4d5c87	0.20054828
82	0x3e3d8d45	0.18510921
83	0x3dee4626	0.116344735
84	0x3de70431	0.11280096
85	0x3e893c55	0.26803842
86	0xbd68f5d4	-0.056875065
87	0xb9aed1c0	-0.00033344142
88	0x3e200fc8	0.1563102
89	0x3eac0fd9	0.3360584
90	0x3dc75167	0.09732323
91	0xbe4ef8e7	-0.20212136
92	0xbd8eab86	-0.06966309
93	0x3dcefba4	0.101065904
94	0x3f00f1cd	0.5036896
95	0x3e242a89	0.16031851
96	0x3e8f2d19	0.27964094
97	0x3e2b08cc	0.16702574
98	0x3e557b47	0.20847808
99	0x3d933421	0.07187677
100	0x3dd3ffee	0.10351549
101	0x3c241413	0.010014552
102	0x3e35068d	0.1767828
103	0x3d2dddd9	0.0424479
104	0x3dc18130	0.09448469
105	0x3e1756cc	0.14779204
106	0x3e1894d7	0.14900528
107	0xbe5103ee	-0.20411655
108	0x3e52a645	0.2057124
109	0xbdaa44ec	-0.08313927
110	0x3e060c9e	0.1309075
111	0xbd69f3de	-0.057117335
112	0x3dfa1995	0.12211911
113	0x3e269a2a	0.16269746
114	0x3e496fac	0.19671506
115	0x3d062a07	0.032754924
116	0x3e4b6ab1	0.19864918
117	0xbc34eb94	-0.011042494
118	0x3dc1660b	0.09443291
119	0xbe630834	-0.22171098
120	0xbe8e9f57	-0.27855942
121	0xbd805bd9	-0.062675186
122	0x3edb9a16	0.42890996
123	0xbe660dd1	-0.22466208
124	0xbd99a2ed	-0.07501779
125	0x3dc3f5b4	0.095683485
126	0x3d0f5399	0.034991834
127	0xbd963f14	-0.0733625
128	0x3ea992ce	0.33119816
129	0x3e2b5901	0.16733171
130	0x3f136a50	0.57584095
131	0x3ca0f23c	0.019646756
132	0x3e3e432f	0.18580316
133	0x3e80b04f	0.25134513
134	0x3e9d9255	0.30775705
135	0xbe57506a	-0.2102677
136	0x3d9ec755	0.07752863
137	0x3dd79856	0.10527103
138	0xbf2155d5	-0.63021594
139	0x3e22b8ce	0.1589081
140	0x3e12e337	0.14344488
141	0xbe96f129	-0.29480866
142	0x3daefb44	0.08544019
143	0x3e701eaf	0.23449205
144	0xbe1b4d1f	-0.15166138
145	0x3e01ffeb	0.12695281
146	0xbe106ea7	-0.1410471
147	0x3d062bc9	0.0327566
148	0x3ddc5af0	0.107595325
149	0x3e82a67b	0.2551764
150	0xbe8bad56	-0.27280682
151	0x3e806119	0.2507408
152	0xbe288b3b	-0.16459362
153	0x3eacaea1	0.3372698
154	0xbe61233f	-0.21986102
155	0xbd1a8ac0	-0.03772998
156	0x3da1a9ba	0.07893701
157	0x3e5a7ce0	0.21336699
158	0x3efcd750	0.4938302
159	0xbce2e544	-0.027697213
160	0x3e50d92d	0.20395346
161	0x3e3d1137	0.18463598
162	0x3ece3a30	0.4027877
163	0x3e5c03b9	0.21485795
164	0x3e710acd	0.23539276
165	0x3c8f56e8	0.017497495
166	0x3e9f1ad5	0.3107516
167	0x3dd3422e	0.10315357
168	0x3d81d105	0.063386954
169	0x3e2af6d1	0.16695715
170	0x3e604d64	0.21904522
171	0xbdf4a1eb	-0.11944946
172	0x3e28d8e8	0.16488993
173	0xbdb56091	-0.08856309
174	0x3de5df4e	0.112242326
175	0x3dae2027	0.08502226
176	0x3e1300a1	0.14355709
177	0x3d94a2a8	0.07257587
178	0x3ea84562	0.32865435
179	0x3e6b3c9d	0.22972341
180	0xbe11ad22	-0.14226201
181	0xbe17ce68	-0.14824831
182	0x3db04d60	0.08608508
183	0xbe44586d	-0.19174357
184	0xbe3a48f9	-0.181919
185	0xbbf82219	-0.007572424
186	0x3cd099a8	0.025463894
187	0xbe9e3f5c	-0.30907714
188	0x3cddc352	0.027070675
189	0x3e5ccdb3	0.21562843
190	0xbdfe7464	-0.124245435
191	0xbf0b3b3c	-0.5438726
192	0x3ee030bd	0.43787184
193	0x3e4faba9	0.20280327
194	0x3e97c848	0.2964499
195	0xbe8ec8af	-0.27887484
196	0x3e8376d0	0.25676584
197	0x3ee3f063	0.44519338
198	0xbeea6a76	-0.45784348
199	0xbe452746	-0.19253263
200	0x3e02147f	0.12703131
201	0x3e45b319	0.19306602
202	0x3e97ea47	0.29670927
203	0xbcf1e935	-0.029530147
204	0x3e6d8b07	0.23197566
205	0xbe11d544	-0.1424151
206	0x3f190500	0.59773254
207	0x3de5850c	0.11207017
208	0x3f31b86a	0.6942202
209	0x3e2a14a3	0.16609435
210	0x3e895a96	0.26826924
211	0x3e15c1e4	0.14624745
212	0x3d760614	0.06006439
213	0x3e705756	0.23470816
214	0xbde6085a	-0.11232062
215	0x3dfbf8cd	0.12303314
216	0x3d3ce0c7	0.046112802
217	0x3edd3b6a	0.43209392
218	0x3e4bab91	0.19889666
219	0x3dab4a73	0.083638094
220	0x3d88614e	0.066591844
221	0xbcd4e5a6	-0.025988411
222	0xbe0d1f93	-0.13781576
223	0x3d828c37	0.063744
224	0x3d9b430b	0.07581147
225	0x3e94cc37	0.29062054
226	0xbd8a726f	-0.06760108
227	0x3e3a9004	0.18219
228	0xbd7924e7	-0.06082621
229	0x3e9488d4	0.29010642
230	0x3e0b024a	0.13575092
231	0x3e80fe5a	0.25194055
232	0xbdc95440	-0.098305225
233	0x3e47dc0e	0.19517538
234	0x3e833672	0.25627476
235	0xbecbfc00	-0.39840698
236	0x3e883b90	0.26607943
237	0xbe653fd6	-0.22387633
238	0x3dd26487	0.1027308
239	0x3c6f0e6c	0.014590841
240	0xbdf73088	-0.120698035
241	0x3c803b2f	0.015653221
242	0x3e5da762	0.21645883
243	0x3e323a64	0.17405087
244	0xbf28ac66	-0.6588806
245	0x3d306878	0.04306838
246	0x3dc5a6d7	0.09650963
247	0xbd7acdc8	-0.061231405
248	0xbe7e2b85	-0.24821289
249	0xbd4cfb51	-0.05004436
250	0xbf2aa13d	-0.6665228
251	0xbeaa3487	-0.332432
252	0xbe9a2f8e	-0.30114406
253	0x3e0cee90	0.1376288
254	0xbe94495e	-0.28962225
255	0x3e0fb28e	0.14032957

fc3.bias f4 [4]
0	0x3e87e38f	0.265408
1	0x3e8d4685	0.27592865
2	0x3e0c8ca1	0.1372552
3	0x3e2f8a1f	0.17142533
