continuous_control/checkpoint_critic.pth (torch_old, 308809 bytes, 9 tensors)

fcs1.weight f4 [256, 33]
0.063261926 -0.010881037 -0.061237503 0.19954954 -0.031131899 -0.241312 0.2108138 -0.0024275067
-0.036754787 0.005039246 -0.008233453 -0.002805147 0.0128756 -0.04560157 -0.014926437 0.034949888
0.11426989 -0.09443679 0.047137927 -0.27673542 0.003945413 0.0038672928 0.026311079 0.00432272
0.007526073 0.010698069 0.01646338 0.10345718 -0.006900489 0.014435045 -0.0918086 0.009701572
-0.13209377 -0.043937992 0.007979612 -0.049385402 0.11103006 0.21939681 0.05222765 0.03016535
-0.007986086 0.043429784 0.0032995562 -0.019110993 -0.04170903 -0.053330828 -0.05174732 -0.07482797
0.004748716 0.12892832 -0.031441774 0.13261114 -0.09809834 0.026227405 0.050579738 0.0017315709
0.020008354 -0.0004965166 -0.07625199 0.09719615 0.06850864 -0.079148 -0.05640652 -0.08278665
0.03968168 -0.08856916 -0.016094789 0.04072007 -0.10260249 -0.010335712 0.015508063 -0.04632504
-0.015507207 0.0053082663 -0.006941542 0.018622201 0.000993481 0.016064646 0.02475015 0.04457364
0.024552811 0.14905539 0.062022522 0.053363662 -0.072900474 0.016385132 0.009539096 0.013888391
-0.0074314764 0.034406785 -0.003919923 0.039645266 -0.03673355 -0.02040371 -0.082006015 0.01564075
0.0075669144 -0.027799495 -0.1406901 -0.057690207 0.06831647 -0.027010294 0.04732932 -0.11024051
-0.14838266 0.05189505 -0.019232789 -0.021442078 -0.0068230215 0.040309478 0.039452076 -0.060161933
-0.06945298 0.050564762 -0.004157943 -0.13260758 -0.05902576 -0.093129225 0.030342264 0.052839812
-0.035817374 0.011356634 -0.018665582 -0.0028248602 0.027772402 0.0048225103 -0.014735685 0.12098272
0.060781397 0.050053447 0.04348994 0.07891502 -0.0010286424 -0.0019436867 -0.0051026866 0.024550503
0.017939057 0.04489792 0.010492194 -0.0024518813 -0.00036371592 0.0055629862 -0.0029073076 0.0023200142
-0.0006138821 -1.9227913e-05 -0.00068614865 0.0032024097 -0.008484546 0.0035817488 -0.038000356 0.0044198814
0.0011419022 -0.00037421088 -0.00076456345 0.0023105382 0.00057700404 0.0015722718 0.01786839 0.12514858
-0.012649949 -0.025837794 -0.10920226 0.018555894 0.7014541 -0.009557482 -0.052689783 -0.005532953
-0.1802115 -0.14344983 0.002008743 -0.25699416 -0.004429015 0.061269253 -0.108850315 -0.014967353
-0.04302568 -0.011576499 0.07654118 -0.012834887 0.010803417 0.119019695 0.12974307 0.053975288
0.07800342 -0.021951802 0.014585724 0.039469015 -0.06565702 -0.0077333166 0.07453769 0.026661625
0.12637304 0.029871875 0.056599602 -0.07147165 -0.048932396 0.048555516 -0.020767478 0.02076246
-0.0763386 0.22377218 0.11415099 -0.13542612 0.097588606 0.04227911 0.08888457 0.10266806
-0.0050121583 -0.013511186 -0.0074364627 0.03257829 3.0596533e-05 -0.013153313 -0.078386165 0.077197134
-0.029825611 -0.2188504 -0.006980258 -0.010990218 0.02343611 0.025561316 -0.016851218 0.0072465735
-0.015300122 0.03110464 0.0038486638 -0.006600246 -0.038175885 0.022910886 -0.33603123 -0.0052286484
-0.008722208 0.016587913 0.13944806 -0.0009812515 -0.06811497 -0.16890131 -0.00906586 -0.053062014
-0.009721643 -0.002012876 -0.006120778 -0.00031850184 -0.00828024 0.0145487 0.01573279 -0.074151054
0.05860651 0.028774012 -0.088814795 0.004257868 -0.0029280155 0.0006603169 0.008564298 -0.0022102229
00000000: 788f 813d 6146 32bc 2dd4 7abd b756 4c3e
00000010: 5308 ffbc 7e1a 77be 93df 573e ce16 1fbb
00000020: 308c 16bd 4220 a53b 9be5 06bc 8fd6 37bb
00000030: 2ef4 523c b6c8 3abd 048e 74bc 9d27 0f3d
00000040: 5506 ea3d 1368 c1bd b313 413d 44b0 8dbe
00000050: 8648 813b 6872 7d3b 558a d73c 9ba5 8d3b
00000060: 479d f63b f446 2f3c 36de 863c 5ce1 d33d
00000070: 7f1d e2bb f880 6c3c 2606 bcbd 58f3 1e3c
00000080: 9743 07be 53f8 33bd ebbc 023c 5948 4abd
00000090: ba63 e33d 8fa9 603e a9ec 553d 531d f73c
000000a0: 13d8 02bc 6ee3 313d 5e3d 583b a88e 9cbc
000000b0: 16d7 2abd 6d71 5abd fff4 53bd 683f 99bd
000000c0: 1e9b 9b3b c905 043e 17c9 00bd 37cb 073e
000000d0: c8e7 c8bd dbda d63c b32c 4f3d e1f5 e23a
000000e0: 8fe8 a33c aa28 02ba 012a 9cbd c60e c73d
000000f0: 424e 8c3d 5918 a2bd 860a 67bd 0c8c a9bd
00000100: 4289 223d bf63 b5bd 38d9 83bc 17ca 263d
00000110: 4121 d2bd 1e57 29bc 8815 7e3c 53bf 3dbd
00000120: f111 7ebc f7f0 ad3b e075 e3bb 968d 983c
00000130: b137 823a 019a 833c d4c0 ca3c d992 363d
00000140: fa22 c93c faa1 183e 540b 7e3d db93 5a3d
00000150: d84c 95bd 1d3a 863c de49 1c3c 228c 633c
00000160: be83 f3bb 21ee 0c3d b372 80bb 1363 223d
00000170: eb75 16bd ae25 a7bc c5f2 a7bd 0821 803c
00000180: e1f3 f73b c4bb e3bc 1111 10be 914c 6cbd
00000190: 81e9 8b3d b144 ddbc 64dc 413d c7c5 e1bd
000001a0: a0f1 17be e78f 543d 158e 9dbc 4ca7 afbc
000001b0: a793 dfbb 8d1b 253d 8098 213d 5c6c 76bd
000001c0: 5d3d 8ebd ff1c 4f3d 5b3f 88bb 48ca 07be
000001d0: ffc4 71bd 89ba bebd 5790 f83c 8f6e 583d
000001e0: 3db5 12bd 2d11 3a3c 90e8 98bc 4a21 39bb
000001f0: f382 e33c 2606 9e3b f16d 71bc cac5 f73d
00000200: eaf5 783d d804 4d3d 8222 323d 339e a13d
00000210: 83d3 86ba 4ec3 feba 7034 a7bb 231e c93c
00000220: eef4 923c e2e6 373d 74e7 2b3c beaf 20bb
00000230: 20b1 beb9 b649 b63b 8788 3ebb 610b 183b
00000240: eeec 20ba a14b a1b7 a8de 33ba 85df 513b
00000250: c402 0bbc c6bb 6a3b 43a6 1bbd a7d4 903b
00000260: e1ab 953a bc31 c4b9 fc6c 48ba 666c 173b
00000270: 1642 173a b014 ce3a bb60 923c f326 003e
00000280: bb41 4fbc c8a9 d3bc 6fa5 dfbd 8802 983c
00000290: 7f92 333f fc96 1cbc 3ed1 57bd c64d b5bb
000002a0: 5d89 38be 83e4 12be 1da5 033b bd94 83be
000002b0: 4521 91bb 78f5 7a3d eaec debd a139 75bc
000002c0: b23b 30bd 5bab 3dbc 9fc1 9c3d 6b49 52bc
000002d0: d100 313c 99c0 f33d 5edb 043e 3115 5d3d
000002e0: 42c0 9f3d 44d4 b3bc f6f8 6e3c 43aa 213d
000002f0: 3077 86bd c367 fdbb 37a7 983d 7b69 da3c
00000300: ef67 013e ddb5 f43c fcd4 673d ba5f 92bd
00000310: 566d 48bd 26e2 463d 8f20 aabc 0916 aa3c
00000320: 6957 9cbd 8924 653e ffc7 e93d 25ad 0abe
00000330: 89dc c73d dc2c 2d3d 1d09 b63d a243 d23d
00000340: 083d a4bb 065e 5dbc 92ad f3bb d070 053d
00000350: c754 0038 fe80 57bc ed88 a0bd 8819 9e3d
00000360: d754 f4bc 521a 60be a6ba e4bb 5110 34bc
00000370: 16fd bf3c f765 d13c 910b 8abc aa74 ed3b
00000380: 5dad 7abc 28cf fe3c dd39 7c3b e046 d8bb
00000390: 515e 1cbd 9caf bb3c 490c acbe 1555 abbb
000003a0: 98e7 0ebc 60e3 873c 79cb 0e3e 569d 80ba
000003b0: dd7f 8bbd 77f4 2cbe f988 14bc 8e57 59bd
000003c0: 8747 1fbc 75ea 03bb cf90 c8bb 98fc a6b9
000003d0: d8a9 07bc ac5d 6e3c 0de2 803c 82dc 97bd
000003e0: 610d 703d 7ab7 eb3c 88e4 b5bd 9685 8b3b
000003f0: f3e3 3fbb 1e19 2d3a 4551 0c3c 63d9 10bb

fcs1.bias f4 [256]
-0.021986032 0.103854805 -0.037559807 0.15490086 -0.07058273 -0.26492265 -0.2447067 -0.113011755
-0.01561643 0.09307474 -0.09384772 -0.09282694 0.15372051 -0.16531469 0.034139622 0.021629145
-0.1548287 -0.17522669 0.08480588 -0.15444843 0.016512053 -0.043397114 0.08717653 -0.09981918
-0.1441223 -0.14902899 -0.0067792805 -0.10328063 0.06061912 0.019767277 -0.05837754 -0.10547126
-0.18575832 -0.10970112 0.041176267 -0.12443698 0.25532866 0.14878412 -0.1391058 0.01565646
-0.21781826 -0.078155205 0.12645799 -0.22854868 -0.14584814 -0.111083165 -0.02093031 0.07509085
0.117408484 -0.18940918 -0.18738477 -0.025227297 -0.22376038 -0.15445036 -0.30403236 0.06303692
0.08905749 0.0068265167 -0.021842754 -0.03736339 -0.24626595 0.12115444 -0.19631262 -0.035204694
-0.024207197 -0.13903603 0.09875748 0.006893367 -0.059145607 -0.053160306 0.079784065 0.060487088
-0.059607066 -0.06811067 -0.008816579 0.05791204 0.12833174 -0.115516156 0.13449606 -0.19021495
0.013131386 0.11771649 0.00807622 -0.029247537 0.043982122 -0.18218097 0.026369713 0.01797162
-0.064206965 0.033551674 0.02633266 -0.02062769 0.031825736 -0.20975904 -0.2418005 0.02594549
0.14101177 -0.17518798 -0.0096134255 -0.09046557 -0.03955772 -0.048889387 0.043744665 -0.12696709
-0.18179998 0.05762515 -0.09176464 0.055774417 0.05542849 -0.08421231 0.23752938 0.10712485
-0.18447664 0.0067577125 -0.1027553 -0.16560087 -0.061912645 -0.17229845 -0.0044002323 0.008652149
0.17635266 -0.056240387 0.119868554 0.015905045 -0.16844293 -0.0021818643 -0.010963426 -0.014822864
-0.16037533 0.061721634 -0.2126898 -0.19597892 -0.0060941414 0.101787075 -0.06951171 -0.07052858
-0.13097985 0.123703584 -0.30187327 -0.0044241454 -0.0014804053 -0.12980562 -0.05160934 -0.13051192
0.13980117 -0.05009587 -0.07368325 0.018272711 -0.009022098 0.036111567 -0.11845226 -0.1348261
-0.10832047 0.009641799 0.011332127 0.024148906 0.033337083 -0.068492174 0.0006209182 -0.26760012
-0.012017641 -0.12835613 -0.03834407 -0.20298283 -0.08592168 0.052425317 0.014792818 -0.091879696
0.012897632 0.07505978 0.03560986 0.06679259 0.04820032 0.12354371 0.018070903 -0.018170753
0.14576022 -0.05355168 0.076489225 -0.056186166 -0.009327909 0.10292479 -0.11628438 -0.13689305
-0.0802716 -0.15732649 -0.11262503 -0.1140191 0.023204781 0.0961378 -0.03352836 0.07052164
-0.029241512 0.04508721 -0.014321661 -0.14879218 -0.07249884 -0.15877356 -0.14740933 -0.18298538
-0.104676254 0.018553367 0.01609561 -0.06247029 -0.06899487 -0.049975682 -0.057988994 0.08602086
-0.22027889 -0.13669759 -0.012529778 0.038304415 0.12636201 -0.10188153 -0.09998947 0.057605304
0.0067676776 -0.026203716 0.1600817 -0.009437009 -0.034646448 -0.19952929 -0.20180501 -0.2394446
0.03858167 -0.08502691 -0.121413566 -0.15653001 -0.052682433 -0.08182239 -0.104370706 0.08228173
-0.19156893 -0.17607215 0.09419728 -0.09569248 0.07031432 -0.020912604 -0.04489051 -0.15984398
-0.05250193 -0.15268767 0.12999026 -0.12191942 0.046239797 0.08996414 0.12899515 0.002154768
0.07649005 -0.18765461 0.0546936 -0.11219595 0.043632284 0.008242201 0.042639516 0.0794927
00000000: 0d1c b4bc d4b1 d43d 50d8 19bd 559e 1e3e
00000010: ae8d 90bd f1a3 87be 6594 7abe b572 e7bd
00000020: 0edc 7fbc f89d be3d 3c33 c0bd 0d1c bebd
00000030: e968 1d3e 4148 29be fdd5 0b3d 9b2f b13c
00000040: 6a8b 1ebe a06e 33be b5ae ad3d bb27 1ebe
00000050: 4944 873c 2cc1 31bd 9c89 b23d 006e ccbd
00000060: cc94 13be 0e9b 18be ba24 debb cc84 d3bd
00000070: c14b 783d fcee a13c 4a1d 6fbd 5101 d8bd
00000080: 6e37 3ebe fbaa e0bd 72a8 283d d1d8 febd
00000090: 70ba 823e dd5a 183e c071 0ebe fa41 803c
000000a0: c00b 5fbe d60f a0bd 347e 013e aa08 6abe
000000b0: 3759 15be 927f e3bd 0b76 abbc 3bc9 993d
000000c0: dc73 f03d 7bf4 41be cbe1 3fbe 7aa9 cebc
000000d0: 7121 65be 3c28 1ebe 21aa 9bbe 8019 813d
000000e0: c663 b63d f9b0 df3b 93ef b2bc 5b0a 19bd
000000f0: 242d 7cbe d21f f83d 2d06 49be cc32 10bd
00000100: 2c4e c6bc 765f 0ebe 5d41 ca3d c1e1 e13b
00000110: aa42 72bd 9fbe 59bd d465 a33d 4fc1 773d
00000120: 8a26 74bd 9b7d 8bbd 6a73 10bc 2d35 6d3d
00000130: 6569 033e bc93 ecbd 56b9 093e b5c7 42be
00000140: 0625 573c 5815 f13d 1f52 043c 8898 efbc
00000150: 9926 343d a68d 3abe 4c05 d83c 3839 933c
00000160: f17e 83bd 7b6d 093d 97b7 d73c 67fb a8bc
00000170: b45b 023d 13cb 56be 8d9a 77be a38b d43c
00000180: 6465 103e 7a64 33be a181 1dbc 0346 b9bd
00000190: 4707 22bd 3d40 48bd 9b2d 333d a903 02be
000001a0: c629 3abe 5908 6c3d 19ef bbbd b773 643d
000001b0: fc08 633d 8177 acbd e73a 733e 4664 db3d
000001c0: 72e7 3cbe cd6f dd3b 5f71 d2bd 4693 29be
000001d0: 1d98 7dbd 016f 30be d32f 90bb bec1 0d3c
000001e0: cb95 343e 525c 66bd a57d f53d 4c4b 823c
000001f0: 4e7c 2cbe 9cfd 0ebb f19f 33bc 99db 72bc
00000200: 6e39 24be d3cf 7c3d 5bcb 59be b3ae 48be
00000210: 5db1 c7bb be75 d03d 285c 8ebd 4a71 90bd
00000220: 951f 06be 4e58 fd3d 228f 9abe 6cf8 90bb
00000230: 290a c2ba c4eb 04be 5164 53bd eba4 05be
00000240: 0a28 0f3e 5431 4dbd 3ee7 96bd a7b0 953c
00000250: 6cd1 13bc b9e9 133d 1997 f2bd da0f 0abe
00000260: 1fd7 ddbd a3f8 1d3c 63aa 393c edd3 c53c
00000270: 778c 083d a045 8cbd 1dc5 223a e202 89be
00000280: a4e5 44bc ca6f 03be ac0e 1dbd bbda 4fbe
00000290: b5f7 afbd eebb 563d 935d 723c 6c2b bcbd
000002a0: 9750 533c f1b8 993d a5db 113d 8eca 883d
000002b0: b36d 453d 7c04 fd3d 6e09 943c d5da 94bc
000002c0: 2b42 153e 0259 5bbd 62a6 9c3d 7723 66bd
000002d0: 16d4 18bc 3bca d23d 8126 eebd b12d 0cbe
000002e0: 7065 a4bd 321a 21be f4a7 e6bd d982 e9bd
000002f0: f417 be3c e5e3 c43d 0955 09bd a66d 903d
00000300: e58b efbc 5ead 383d 66a5 6abc fa5c 18be
00000310: 467a 94bd 8995 22be 79f2 16be 8560 3bbe
00000320: 8160 d6bd 3bfd 973c f1da 833c d9e0 7fbd
00000330: 2f4d 8dbd 4db3 4cbd de85 6dbd b42b b03d
00000340: ca90 61be 74fa 0bbe b349 4dbc 17e5 1c3d
00000350: 0b65 013e 43a7 d0bd 47c7 ccbd 8af3 6b3d
00000360: 65c3 dd3b 2da9 d6bc 75ec 233e af9d 1abc
00000370: 6fe9 0dbd 6851 4cbe f9a5 4ebe f730 75be
00000380: d007 1e3d 9722 aebd ada7 f8bd 6749 20be
00000390: 89c9 57bd 7f92 a7bd 4fc0 d5bd 5383 a83d
000003a0: a52a 44be 424c 34be 81ea c03d 6bfa c3bd
000003b0: f400 903d e950 abbc 1ddf 37bd 24ae 23be
000003c0: 440c 57bd 285a 1cbe 2b1c 053e e4b0 f9bd
000003d0: f165 3d3d 1e3f b83d 4e17 043e 0237 0d3b
000003e0: d1a6 9c3d 8828 40be 6506 603d fdc6 e5bd
000003f0: c4b7 323d 4c0a 073c c6a6 2e3d 12cd a23d

batch_norm1.weight f4 [256]
0.68918633 0.4183493 0.7362063 0.08687208 0.7702642 0.45070097 0.382006 0.7851575
0.5588806 0.24515115 0.96296316 0.7874633 0.80301183 0.4470388 0.2644875 0.82265013
0.9305817 0.31835777 0.3471657 0.59500086 0.8521354 0.5415208 0.20491691 0.38908017
0.48288152 0.7839765 0.27392724 0.7248115 0.7136096 0.5691595 0.4527182 0.7846256
0.3947054 0.42179158 0.83620244 0.4460536 0.49635172 0.90418535 0.40992662 0.58960646
0.43451568 0.430111 0.8685205 0.81732553 0.61193573 0.5804763 0.6674725 0.44139794
0.7423369 0.36972624 0.310187 0.824986 0.88051915 0.26910353 0.5393896 0.67448777
0.74149257 0.7661496 0.8026047 0.41074648 0.8159959 0.866915 0.17908652 0.68835
0.6089427 0.6465301 0.8596784 0.4003192 0.4158865 0.24330932 1.0410044 0.357999
0.98244035 0.22284658 0.78933644 0.30506936 0.87359846 0.30722108 0.3215985 0.47655156
0.25542924 1.0064274 0.9363692 0.35670653 0.30356002 0.4398206 0.50456274 0.45039758
0.7116642 0.3181577 0.6604541 0.8063243 0.29373088 0.28866988 0.1742263 0.5476793
0.7983869 0.4177302 0.46831656 0.78774065 0.8620677 0.9388227 0.7357709 0.6133882
0.512448 0.7553133 0.56500757 0.751499 0.51245534 0.9819005 -0.031226428 0.41854253
0.3366459 0.7831051 0.47280112 0.30800107 0.39076477 0.5969336 0.78710395 0.73301536
0.7728741 0.33300653 0.8277855 0.86285466 0.570485 0.17363879 0.28652263 0.24502027
0.506239 0.85457397 0.7636767 0.34843504 0.50070083 0.6114599 0.37586337 0.5287908
0.7067097 0.36050087 0.8542074 0.7484477 0.88073 0.2889941 0.81846946 0.8362796
0.06706977 0.56847304 0.7017644 0.73780155 0.85866624 0.41380763 0.42373803 0.2629015
0.943428 0.3243919 0.42516774 0.83306587 0.90297997 0.8418524 0.9442514 0.2817372
0.51925844 0.5093383 0.8197022 0.39673275 0.56233335 0.80689454 0.8308413 0.24691872
0.16003431 0.47844562 0.6494517 0.88584596 0.687077 0.7388923 0.63710904 0.5208716
0.61421764 0.8717611 0.6294712 0.73878765 0.82167137 0.8409008 0.6767981 0.61773205
0.70187426 0.39773524 0.5032214 0.7463707 0.91470814 0.31859532 0.8689204 0.5225751
0.7636441 0.6752083 0.22488755 0.43338987 0.7561211 0.71002614 0.6839757 0.509977
0.20186786 0.22244604 1.029325 0.76635516 0.025178166 0.25386927 0.2892943 0.80731547
0.654848 0.72995836 0.6949026 0.6051624 0.72945786 0.342745 0.74067783 0.64430183
0.67063004 0.7771344 0.45137253 0.36387455 0.3812446 0.35625488 0.6922097 0.8258438
0.6689775 0.5645332 0.7247872 0.26920515 0.35317463 0.29150328 0.90817165 0.123595774
0.68660873 0.735219 0.38242036 0.4893587 0.88902825 0.2721194 -0.16255637 0.4806174
0.7174049 0.41783905 0.5211888 0.7533637 0.66749376 0.66670215 0.7780937 0.3923689
0.68997383 0.7031962 0.64551514 0.5657631 1.0138109 0.24424706 0.3688463 0.24103005
00000000: 846e 303f e131 d63e 0478 3c3f fde9 b13d
00000010: 0930 453f 47c2 e63e 4a96 c33e 1500 493f
00000020: cd12 0f3f e708 7b3e c184 763f 3297 493f
00000030: 2f92 4d3f 45e2 e43e e86a 873e 3399 523f
00000040: 9a3a 6e3f caff a23e b4bf b13e fa51 183f
00000050: 8c25 5a3f 1ba1 0a3f bdd5 513e 8435 c73e
00000060: 3f3c f73e afb2 483f 3140 8c3e 3f8d 393f
00000070: 1eaf 363f 70b4 113f aeca e73e 39dd 483f
00000080: d416 ca3e 11f5 d73e 5d11 563f 2361 e43e
00000090: d021 fe3e b178 673f e7e1 d13e 73f0 163f
000000a0: d778 de3e 8237 dc3e 5c57 5e3f 3f3c 513f
000000b0: d2a7 1c3f 189a 143f 7adf 2a3f e9fe e13e
000000c0: cb09 3e3f c24c bd3e d5d0 9e3e 4832 533f
000000d0: b469 613f f0c7 893e 7015 0a3f 3bab 2c3f
000000e0: 75d2 3d3f 6122 443f 8077 4d3f 5d4d d23e
000000f0: 1be5 503f 24ee 5d3f 7562 373e b537 303f
00000100: abe3 1b3f ff82 253f e213 5c3f a3f6 cc3e
00000110: 13ef d43e 1426 793e a23f 853f a54b b73e
00000120: 3681 7b3f e531 643e f411 4a3f 0d32 9c3e
00000130: 26a4 5f3f 154c 9d3e 8fa8 a43e 91fe f33e
00000140: 9fc7 823e 9dd2 803f e4b5 6f3f 3da2 b63e
00000150: 386c 9b3e 2a30 e13e 062b 013f 839a e63e
00000160: a02f 363f 91e5 a23e 8513 293f 456b 4e3f
00000170: e563 963e 8acc 933e 6168 323e b634 0c3f
00000180: 1563 4c3f bce0 d53e 30c7 ef3e 5fa9 493f
00000190: 78b0 5c3f af56 703f 7b5b 3c3f 0207 1d3f
000001a0: cb2f 033f 365c 413f 56a4 103f 3d62 403f
000001b0: 4630 033f d55d 7b3f 91ce ffbc 354b d63e
000001c0: da5c ac3e 9379 483f fd12 f23e 51b2 9d3e
000001d0: 5212 c83e a4d0 183f a57f 493f e5a6 3b3f
000001e0: 14db 453f d57f aa3e c0e9 533f 0be4 5c3f
000001f0: 4e0b 123f 5ece 313e 18b3 923e 98e6 7a3e
00000200: e198 013f 5cc5 5a3f 5180 433f 1466 b23e
00000210: ee2d 003f a388 1c3f 2a71 c03e d55e 073f
00000220: edea 343f 9293 b83e 56ad 5a3f 459a 3f3f
00000230: 8577 613f 09f7 933e 3787 513f 6b16 563f
00000240: e05b 893d 7387 113f d5a6 333f 90e0 3c3f
00000250: 8dd1 5b3f 98de d33e 31f4 d83e 079b 863e
00000260: 7f84 713f b216 a63e 96af d93e ce43 553f
00000270: b229 673f a483 573f 76ba 713f dc3f 903e
00000280: 1fee 043f ff63 023f 01d8 513f 8e20 cb3e
00000290: 14f5 0f3f a490 4e3f 04b2 543f 43d8 7c3e
000002a0: 09e0 233e d3f6 f43e 7742 263f cdc6 623f
000002b0: 47e4 2f3f 0c28 3d3f 9419 233f d757 053f
000002c0: 5e3d 1d3f bc2b 5f3f 0625 213f 3021 3d3f
000002d0: 0e59 523f 4645 573f a442 2d3f b023 1e3f
000002e0: 08ae 333f f4a3 cb3e 1ed3 003f 2612 3f3f
000002f0: 502a 6a3f ed1e a33e 9171 5e3f 7bc7 053f
00000300: 2e7e 433f 73da 2c3f ec48 663e 47e5 dd3e
00000310: 2791 413f 46c4 353f 0819 2f3f da8d 023f
00000320: 73b6 4e3e e5c8 633e ecc0 833f da2f 443f
00000330: 7142 ce3c 27fb 813e 621e 943e 3aac 4e3f
00000340: 1ea4 273f 8dde 3a3f 23e5 313f eceb 1a3f
00000350: c0bd 3a3f 467c af3e 109d 3d3f f7f0 243f
00000360: 69ae 2b3f 48f2 463f 4d1a e73e c44d ba3e
00000370: 7e32 c33e 0a67 b63e a834 313f 806a 533f
00000380: 1c42 2b3f 3f85 103f a78b 393f 42d5 893e
00000390: 4ed3 b43e eb3f 953e f07d 683f c81f fd3d
000003a0: 97c5 2f3f 5037 3c3f 9acc c33e 398d fa3e
000003b0: 5b97 633f 3c53 8b3e 2d75 26be 7c13 f63e
000003c0: d9a7 373f 00ef d53e a16c 053f 72dc 403f
000003d0: dfe0 2a3f feac 2a3f 2631 473f 94e4 c83e
000003e0: 20a2 303f ab04 343f 7b40 253f dad5 103f
000003f0: 8ec4 813f e71b 7a3e 6cd9 bc3e 95d0 763e

batch_norm1.bias f4 [256]
0.16747862 0.009575636 0.097693674 -0.23739724 0.046019133 -0.0027538834 0.069373064 0.09746725
0.09039455 0.15698865 0.026486134 0.121842556 0.021101382 0.13162045 -0.1719011 -0.0019664888
-0.118065715 -0.097308256 0.005178724 -0.03617939 0.076706976 0.042380534 -0.037581205 0.030534977
0.040439297 -0.059043188 0.10793436 0.009666019 -0.05859899 -0.0048914514 -0.085481085 0.052271694
0.01514833 -0.095693275 -0.19508338 0.064965665 -0.048882116 0.19377954 -0.03810004 0.09135384
-0.1926 -0.025652708 0.06472757 0.046588384 0.10779381 0.10575219 0.1004748 0.034178723
-0.03269007 -0.003532077 0.013146195 0.042977873 0.106325544 -0.061670084 -0.18000689 0.10110057
0.11230235 0.119067706 -0.019764932 0.01263264 0.1776823 0.114312775 0.011191651 -0.07627094
-0.011061215 0.040797975 0.06659554 -0.19336691 -0.16692908 0.09766325 0.07064754 -0.05932465
-0.060678136 -0.025609156 -0.036887128 0.042402588 0.076478064 0.052966833 0.19473077 -0.0209673
0.0035326278 -0.071811385 -0.03901751 -0.026551863 0.04631452 0.31698066 0.036590774 -0.10404143
0.06712223 -0.020184837 0.08602311 0.018409966 0.010302653 0.11447973 -0.018461859 -0.042314533
0.04194989 -0.087357655 -0.05817715 -0.056223705 0.054431517 0.06988748 0.087651946 0.07225888
0.05016229 0.027652578 0.012905311 -0.088836566 0.02256561 0.076095685 -0.26770833 -0.02670981
0.0100574475 0.1472356 0.1323793 0.0019360298 0.08110307 -0.04772264 0.020568341 0.0070118243
0.10853535 -0.027856553 -0.06723803 0.094124235 0.005199948 0.029118452 0.04666084 -0.003404265
-0.032148175 0.03946001 -0.013430918 -0.011932769 0.08840172 -0.16450696 -0.014481566 -0.028375208
-0.13239913 0.13979436 0.18552692 0.012681007 0.030859329 0.09634627 0.23574151 0.049351297
0.3145839 0.037180386 0.025472336 0.18498044 0.14433205 -0.03216984 0.10999161 0.012574439
0.12042596 0.0005789078 0.13568902 -0.024216598 -0.010622215 0.05018534 0.018882899 0.061135035
0.15166308 -0.03500488 -0.23129766 0.028197143 0.082893796 0.02780014 0.0050346614 0.009178026
0.0586796 0.050470266 0.06334324 -0.095166266 0.0964685 0.024456114 0.20630671 0.12944339
0.08826627 0.1218409 0.04632066 0.21751863 0.20315309 -0.1379627 -0.052453917 0.018158842
0.060946487 -0.13388455 0.048630584 -0.0024299747 0.07035053 -0.022014858 0.1406243 0.26582122
0.27470878 -0.15057857 -0.122570455 0.05300499 0.03239047 0.05256978 0.13145356 0.023939952
-0.06634556 0.04704723 0.11586616 0.08922036 -0.24902578 -0.120117925 0.03759349 0.13429432
-0.081748635 0.013781188 0.09070687 -0.02695197 0.05411463 -0.017874464 0.028186962 0.19384257
0.1876311 0.0054506455 0.03842664 0.008825231 -0.20049103 -0.039154407 0.017342234 0.14441182
0.11374159 -0.02359498 0.119125254 -0.04346849 0.011398003 -0.10444252 -0.103335515 -0.022743426
0.09900346 0.054012533 -0.059034623 0.00057423627 -0.0022001213 0.0032494909 -0.27266958 0.06460306
-0.04285518 0.053363293 0.036273137 -0.03688849 -0.047661357 0.07218824 0.020836297 0.031361856
0.123690546 0.020750176 -0.0011612985 0.07739399 -0.06577576 -0.01984762 0.08214403 -0.23706885
00000000: 847f 2b3e 21e3 1c3c 9f13 c83d 4318 73be
00000010: 8f7e 3c3d 7f7a 34bb 7713 8e3d e99c c73d
00000020: c720 b93d a2c1 203e 73f9 d83c 9788 f93d
00000030: cedc ac3c 83c7 063e d806 30be 35e0 00bb
00000040: 70cc f1bd 8d49 c7bd 49b2 a93b d730 14bd
00000050: 8c18 9d3d 3697 2d3d c0ee 19bd 7d24 fa3c
00000060: ada3 253d 45d7 71bd b10c dd3d 395e 1e3c
00000070: 7f05 70bd 7848 a0bb b510 afbd d81a 563d
00000080: b330 783c d6fa c3bd f0c3 47be b80c 853d
00000090: 9d38 48bd 256e 463e ca0e 1cbd b917 bb3d
000000a0: ef38 45be a125 d2bc e38f 843d 76d3 3e3d
000000b0: 00c3 dc3d 9b94 d83d bbc5 cd3d fdfe 0b3d
000000c0: 06e6 05bd 6b7a 67bb 2363 573c 9109 303d
000000d0: 35c1 d93d c599 7cbd ba53 38be d10d cf3d
000000e0: c6fe e53d c5d9 f33d 11ea a1bc 22f9 4e3c
000000f0: 59f2 353e d11c ea3d 305d 373c f033 9cbd
00000100: 193a 35bc c71b 273d 3e63 883d fa01 46be
00000110: 75ef 2abe ac03 c83d a8af 903d 67fe 72bd
00000120: a389 78bd 4bca d1bc f516 17bd 56ae 2d3d
00000130: 88a0 9c3d c0f3 583d 8167 473e 9dc3 abbc
00000140: a983 673b d911 93bd d3d0 1fbd 4b83 d9bc
00000150: 4bb4 3d3d 4a4b a23e 35e0 153d ac13 d5bd
00000160: 6177 893d ac5a a5bc e22c b03d 7fd0 963c
00000170: 75cc 283c 5974 ea3d 533d 97bc 0152 2dbd
00000180: a6d3 2b3d 92e8 b2bd 2a4b 6ebd d44a 66bd
00000190: 95f3 5e3d 2b21 8f3d dd82 b33d 77fc 933d
000001a0: f976 4d3d a987 e23c cc70 533c f2ef b5bd
000001b0: 84db b83c 0ed8 9b3d 1111 89be 88ce dabc
000001c0: fec7 243c eec4 163e 708e 073e 61c2 fd3a
000001d0: 5e19 a63d d178 43bd f07e a83c 72c3 e53b
000001e0: c847 de3d 6d33 e4bc 18b4 89bd 35c4 c03d
000001f0: 5364 aa3b d289 ee3c 701f 3f3d 171a 5fbb
00000200: cead 03bd d2a0 213d 5a0d 5cbc a981 43bc
00000210: f60b b53d 8374 28be 1744 6dbc 2073 e8bc
00000220: a393 07be 4126 0f3e c5fa 3d3e 00c4 4f3c
00000230: b4cc fc3c 3151 c53d 3966 713e 9624 4a3d
00000240: 2411 a13e 764a 183d 5cab d03c 836b 3d3e
00000250: c8cb 133e 86c4 03bd 4843 e13d 0505 4e3c
00000260: e3a1 f63d d8c1 173a 10f2 0a3e e361 c6bc
00000270: cd08 2ebc 258f 4d3d 4fb0 9a3c bb68 7a3d
00000280: 914d 1b3e 4761 0fbd 4bd9 6cbe b2fd e63c
00000290: 39c4 a93d 1fbd e33c cdf9 a43b 6e5f 163c
000002a0: 055a 703d e9b9 4e3d 1aba 813d 88e6 c2bd
000002b0: 4791 c53d 3058 c83c 1142 533e cf8c 043e
000002c0: f2c4 b43d b987 f93d bbba 3d3d 34bd 5e3e
000002d0: 5d07 503e 1846 0dbe ebd9 56bd dac1 943c
000002e0: 06a3 793d 0819 09be dd30 473d 3640 1fbb
000002f0: f013 903d 8158 b4bc d1ff 0f3e b819 883e
00000300: a1a6 8c3e 4531 1abe 3806 fbbd c31b 593d
00000310: dfab 043d 6953 573d c39b 063e b81d c43c
00000320: 2ee0 87bd 99b4 403d 3d4b ed3d 2ab9 b63d
00000330: 9d00 7fbe 6300 f6bd a2fb 193d 7384 093e
00000340: d46b a7bd 7eca 613c 86c4 b93d 61ca dcbc
00000350: 4da7 5d3d 786d 92bc 58e8 e63c ab7e 463e
00000360: 5e22 403e 549b b23b 4165 1d3d b497 103c
00000370: 854d 4dbe 5f60 20bd 4d11 8e3c b1e0 133e
00000380: 5af1 e83d 424a c1bc f1f7 f33d 040c 32bd
00000390: b1be 3a3c f6e5 d5bd 92a1 d3bd 6c50 babc
000003a0: 53c2 ca3d 3f3c 5d3d 4ace 71bd 5888 163a
000003b0: e92f 10bb 69f5 543b 599b 8bbe 9c4e 843d
000003c0: ea88 2fbd 7893 5a3d 2493 143d 6318 17bd
000003d0: 8e38 43bd 6ed7 933d e2b0 aa3c 4a75 003d
000003e0: 7851 fd3d 46fc a93c b636 98ba bd80 9e3d
000003f0: 71b5 86bd 7a97 a2bc 213b a83d 2dc2 72be

batch_norm1.running_mean f4 [256]
0.13459057 0.46298423 0.063848026 0.30759236 0.05315866 0.08907682 0.07798835 0.06910372
0.11672985 0.089558154 0.15787344 0.18458162 0.1259287 0.16973594 0.34551615 0.24265108
0.095696226 0.1896518 0.21307549 0.068778545 0.7425792 0.06301265 0.19323578 0.03342871
0.049985107 0.12617914 0.13226312 0.19657013 0.14772987 0.10089993 0.33188376 0.113232404
0.06568161 0.16526228 0.32745954 0.06699012 0.6606891 0.24410343 0.025566924 0.088107295
0.032029748 0.1150279 0.16604044 0.10425804 0.042628795 0.073305234 0.11963035 0.062554955
0.12913822 0.10635767 0.063903235 0.12044149 0.103610925 0.0991262 0.05584273 0.19967619
0.18782848 0.09203335 0.23782441 0.0999655 0.07356883 0.23220083 0.16197081 0.1394999
0.09731193 0.10025738 0.20352197 0.19062121 0.08624206 0.28429645 0.15966263 0.15118735
0.09485352 0.13870023 0.11687285 0.18855774 0.19911261 0.05178725 0.27674642 0.03359907
0.11782697 0.10713461 0.11088228 0.14292006 0.074667364 0.16170631 0.18302165 0.061304197
0.09712697 0.069148585 0.17741105 0.3547402 0.14504375 0.07060664 0.03492626 0.09951031
0.16507426 0.03844715 0.044091757 0.11964983 0.15585397 0.093106456 0.21659824 0.11518895
0.27898437 0.16789548 0.15793145 0.15373403 0.20866735 0.1108052 0.37967646 0.11622182
0.053687766 0.16027254 0.1924204 0.04328143 0.08162789 0.076206 0.12639488 0.16165888
0.308386 0.14376725 0.21002628 0.066756904 0.20458981 0.13151033 0.10534737 0.07423377
0.068119854 0.08654716 0.13482733 0.04635714 0.19491605 0.15279856 0.19439302 0.14743632
0.15286432 0.4806914 0.046325486 0.16877702 0.27799335 0.019712845 0.20356417 0.11870462
0.40264615 0.13622156 0.12465169 0.28095374 0.0581375 0.056673877 0.08329577 0.06436914
0.09386074 0.065312244 0.15136844 0.40432528 0.11787659 0.14608134 0.13613316 0.024816876
0.080382496 0.08676262 0.20884082 0.119690575 0.096987434 0.26905233 0.19133596 0.14567474
0.14263472 0.072815835 0.1519911 0.18213038 0.09548882 0.11191807 0.07667524 0.052127026
0.11513312 0.13725251 0.08719499 0.14042956 0.15559557 0.2255864 0.036243487 0.058907483
0.054823175 0.0500135 0.06886106 0.07980804 0.20162487 0.1673966 0.24174236 0.24071182
0.11892587 0.18237694 0.065589435 0.0279662 0.09942943 0.0451012 0.03305884 0.06960803
0.15166573 0.2141933 0.14262478 0.16295134 0.089146934 0.11239032 0.25546402 0.12738362
0.06931073 0.075529546 0.06441429 0.10043646 0.19234319 0.049289454 0.070090406 0.2246441
0.16948138 0.03901096 0.23984255 0.1734624 0.16646275 0.033294663 0.06257703 0.107928924
0.2093426 0.12821025 0.2068303 0.02700702 0.09893974 0.062783696 0.08237406 0.29756805
0.13623932 0.12580663 0.051975187 0.080403745 0.18231913 0.14519037 0.11229968 0.048684087
0.057307046 0.11497727 0.29878685 0.12745123 0.1875882 0.26614517 0.33758575 0.11624086
0.33174542 0.13170554 0.14914344 0.031873494 0.21414545 0.16769609 0.13371444 0.16334416
00000000: 1cd2 093e 450c ed3e c1c2 823d bf7c 9d3e
00000010: e5bc 593d e86d b63d 5bb8 9f3d 4086 8d3d
00000020: 0f10 ef3d 446a b73d 93a9 213e f702 3d3e
00000030: 74f3 003e 42cf 2d3e 7ee7 b03e 8679 783e
00000040: 62fc c33d 1534 423e 7630 5a3e c4db 8c3d
00000050: ac19 3e3f c70c 813d 9adf 453e 8bec 083d
00000060: 2fbd 4c3d 1b35 013e fc6f 073e ae49 493e
00000070: 8046 173e 9fa4 ce3d abec a93e 64e6 e73d
00000080: 1484 863d 843a 293e c7a8 a73e 1e32 893d
00000090: ec22 293f 40f6 793e ba71 d13c 9971 b43d
000000a0: a031 033d bf93 eb3d 8106 2a3e 3d85 d53d
000000b0: 889b 2e3d 0e21 963d c200 f53d d01c 803d
000000c0: cf3c 043e 0dd2 d93d b3df 823d 07aa f63d
000000d0: f731 d43d ad02 cb3d 59bb 643d ea77 4c3e
000000e0: 1c56 403e fb7b bc3d 3e88 733e b6ba cc3d
000000f0: 41ab 963d 0ec6 6d3e addb 253e 10d9 0e3e
00000100: 7a4b c73d be53 cd3d 1068 503e 3532 433e
00000110: ad9f b03d 4e8f 913e 9a7e 233e dbd0 1a3e
00000120: 9042 c23d 6f07 0e3e 085b ef3d 4815 413e
00000130: 2de4 4b3e de1e 543d b5b1 8d3e 2e9f 093d
00000140: 444f f13d 6469 db3d 4016 e33d a359 123e
00000150: 34eb 983d 5796 253e 076a 3b3e 1c1a 7b3d
00000160: 81ea c63d c69d 8d3d 3eab 353e 82a0 b53e
00000170: 5986 143e 379a 903d d70e 0f3d 10cc cb3d
00000180: 3a09 293e c27a 1d3d 8f99 343d f80a f53d
00000190: 2f98 1f3e 99ae be3d eecb 5d3e 2fe8 eb3d
000001a0: 0ad7 8e3e cbec 2b3e c8b8 213e 746c 1d3e
000001b0: e5ac 553e d6ed e23d f464 c23e b505 ee3d
000001c0: b4e7 5b3d 7c1e 243e da09 453e de47 313d
000001d0: 862c a73d e411 9c3d a96d 013e e889 253e
000001e0: c5e4 9d3e b937 133e 2111 573e d8b7 883d
000001f0: fe7f 513e a5aa 063e 5dc0 d73d e007 983d
00000200: 6c82 8b3d a33f b13d 2d10 0a3e fce0 3d3d
00000210: 1398 473e 3a77 1c3e f70e 473e 8cf9 163e
00000220: 7788 1c3e 2f1d f63e cbbf 3d3d e2d3 2c3e
00000230: 2555 8e3e d57c a13c 2073 503e 681b f33d
00000240: a327 ce3e aa7d 0b3e 6349 ff3d 2bd9 8f3e
00000250: 9621 6e3d de22 683d f996 aa3d f8d3 833d
00000260: 0f3a c03d 6dc2 853d 5400 1b3e b903 cf3e
00000270: 4869 f13d 5996 153e 7e66 0b3e c34c cb3c
00000280: 949f a43d 9ab0 b13d 5eda 553e 5520 f53d
00000290: 59a1 c63d 3ac1 893e 93ed 433e c22b 153e
000002a0: d60e 123e 7820 953d 8ea3 1b3e 6380 3a3e
000002b0: a48f c33d 4d35 e53d e907 9d3d 2683 553d
000002c0: eaca eb3d ec8b 0c3e 4993 b23d c4cc 0f3e
000002d0: 7254 1f3e 1f00 673e 0d74 143d f948 713d
000002e0: 448e 603d f5da 4c3d 0707 8d3d 6672 a33d
000002f0: c076 4e3e 046a 2b3e 4f8b 773e 297d 763e
00000300: 688f f33d 05c1 3a3e c153 863d 5f19 e53c
00000310: a8a1 cb3d 09bc 383d b568 073d a88e 8e3d
00000320: 434e 1b3e 7d55 5b3e 3b0c 123e b7dc 263e
00000330: ab92 b63d e52c e63d 2ecc 823e da70 023e
00000340: c9f2 8d3d 3caf 9a3d a4eb 833d a1b1 cd3d
00000350: 9df5 443e bde3 493d 8f8b 8f3d 1a09 663e
00000360: 878c 2d3e f5c9 1f3d 4999 753e 21a0 313e
00000370: 3675 2a3e fc5f 083d 6328 803d d709 dd3d
00000380: e85d 563e 8c49 033e 52cb 533e d33d dd3c
00000390: eba0 ca3d bd94 803d bbb3 a83d d75a 983e
000003a0: 5282 0b3e 74d3 003e efe3 543d b8aa a43d
000003b0: deb1 3a3e c9ac 143e 60fd e53d f768 473d
000003c0: cbba 6a3d 3479 eb3d 97fa 983e 9382 023e
000003d0: 1f17 403e 2e44 883e 0ad8 ac3e b00f ee3d
000003e0: 89da a93e d1dd 063e 0fb9 183e c88d 023d
000003f0: f248 5b3e 86b8 2b3e 70ec 083e b143 273e

batch_norm1.running_var f4 [256]
0.022642685 0.28327873 0.030485803 0.2141878 0.013190758 0.052798633 0.022885012 0.01837667
0.028925462 0.032257766 0.045037366 0.108660385 0.041605018 0.09540534 0.20269589 0.106267765
0.031357072 0.056211233 0.053904366 0.050850183 0.27434695 0.021956393 0.08348175 0.011664753
0.016272055 0.050210156 0.035275687 0.068109885 0.05909321 0.04437159 0.13957255 0.041485973
0.016749673 0.095906556 0.12678583 0.02683973 0.23527822 0.11989646 0.00996472 0.032139007
0.009445227 0.054545697 0.06402839 0.032307163 0.023604983 0.020696767 0.052545372 0.02076581
0.06471136 0.085655525 0.017582055 0.056986574 0.03351066 0.033115033 0.012375556 0.0866839
0.071914405 0.042095337 0.056224335 0.02964709 0.021310965 0.12033597 0.10157898 0.04889614
0.05418934 0.042995684 0.044988964 0.09764753 0.024052288 0.061511245 0.04500563 0.0694022
0.026377877 0.05643687 0.043631848 0.106074795 0.08976817 0.024315769 0.06580139 0.009753868
0.06422863 0.036118634 0.032703232 0.07094058 0.043959696 0.06255879 0.066784985 0.023300227
0.038685992 0.040642507 0.094236106 0.109208256 0.049108993 0.02747061 0.02267628 0.0334368
0.064676985 0.011735358 0.01908531 0.044312373 0.12734433 0.026876368 0.09100191 0.05018421
0.083418675 0.10741832 0.09165582 0.04944755 0.08238582 0.03554274 0.17396347 0.06774166
0.016442625 0.04536754 0.0739772 0.018238468 0.026415039 0.030692117 0.044830386 0.06473444
0.16145392 0.03139155 0.08966788 0.03750238 0.08485564 0.038923975 0.027597051 0.022859562
0.03218779 0.053131107 0.0639822 0.021019086 0.08903412 0.047466133 0.06656568 0.0794978
0.034916993 0.23916933 0.012897104 0.07082667 0.16741663 0.005380562 0.11607335 0.052518204
0.20999801 0.09351194 0.043034468 0.089900784 0.030121144 0.028650504 0.026882878 0.028414652
0.030562377 0.024528116 0.05639888 0.13078237 0.046047874 0.059509568 0.050968707 0.009423189
0.021513408 0.036758743 0.07998918 0.055657778 0.03541386 0.12655658 0.07062638 0.09409287
0.10250462 0.027393715 0.07885561 0.07684063 0.04429754 0.042023573 0.031991653 0.013749213
0.037624594 0.055282608 0.02831818 0.04552725 0.039700612 0.062441446 0.006477981 0.01883815
0.015429238 0.012778881 0.019725481 0.04960224 0.07745245 0.109317526 0.102405235 0.11220645
0.034374736 0.08176871 0.031064674 0.007280603 0.030630443 0.010253651 0.015531396 0.022356018
0.06404634 0.120690376 0.082986824 0.052563615 0.057131458 0.0402089 0.083946586 0.06900573
0.029159471 0.029400783 0.040164877 0.022258887 0.10363491 0.019151611 0.021323457 0.09567431
0.067929514 0.013092315 0.13492613 0.07504233 0.06424391 0.013486874 0.023041707 0.041244753
0.10878681 0.05393659 0.103383 0.0083104465 0.04048562 0.032283813 0.028041376 0.15741295
0.08972383 0.054119658 0.023843821 0.040096052 0.10229963 0.07305444 0.048126984 0.022405343
0.016169336 0.06421011 0.103769444 0.039845217 0.046537686 0.12425756 0.22754781 0.05260603
0.086709164 0.053447705 0.04253991 0.015008907 0.086028956 0.065796115 0.06829812 0.065413475
00000000: 277d b93c e909 913e 5dbd f93c 0c54 5b3e
00000010: 0d1e 583c 6143 583d 5979 bb3c ac8a 963c
00000020: 17f5 ec3c b820 043d 1a79 383d 5689 de3d
00000030: 066a 2a3d e063 c33d 838f 4f3e eaa2 d93d
00000040: 4670 003d c03d 663d d3ca 5c3d 4848 503d
00000050: 3477 8c3e e5dd b33c 7bf8 aa3d 851d 3f3c
00000060: f94c 853c 2aa9 4d3d 3d7d 103d 327d 8b3d
00000070: b90b 723d fcbe 353d 1bec 0e3e 32ed 293d
00000080: 9c36 893c a86a c43d 25d4 013e fede db3c
00000090: c6ec 703e 468c f53d 1143 233c 31a4 033d
000000a0: 27c0 1a3c 4f6b 5f3d 5121 833d 8454 043d
000000b0: 3d5f c13c 448c a93c d139 573d 0f1d aa3c
000000c0: 6487 843d 2a6c af3d 3e08 903c c16a 693d
000000d0: 7942 093d a1a3 073d d8c2 4a3c 5487 b13d
000000e0: dc47 933d 296c 2c3d 7d4b 663d 74de f23c
000000f0: 5594 ae3c b472 f63d a408 d03d 5247 483d
00000100: a4f5 5d3d 3e1c 303d 5946 383d 6efb c73d
00000110: 4e09 c53c 37f3 7b3d d357 383d be22 8e3d
00000120: 6b16 d83c 592a 673d 4fb7 323d be3d d93d
00000130: 60d8 b73d dd31 c73c e1c2 863d b0ce 1f3c
00000140: 4d8a 833d 22f1 133d d3f3 053d 4b49 913d
00000150: 150f 343d d31e 803d 91c6 883d 1ee0 be3c
00000160: 3475 1e3d c278 263d dcfe c03d 94a8 df3d
00000170: 8326 493d 0b0a e13c 9bc3 b93c 07f5 083d
00000180: 5e75 843d a945 403c cc58 9c3c e480 353d
00000190: 8d66 023e d42b dc3c 365f ba3d f58d 4d3d
000001a0: 69d7 aa3d 23fe db3d 0cb6 bb3d 8489 4a3d
000001b0: e6b9 a83d 4495 113d 7b23 323e 24bc 8a3d
000001c0: afb2 863c 50d3 393d 5c81 973d d768 953c
000001d0: 5a64 d83c 096e fb3c 11a0 373d 7d93 843d
000001e0: 2d54 253e 6d94 003d cba3 b73d 189c 193d
000001f0: cbc8 ad3d bf6e 1f3d 3613 e23c fa43 bb3c
00000200: 58d7 033d 01a0 593d 1a09 833d 3830 ac3c
00000210: 8557 b63d d96b 423d 9653 883d becf a23d
00000220: 1f05 0f3d cee8 743e 604e 533c 930d 913d
00000230: 446f 2b3e 6d4f b03b ddb7 ed3d 541d 573d
00000240: b809 573e 3083 bf3d e944 303d e71d b83d
00000250: 9ec0 f63c 76b4 ea3c 7b39 dc3c d8c5 e83c
00000260: f35d fa3c 30ef c83c 8302 673d d0eb 053e
00000270: b29c 3c3d 4ec0 733d 90c4 503d b863 1a3c
00000280: e33c b03c 5690 163d 5ed1 a33d 69f9 633d
00000290: 200e 113d 0c98 013e 90a4 903d c3b3 c03d
000002a0: f1ed d13d c968 e03c 0d7f a13d 9f5e 9d3d
000002b0: 5671 353d e920 2c3d ae09 033d 6144 613c
000002c0: 3f1c 1a3d 0470 623d 87fb e73c c87a 3a3d
000002d0: 1c9d 223d 9ac2 7f3d 3e45 d43b 7752 9a3c
000002e0: eaca 7c3c 835e 513c 5597 a13c b82b 4b3d
000002f0: 649f 9e3d dee1 df3d d6b9 d13d 7fcc e53d
00000300: 86cc 0c3d 5a76 a73d 587b fe3c 2092 ee3b
00000310: b2ec fa3c eefe 273c 6577 7e3c f823 b73c
00000320: ba2a 833d 842c f73d fff4 a93d f24c 573d
00000330: ad02 6a3d 16b2 243d 30ec ab3d e052 8d3d
00000340: d8df ee3c e9d9 f03c ed83 243d 4558 b63c
00000350: 8a3e d43d d7e3 9c3c 88ae ae3c e5f0 c33d
00000360: a11e 8b3d 2681 563c 132a 0a3e cbaf 993d
00000370: 5092 833d 0df8 5c3c f6c1 bc3c 42f0 283d
00000380: 9ecb de3d 9dec 5c3d 77ba d33d 8a28 083c
00000390: 40d4 253d 083c 043d 07b7 e53c dc30 213e
000003a0: 21c1 b73d 93ac 5d3d 1e54 c33c c23b 243d
000003b0: 7882 d13d 919d 953d cd20 453d 698b b73c
000003c0: 8e75 843c 9780 833d 1385 d43d bd34 233d
000003d0: 4d9e 3e3d bf7a fe3d 4b02 693e 6c79 573d
000003e0: 9394 b13d fbeb 5a3d 543e 2e3d ebe7 753c
000003f0: f32f b03d 1dc0 863d e2df 8b3d 80f7 853d

fc2.weight f4 [256, 260]
-0.036996733 -0.109547235 0.0756604 0.0044150674 -0.055100437 -0.04516958 -0.08257791 0.03095325
0.02003846 -0.09929989 -0.12730774 -0.032815948 -0.0051812707 -0.107631996 -0.069839984 0.06482765
0.07832909 0.13374838 -0.016702922 0.01357168 -0.047390155 -0.1069063 0.06362644 0.13533814
0.116732724 -0.058892827 -0.06669137 -0.14117609 0.03243855 -0.036211934 0.105233684 -0.010083028
-0.103699505 0.11058962 0.057006214 0.005354159 -0.012229128 0.01856204 -0.11263838 -0.044638608
0.0432204 -0.14969534 -0.00043310953 0.05360951 -0.075638354 -0.008020335 -0.045810282 0.013056471
-0.10070823 -0.049792178 -0.021474872 0.03430365 -0.060457308 -0.023143705 -0.02891713 -0.07741169
0.028368881 -0.011758359 -0.034170598 -0.018242456 -0.063721836 -0.005152067 -0.15328903 -0.017779406
0.007900209 0.030594192 0.022900376 -0.0046077664 0.07342988 0.047838487 0.0031062004 0.00079561636
0.018343301 0.00588982 0.015073074 -0.0012895089 -0.037991554 -0.06034846 -0.09447743 -0.05170311
0.036118124 0.028252658 -0.06557688 0.10822581 -0.06946725 -0.0037506355 -0.12437224 0.06418672
-0.01072678 -0.09288697 -0.009282046 -0.024981216 0.006194559 -0.11634253 -0.04008082 -0.050847154
-0.052668303 -0.02910118 0.08561272 -0.02125974 -0.09814558 -0.09969569 -0.06916425 0.03240478
0.014981461 0.037589524 -0.08815112 0.006331691 -0.003540722 -0.117483385 0.03628613 -0.0052296217
-0.083972625 -0.16518596 -0.0778498 -0.03733302 0.025687631 -0.07975276 0.016484521 0.03202538
-0.014382042 0.10585082 -0.06833182 -0.073087074 -0.08628348 0.04370519 -0.07852427 -0.026330391
0.04078571 0.021538798 -0.01550451 0.032929502 0.042060625 -0.040786847 -0.060757373 -0.0033602696
-0.07174372 -0.048983596 0.009647243 0.10328874 0.017961515 0.0015817604 -0.024582917 -0.038747262
-0.102066584 -0.042928617 -0.04680302 0.045324907 -0.04925725 -0.21289873 -0.021285534 -0.052691404
-0.064866744 0.15700783 0.0079196645 -0.05875117 -0.13561283 0.027224697 -0.0021894563 -0.12209247
0.08191692 0.019446155 -0.07501428 -0.063505255 -0.06517417 0.074725546 0.07439632 -0.11914377
0.01339073 0.009595568 0.027646914 0.0520433 -0.08680289 -0.048829574 0.008938404 0.073057026
0.009757763 -0.057134613 0.04444604 -0.06718138 -0.045566015 0.024592677 -0.0018870813 -0.12141745
-0.04966699 -0.038371924 0.013247294 -0.0019277476 0.02640229 -0.041427862 -0.0066617555 -0.017436951
0.051951487 -0.016222235 0.10692148 0.0028569023 0.009480257 -0.042617504 -0.10850642 -0.006196391
-0.0027742388 0.041770324 0.04816506 0.03954928 0.08470542 -0.018640043 -0.1124067 -0.050604768
-0.06726685 -0.14702733 0.023078918 0.082542926 -0.06184972 -0.073034465 -0.068743914 -0.0950674
0.038276102 -0.051102903 -0.07053045 -0.0085825985 0.027525278 0.18133269 -0.037403297 0.066564165
-0.04994789 -0.026252247 -0.057706513 -0.0011266406 -0.066674136 0.07381994 0.002385879 0.011818908
-0.04087823 -0.058207605 -0.007232699 -0.030411832 0.041114345 0.041180875 -0.018760866 0.011489902
0.010892557 -0.09356652 -0.06343486 -0.012451081 0.037603114 -0.11463628 -0.016095467 -0.053138077
0.011598959 -0.016905949 -0.027211785 -0.04006354 0.08250294 -0.06552393 -0.030245002 0.008541399
00000000: e389 17bd 4d5a e0bd d7f3 9a3d 45ac 903b
00000010: ffb0 61bd bd03 39bd 9b1e a9bd ac91 fd3c
00000020: b227 a43c be5d cbbd f65c 02be 046a 06bd
00000030: a6c7 a9bb 2a6e dcbd 4408 8fbd 5cc4 843d
00000040: 006b a03d 56f5 083e 91d4 88bc c05b 5e3c
00000050: 2e1c 42bd b1f1 dabd 944e 823d 1596 0a3e
00000060: 9111 ef3d 9b39 71bd 7c95 88bd 7790 10be
00000070: 49de 043d f752 14bd c284 d73d 4933 25bc
00000080: 6860 d4bd d07c e23d 597f 693d f171 af3b
00000090: ae5c 48bc 6b0f 983c f3ae e6bd f9d6 36bd
000000a0: e007 313d bc49 19be fa12 e3b9 a595 5b3d
000000b0: 48e8 9abd b967 03bc 90a3 3bbd cfea 553c
000000c0: 1e40 cebd e2f2 4bbd 12ec afbc fc81 0c3d
000000d0: 15a2 77bd de97 bdbc 9ee3 ecbc 058a 9ebd
000000e0: db65 e83c 22a6 40bc 78f6 0bbd 3471 95bc
000000f0: 9880 82bd acd2 a8bb cdf7 1cbe 1ea6 91bc
00000100: e16f 013c aca0 fa3c 9299 bb3c bffc 96bb
00000110: 6862 963d 4af2 433d 6591 4b3b e990 503a
00000120: b144 963c 64ff c03b 0ef5 763c bd04 a9ba
00000130: 089d 1bbd f22f 77bd 627d c1bd a4c6 53bd
00000140: 99f0 133d 1e72 e73c 2c4d 86bd 7ea5 dd3d
00000150: d844 8ebd 39cd 75bb dfb6 febd 5474 833d
00000160: 60bf 2fbc 863b bebd b913 18bc 68a5 ccbc
00000170: bafb ca3b fe44 eebd c92b 24bd 1b45 50bd
00000180: b8ba 57bd 9965 eebc b955 af3d e828 aebc
00000190: 8d00 c9bd 412d ccbd fca5 8dbd e0ba 043d
000001a0: cd74 753c 79f7 193d 9388 b4bd 137a cf3b
000001b0: 750b 68bb 219b f0bd c4a0 143d 3f5d abbb
000001c0: d7f9 abbd 8226 29be b76f 9fbd 82ea 18bd
000001d0: de6e d23c 6a55 a3bd 8c0a 873c 0b2d 033d
000001e0: a8a2 6bbc 51c8 d83d 8ef1 8bbd adae 95bd
000001f0: 65b5 b0bd 3704 333d 55d1 a0bd d5b2 d7bc
00000200: eb0e 273d 2272 b03c a106 7ebc 16e1 063d
00000210: c347 2c3d 1c10 27bd b9dc 78bd f837 5cbb
00000220: 5fee 92bd 06a3 48bd 780f 1e3c 0c89 d33d
00000230: 0724 933c 1253 cf3a 1d62 c9bc 73b5 1ebd
00000240: 4908 d1bd ebd5 2fbd 86b4 3fbd 9ca6 393d
00000250: f8c1 49bd 2002 5abe 005f aebc f1d2 57bd
00000260: dbd8 84bd a9c6 203e 7bc1 013c 11a5 70bd
00000270: 17de 0abe 5406 df3c fb7c 0fbb 9e0b fabd
00000280: 0fc4 a73d 8b4d 9f3c 16a1 99bd 0b0f 82bd
00000290: 097a 85bd b509 993d 195d 983d a601 f4bd
000002a0: cb64 5b3c bb36 1d3c c87b e23c 5b2b 553d
000002b0: b7c5 b1bd 8501 48bd 6272 123c ec9e 953d
000002c0: 06df 1f3c fc05 6abd 0d0d 363d 6496 89bd
000002d0: 6ea3 3abd 9576 c93c f157 f7ba b6a9 f8bd
000002e0: 9d6f 4bbd e12b 1dbd 2e0b 593c 7aac fcba
000002f0: 9e49 d83c 43b0 29bd db4a dabb f0d7 8ebc
00000300: 15cb 543d 7ee4 84bc a6f9 da3d de3a 3b3b
00000310: 1453 1b3c b18f 2ebd 9d38 debd 180b cbbb
00000320: 01d0 35bb 5c17 2b3d ba48 453d 6dfe 213d
00000330: 097a ad3d 01b3 98bc 7c35 e6bd f246 4fbd
00000340: 34c3 89bd 558e 16be 0010 bd3c 440c a93d
00000350: 2256 7dbd 1893 95bd 9cc9 8cbd b2b2 c2bd
00000360: 67c7 1c3d 4751 51bd 4572 90bd 079e 0cbc
00000370: b17c e13c 47af 393e 3334 19bd cb52 883d
00000380: 2996 4cbd f40e d7bc aa5d 6cbd c9ab 93ba
00000390: 738c 88bd e92e 973d 685c 1c3b 18a4 413c
000003a0: ee6f 27bd 196b 6ebd 4700 edbb 3c22 f9bc
000003b0: 8467 283d 47ad 283d 63b0 99bc 2440 3c3c
000003c0: b276 323c ce9f bfbd 23ea 81bd 9eff 4bbc
000003d0: b905 1a3d 6dc6 eabd a4da 83bc 50a7 59bd
000003e0: 8f09 3e3c 587e 8abc 40eb debc ab19 24bd
000003f0: 4df7 a83d 6931 86bd 5ec4 f7bc 39f1 0b3c

fc2.bias f4 [256]
-0.112241395 -0.057731654 0.110854715 0.013043483 -0.20136617 0.1081214 -0.055389866 -0.09543398
-0.064256735 0.06061209 0.004851887 -0.039731618 -0.04957954 0.18564433 -0.009950958 -0.106825106
0.014917574 0.073919475 -0.13823844 -0.12714829 -0.10024094 -0.11213767 -0.10010091 0.15108341
0.15352635 -0.120135166 -0.20897385 -0.101750165 -0.1341238 -0.11083145 -0.10813418 -0.01612639
0.109984115 -0.07566566 -0.1565518 0.0074580684 0.010876627 -0.058998406 -0.021860031 -0.026106734
-0.080308095 -0.16722491 0.012083362 0.00035163105 -0.19066305 -0.059783667 -0.008937699 -0.1392334
0.07895049 0.017434435 0.08341703 -0.011918715 -0.11878424 0.14077434 0.04370938 0.1269498
0.026098646 0.008296764 -0.16103065 0.067037396 -0.03774584 0.064868204 -0.0012411578 0.010120999
-0.050949752 -0.10157152 -0.10459416 -0.12707768 -0.110087544 -0.011322927 -0.022720458 -0.097341925
-0.13343087 -0.14005652 0.05967256 -0.15816316 -0.13758191 0.043143135 0.080186985 0.098615855
-0.06676161 -0.10028765 0.07401394 0.036816575 0.079132795 -0.022192981 0.05020661 0.12651837
0.046468023 0.14552991 -0.11965693 -0.16221714 -0.10905061 -0.16833274 -0.17285006 -0.07412245
0.10158587 0.05735663 -0.0114785265 -0.008569801 -0.06297671 -0.19163465 -0.10548634 0.025063572
-0.16112651 -0.06355029 -0.08209762 0.02211953 -0.06314754 -0.10097926 -0.11503654 -0.056268785
-0.077503555 -0.04944089 0.0066960845 -0.11727733 0.006196553 -0.011951488 -0.075366564 -0.073657766
-0.09004292 0.09310027 0.06875857 -0.009641711 -0.11883347 -0.057150006 -0.12745756 -0.0731258
-0.07791929 -0.06514331 -0.033610493 0.08570665 -0.0082463315 0.11166503 -0.07308435 -0.11215311
0.040231597 -0.17875691 0.1455707 0.028307853 -0.1357488 -0.16757171 0.02227016 -0.10645478
-0.09380827 0.03774483 0.05653457 -0.072198085 -0.13237266 0.10678511 -0.117557056 0.12480988
0.010601999 -0.047171906 0.10673564 -0.14335139 0.10062546 -0.03429866 0.06415577 0.021929469
-0.04370833 -0.0008429702 0.12143207 -0.097138405 -0.08818541 0.11560883 -0.07775908 -0.14316809
-0.15404935 0.07548529 -0.001996007 -0.13022502 -0.1430003 -0.16924265 -0.088121966 -0.1133924
0.025107123 0.015344945 -0.14771788 0.11927741 -0.10436223 -0.040272433 -0.12003868 -0.096868604
-0.04408524 0.023139838 -0.051128395 -0.085868366 -0.090448946 -0.1842187 0.04560672 0.032998577
-0.15919454 -0.059058394 -0.031477056 -0.03913779 -0.056695372 0.061139654 0.08859133 -0.13382797
-0.20539035 -0.103029765 -0.112578735 -0.12320661 -0.10357334 -0.118398204 -0.14581168 -0.05279686
-0.08845294 0.10130213 0.06471611 -0.11251087 0.104325175 -0.071316384 -0.11376232 -0.071736865
-0.1466606 0.05948011 -0.11498615 -0.1144619 -0.13136074 0.09297177 -0.07146917 -0.14419656
-0.061728485 0.038574196 -0.1483049 0.018316224 -0.012249679 -0.16358903 0.04699792 -0.12422879
-0.11167972 0.0052653863 0.048127424 -0.059475277 -0.075176455 -0.0042170747 -0.09911332 0.10871453
0.039237432 -0.05003396 -0.11981078 -0.15947898 -0.13035464 0.081196144 -0.13718519 0.12408523
-0.07428872 -0.059756692 -0.11306782 -0.15311433 -0.11915051 -0.075029224 0.17034185 0.020227507
00000000: d1de e5bd 0778 6cbd cc07 e33d 55b4 553c
00000010: ef32 4ebe c16e dd3d 7ce0 62bd e472 c3bd
00000020: 0999 83bd 6244 783d 94fc 9e3b 9fbd 22bd
00000030: ea13 4bbd 8c19 3e3e 5809 23bc 1fc7 dabd
00000040: d768 743c 1863 973d 618e 0dbe 2933 02be
00000050: 1f4b cdbd 6fa8 e5bd b501 cdbd 9cb5 1a3e
00000060: 0336 1d3e 6d09 f6bd 3efd 55be 6462 d0bd
00000070: c057 09be 99fb e2bd 7475 ddbd 7e1b 84bc
00000080: 5a3f e13d 99f6 9abd 1d4f 20be d062 f43b
00000090: e133 323c 50a8 71bd cf13 b3bc cadd d5bc
000000a0: 9278 a4bd 023d 2bbe 4bf9 453c 1f5b b839
000000b0: 2d3d 43be b8df 74bd 6d6f 12bc 3393 0ebe
000000c0: cbb0 a13d a9d2 8e3c 8cd6 aa3d b746 43bc
000000d0: 2745 f3bd 2627 103e 9b08 333d 21ff 013e
000000e0: d4cc d53c 27ef 073c 38e5 24be e74a 893d
000000f0: 629b 1abd 9fd9 843d 58ae a2ba 8cd2 253c
00000100: b0b0 50bd bb04 d0bd 7735 d6bd a720 02be
00000110: 9475 e1bd cc83 39bc 4120 babc 345b c7bd
00000120: 1aa2 08be fa6a 0fbe 376b 743d 86f5 21be
00000130: 46e2 0cbe dbb6 303d 1339 a43d 1cf7 c93d
00000140: 50ba 88bd 9d63 cdbd 9f94 973d facc 163d
00000150: 6010 a23d 0ece b5bc 72a5 4d3d 088e 013e
00000160: 4155 3e3d cb05 153e b10e f5bd 401c 26be
00000170: ed55 dfbd 6b5f 2cbe 9bff 30be 83cd 97bd
00000180: 410c d03d c9ee 6a3d 6e10 3cbc 5a68 0cbc
00000190: eff9 80bd e03b 44be 3909 d8bd 1f52 cd3c
000001a0: 59fe 24be a826 82bd cc22 a8bd 0434 b53c
000001b0: 7f53 81bd 37ce cebd 4798 ebbd 197a 66bd
000001c0: 2fba 9ebd 8882 4abd d46a db3b 192f f0bd
000001d0: 740c cb3b 2dd0 43bc c959 9abd e2d9 96bd
000001e0: 6c68 b8bd 5bab be3d 4bd1 8c3d 44f8 1dbc
000001f0: f65e f3bd 2016 6abd 3c84 02be fbc2 95bd
00000200: 2694 9fbd db69 85bd 28ab 09bd f886 af3d
00000210: 9f1b 07bc a3b0 e43d 3fad 95bd 88b0 e5bd
00000220: e3c9 243d 0d0c 37be 7c10 153e dfe5 e73c
00000230: bc01 0bbe eb97 2bbe e96f b63c f704 dabd
00000240: 8d1e c0bd 539a 1a3d cb90 673d 97dc 93bd
00000250: b38c 07be 27b2 da3d c1c1 f0bd 539c ff3d
00000260: 02b4 2d3c 5437 41bd 3798 da3d b5ca 12be
00000270: b914 ce3d c07c 0cbd 1a64 833d 6ea5 b33c
00000280: 8107 33bd c6fa 5cba 61b1 f83d 80f0 c6bd
00000290: 8d9a b4bd 52c4 ec3d 2740 9fbd a89a 12be
000002a0: 1dbf 1dbe 0898 9a3d 71cf 02bb b559 05be
000002b0: ac6e 12be f24d 2dbe 4a79 b4bd 463a e8bd
000002c0: 74ad cd3c 5d69 7b3c 5b43 17be b747 f43d
000002d0: ddbb d5bd b5f4 24bd d7d6 f5bd 0c63 c6bd
000002e0: ba92 34bd c28f bd3c 026c 51bd c1db afbd
000002f0: 4c3d b9bd d4a3 3cbe 1dce 3a3d 8429 073d
00000300: e503 23be 37e7 71bd 16ee 00bd f34e 20bd
00000310: 6839 68bd 936d 7a3d 5f6f b53d 330a 09be
00000320: d951 52be 4501 d3bd ae8f e6bd bf53 fcbd
00000330: 421e d4bd c27a f2bd a84f 15be 8541 58bd
00000340: d126 b5bd 7e77 cf3d e189 843d 196c e6bd
00000350: 70a8 d53d 530e 92bd 38fc e8bd c7ea 92bd
00000360: 322e 16be 6aa1 733d dc7d ebbd 006b eabd
00000370: 6e83 06be fc67 be3d 6e5e 92bd 43a8 13be
00000380: 02d7 7cbd faff 1d3d 3ddd 17be e80b 963c
00000390: e1b2 48bc e283 27be e480 403d aa6b febd
000003a0: 56b8 e4bd 4389 ac3b 4321 453d 599c 73bd
000003b0: 1df6 99bd 632f 8abb edfb cabd b9a5 de3d
000003c0: 6eb7 203d 69f0 4cbd 5b5f f5bd 754e 23be
000003d0: b07b 05be 2a4a a63d 467a 0cbe 6620 fe3d
000003e0: af24 98bd 6fc3 74bd 1a90 e7bd 01ca 1cbe
000003f0: 2f05 f4bd eca8 99bd 186e 2e3e 28b4 a53c
