continuous_control/checkpoint_actor.pth (torch_old, 307794 bytes, 10 tensors)

fc1.weight f4 [256, 33]
0	0x3d3e2853	0.046425175
1	0x3c69396d	0.014234883
2	0xbe23def6	-0.16003022
3	0x3d33df2e	0.043914013
4	0xbd86d6ef	-0.06583964
5	0xbd0ffafc	-0.035151467
6	0xbe0b02ee	-0.13575336
7	0xbd034d10	-0.032055914
8	0x3cf9d289	0.030495899
9	0xbcf3b685	-0.029750118
10	0x3d998438	0.07495922
11	0xbd0fe469	-0.03512994
12	0x3ce5f86f	0.028072564
13	0x3c516393	0.012780088
14	0xbbb6af9e	-0.0055751344
15	0x3d7d5f59	0.06185851
16	0xbd4b22ee	-0.04959386
17	0x3e0a922a	0.1353232
18	0xbafcabb6	-0.0019277248
19	0xbcf0ef85	-0.029411087
20	0x3c11cd0a	0.008898983
21	0xbd06cbd7	-0.03290924
22	0xbd3a2f56	-0.0454553
23	0x3c45882a	0.01205639
24	0xbc55573b	-0.013021286
25	0x3d2dd084	0.042435184
26	0x3ca21ffb	0.01979064
27	0xbdaa248d	-0.08307753
28	0xbd419aa2	-0.04726661
29	0x3d731074	0.059341863
30	0xba2dfade	-0.00066368084
31	0xbc87aef8	-0.016562924
32	0x3eaaa27a	0.33327085
33	0x3c439fb1	0.011939929
34	0xbc9a7e60	-0.018859088
35	0x3dd06325	0.1017516
36	0xbdba1587	-0.09086137
37	0xbe6fb12c	-0.2340743
38	0x3e797bc5	0.2436362
39	0x3e832b29	0.25618866
40	0x3cceb674	0.025233485
41	0x3db65234	0.08902398
42	0xbd3093e3	-0.043109786
43	0xbd901271	-0.070347674
44	0xbd011a8f	-0.03151947
45	0xbc4d491f	-0.01252964
46	0xbd3c7408	-0.046009094
47	0x3d044e2e	0.03230112
48	0x3c891997	0.016735835
49	0xbbb787b5	-0.0056008943
50	0x3db42c4b	0.08797511
51	0x3ce2241f	0.027605115
52	0x3e2fb3f6	0.17158493
53	0x3ba9723e	0.0051710894
54	0x3dc0f758	0.09422177
55	0x3c95aee7	0.018271876
56	0x3df8f55c	0.121561736
57	0x3d2e3536	0.042531215
58	0xbc06ea35	-0.00823455
59	0x3ca1586e	0.019695487
60	0x3d488227	0.048952248
61	0xbca37c8a	-0.019956846
62	0xbd1ab8de	-0.03777396
63	0x3ca60972	0.020268176
64	0xbd2704f2	-0.0407762
65	0x3dd67d0f	0.10473072
66	0xbd082b91	-0.033244673
67	0x3b661b12	0.003511135
68	0x3d870b52	0.06593956
69	0xbdc116ef	-0.09428202
70	0xbecaaced	-0.39585057
71	0x3db8a491	0.090157636
72	0x3e625de6	0.22106132
73	0xbc8c8ce2	-0.017157022
74	0x3d2c2800	0.042030334
75	0xbc83e212	-0.01609901
76	0xbd938d2f	-0.07204663
77	0x3cccd3dc	0.025003366
78	0x3d803a83	0.0626116
79	0x3d031c6f	0.03200954
80	0x3caa8e70	0.020819873
81	0x3d48f2c5	0.049059648
82	0x3e8d3b6a	0.27584392
83	0xbe16c59b	-0.14723818
84	0x3d8f40b7	0.06994765
85	0xbd60248f	-0.054722365
86	0xbc470bd3	-0.012148815
87	0x3d34b21c	0.04411517
88	0x3bb9f6fb	0.0056751943
89	0xbd3c5651	-0.045980755
90	0x3c9737cf	0.018459229
91	0x3d355558	0.044270843
92	0x3aff6911	0.0019486268
93	0xbc9476aa	-0.01812299
94	0xbc9dde51	-0.019271048
95	0xbb56a4e0	-0.0032752082
96	0xbcf0ab97	-0.029378695
97	0x3d38ea94	0.045145586
98	0x3e0ae5a5	0.13564165
99	0xbdde6d23	-0.1086066
100	0x3c7eb380	0.015545726
101	0x3c102e95	0.0088001685
102	0xbd99e84c	-0.0751501
103	0x3d956511	0.072946675
104	0xbdab1a3d	-0.08354614
105	0x3cbc3400	0.022974014
106	0x3d60ee29	0.054914627
107	0x3da666da	0.08125086
108	0x3dc27e0c	0.09496698
109	0xbd31ab8f	-0.0433765
110	0xbbe824f6	-0.007084484
111	0x3cb890d2	0.022529993
112	0x3d7f2a10	0.062295973
113	0x3cd0b6ec	0.025477849
114	0x3d0f32aa	0.034960426
115	0x3e36f2f7	0.17866121
116	0x3e0f6baa	0.14005914
117	0xbcaeaa33	-0.021321392
118	0x3e44df68	0.19225848
119	0xbd03a916	-0.032143675
120	0xbcc8b88d	-0.024502063
121	0xbc631eb2	-0.013862299
122	0x3c97328f	0.018456725
123	0x3b190156	0.0023346744
124	0x3c8eebdb	0.017446449
125	0x3cda0778	0.02661489
126	0x3dc984c9	0.0983978
127	0xbdcee930	-0.10103071
128	0x3c97465c	0.018466167
129	0xbe179d34	-0.14806062
130	0xbc89d8a4	-0.016826935
131	0x3e54dc7d	0.20787235
132	0x3dfbaf3b	0.12289282
133	0x3b4a16f7	0.0030836442
134	0xbd8b551a	-0.06803341
135	0xbd87c22b	-0.066288315
136	0x3dd91af1	0.10600842
137	0x3dbbfe27	0.09179335
138	0xbd5cdffa	-0.05392454
139	0xbd23ca08	-0.039987594
140	0xbda09cd0	-0.078424096
141	0xbd87e6f2	-0.06635846
142	0x3da26e34	0.07931176
143	0x3c371a27	0.011175669
144	0xbd464644	-0.048406854
145	0xbd3e4041	-0.046447996
146	0x3dbbcd5a	0.09170027
147	0x3d377569	0.044789705
148	0xbccd3717	-0.025050683
149	0x3ddb7391	0.10715402
150	0xbd8ab767	-0.067732625
151	0x3d8f1f0e	0.06988345
152	0x3b9847fa	0.004647252
153	0x3d2ab620	0.041677594
154	0xbcc4f7a8	-0.024043873
155	0xbd589997	-0.05288085
156	0x3d1f93a8	0.038959175
157	0x3c8ca1fc	0.017167084
158	0xbd9e471c	-0.07728407
159	0x3cad867d	0.021182293
160	0x3cab9f10	0.02094987
161	0xbcfc7fa8	-0.03082259
162	0xbd387437	-0.045032706
163	0xbd305162	-0.043046363
164	0xbd266424	-0.040622845
165	0xbd731a6d	-0.059351373
166	0xbd36d9eb	-0.044641417
167	0x3cf0972d	0.029368961
168	0x3d9abc96	0.07555501
169	0x3e1cff99	0.15331878
170	0xbdcc29bd	-0.099688984
171	0xbe01184c	-0.12606925
172	0xbcaee917	-0.02135138
173	0x3d461a86	0.04836514
174	0x3c8d5530	0.017252535
175	0x3b0c5abc	0.0021416387
176	0x3c2844c4	0.010270301
177	0xbc169970	-0.009191856
178	0x3ae6814f	0.0017586144
179	0xbcc3e781	-0.0239141
180	0x3bff66e7	0.0077942493
181	0xbd4c0563	-0.049809825
182	0x3e08d3fc	0.13362116
183	0x3c9890af	0.018623678
184	0x3d82dcae	0.063897476
185	0x3b8b9992	0.0042602504
186	0xbb1381cf	-0.0022507792
187	0x3bfc4aa5	0.007699328
188	0xbc7f192a	-0.015569964
189	0xbc692a90	-0.014231339
190	0xbcbdf284	-0.02318693
191	0xbd2cb61a	-0.042165853
192	0x3e0eee40	0.13958073
193	0xbd66769b	-0.056265455
194	0x3c8cc9d8	0.01718609
195	0xbddb1141	-0.1069665
196	0xbd61adfc	-0.055097565
197	0x3f044531	0.5166808
198	0x3d9cec15	0.076622166
199	0xbd9c070a	-0.0761853
200	0x3c0f83a5	0.008759414
201	0xbe020d3b	-0.1270036
202	0xbde8a9ba	-0.11360498
203	0x3e4538ed	0.19259997
204	0xbe2a33c9	-0.16621317
205	0x3cc3c78b	0.02389886
206	0x3d2b1e9b	0.041777235
207	0x3c381c36	0.011237195
208	0x3c998990	0.018742353
209	0xbbb25a30	-0.00544288
210	0x3bbf7e22	0.0058438936
211	0x3be08173	0.006851369
212	0x3d54c6a0	0.051947236
213	0xb9d2d3b5	-0.00040212055
214	0x3cb4f996	0.022091668
215	0xbe50bd44	-0.20384699
216	0xbd3dbd30	-0.046323
217	0x3c4e8a09	0.012606152
218	0xba142b0b	-0.0005652166
219	0xbd85eb59	-0.0653903
220	0x3c48ec9a	0.012263441
221	0xbb38622b	-0.0028134685
222	0xbb76205c	-0.0037555909
223	0xbc3dc602	-0.011582853
224	0xbca59440	-0.020212293
225	0x3dda25d3	0.10651746
226	0x3dc60e93	0.096707486
227	0x3d6cd206	0.05781748
228	0xbe3edbda	-0.18638554
229	0x3bd64d70	0.006539993
230	0x3e0a5138	0.13507545
231	0xbd354846	-0.04425838
232	0x3c8b7bf6	0.017026883
233	0xbe160c12	-0.14653042
234	0xbdb99cda	-0.0906312
235	0xbc720da6	-0.014773762
236	0xbdf78135	-0.12085191
237	0xbc5019fc	-0.012701508
238	0xbd099c9a	-0.033596613
239	0x3d99c075	0.075074114
240	0x3cfba6fb	0.03071927
241	0xbd39cce3	-0.04536141
242	0xbc5237c4	-0.012830678
243	0xbd21843b	-0.039432745
244	0xbc99d1c0	-0.018776774
245	0xbd9e434a	-0.07727678
246	0x3d285472	0.04109616
247	0xbe31027d	-0.17286105
248	0x3e874bbf	0.26424977
249	0x3df71171	0.120638736
250	0xbd39b446	-0.045337938
251	0xbd71492f	-0.058907684
252	0xbcdd7bde	-0.027036604
253	0xbcebf420	-0.028802931
254	0xbd85c284	-0.065312415
255	0xbd25ac48	-0.040447503

fc1.bias f4 [256]
0	0x3e0932d1	0.13398291
1	0x3e0707c5	0.13186558
2	0xbd23fed6	-0.040037952
3	0xbb38aaef	-0.0028178056
4	0xbc9e5355	-0.019326845
5	0xbe7498db	-0.23886435
6	0xbea40e82	-0.3204232
7	0xbdba83e8	-0.0910719
8	0xbdac80b3	-0.08422985
9	0xbdc88d20	-0.097925425
10	0xbe3cd2b7	-0.18439756
11	0x3d39dfab	0.045379322
12	0x3d8a1443	0.06742146
13	0xbd0e5c03	-0.034755718
14	0xbd01e779	-0.03171489
15	0xbcbdc47a	-0.023164976
16	0xbe4a3916	-0.19748339
17	0xbe692a1d	-0.22769971
18	0x3e49c129	0.19702591
19	0xbe1f4de1	-0.15557052
20	0xbdbb21c9	-0.091373034
21	0x3dcd6c02	0.100303665
22	0xbe294b12	-0.16532543
23	0xbd90ee0e	-0.07076655
24	0x3d1d1485	0.038349647
25	0xbdb0e0d9	-0.08636636
26	0xbd352e55	-0.04423364
27	0xbdbcfeaa	-0.09228261
28	0xbce38b26	-0.027776312
29	0x3d8630b0	0.06552255
30	0x3d3517d8	0.044212192
31	0xbe4f2484	-0.20228773
32	0xbe2eda82	-0.17075542
33	0xbe5ea9be	-0.21744439
34	0xbd36e12d	-0.044648338
35	0x3d23c805	0.039985675
36	0x3ddd634f	0.10809957
37	0x3d3fb602	0.046804436
38	0xbda787b2	-0.08180179
39	0xbcc1337c	-0.02358412
40	0xbe054252	-0.1301358
41	0xbe7374a5	-0.23774965
42	0x3debc0dd	0.11511395
43	0xbe76fecd	-0.24120636
44	0xbe2c415d	-0.16821809
45	0xbe55d2f1	-0.20881249
46	0x3c46c8c2	0.012132825
47	0xbc096fd8	-0.008388482
48	0x3d4df8d7	0.05028614
49	0xbe1abc11	-0.15110804
50	0xbe5b8a07	-0.21439372
51	0x3d515ddb	0.0511149
52	0xbe0f2d2a	-0.13982072
53	0xbddfe80d	-0.10932932
54	0xbe8f6609	-0.28007534
55	0x3daf732a	0.08566888
56	0x3d015f99	0.03158531
57	0x3d04de5f	0.032438632
58	0xbe1fb7d6	-0.15597472
59	0x3ce78c75	0.028265217
60	0xbd5931eb	-0.05302612
61	0x3e428024	0.18994194
62	0xbe8e4cfb	-0.27793106
63	0xbe036591	-0.12831713
64	0xbe210aba	-0.15726748
65	0xbe2eb7d4	-0.17062312
66	0x3d44b797	0.048026647
67	0x3d2ddb6e	0.042445593
68	0xbbad31ab	-0.005285462
69	0xbe030815	-0.12796052
70	0x3cfad7bc	0.030620448
71	0x3c741ace	0.014898969
72	0xbe58d4b5	-0.21174891
73	0xbe0ed289	-0.139475
74	0xbd674302	-0.056460388
75	0x3c950e4a	0.01819529
76	0xbc8f374c	-0.017482422
77	0x3b089f32	0.002084684
78	0x3dbea90c	0.09309587
79	0xbe436932	-0.19083098
80	0xbd76f079	-0.060287926
81	0x3d4cb1c1	0.049974207
82	0xbd9def9e	-0.07711719
83	0xbd15e3b6	-0.036594115
84	0xbd1d581c	-0.038414106
85	0xbe52fb6d	-0.20603724
86	0xbd930733	-0.071791075
87	0x3c3613c4	0.011113111
88	0xbcdc5cd8	-0.02689974
89	0x3d0bec98	0.03416118
90	0xbdf9e697	-0.12202185
91	0xbdab45a1	-0.0836289
92	0xbbd555d7	-0.006510477
93	0xbe844d73	-0.2584034
94	0xbe05cfb1	-0.13067509
95	0x3ddebcac	0.1087583
96	0x3c4cddf6	0.0125040915
97	0xbe36b1d2	-0.1784127
98	0x3db1f18a	0.08688648
99	0xbe1ef16f	-0.15521787
100	0x3dd33e93	0.103146695
101	0xbe07d8b5	-0.13266261
102	0x3cf64ba2	0.030065361
103	0xbdf32c0a	-0.11873634
104	0xbe597519	-0.21236075
105	0x3d71e282	0.059053905
106	0xbe290036	-0.16503987
107	0xbd640b1c	-0.055674657
108	0xbdb849f7	-0.08998483
109	0xbe19793e	-0.14987656
110	0x3cc46fb3	0.023979044
111	0x3db425ed	0.08796296
112	0xbe80c08a	-0.25146896
113	0xbd027291	-0.03184754
114	0xba41436c	-0.00073724124
115	0xbe6c10fe	-0.23053357
116	0xbd8f9fae	-0.07012878
117	0xbe83942d	-0.25698987
118	0xbc6060f6	-0.013694992
119	0xbe9d1e48	-0.30687165
120	0x3e49e8e8	0.19717753
121	0x3c093450	0.008374289
122	0x3cf2dd03	0.029646402
123	0xbd3fc663	-0.046820056
124	0xbd92272c	-0.07136378
125	0xbd510d76	-0.051038228
126	0xbdec0d40	-0.11525965
127	0x3d5c88fe	0.053841583
128	0xbdc9ef9e	-0.098601565
129	0xbd2462a6	-0.04013314
130	0xbe002b0e	-0.12516424
131	0xbe139727	-0.14413129
132	0xbd92b4b8	-0.071633756
133	0x3da02067	0.0781868
134	0x3d39feb5	0.045408923
135	0xbe3f2e14	-0.18669921
136	0xbe48fd66	-0.19627914
137	0x3c0af9e5	0.008482431
138	0xbe90f8bb	-0.28314766
139	0xbe0fb427	-0.14033566
140	0xbd1c2fce	-0.038131528
141	0xbe30d6af	-0.17269395
142	0xbe6f5c19	-0.23374976
143	0xbe37c0f9	-0.17944707
144	0x3b4ad672	0.0030950573
145	0xbe54d2e0	-0.20783567
146	0xbdba7724	-0.091047555
147	0xbda5b06c	-0.080902904
148	0x3e1c7f39	0.15282907
149	0xbc691587	-0.014226324
150	0xbe1a6901	-0.15079118
151	0xbdb2fa25	-0.087391175
152	0xbdfd7a75	-0.123768725
153	0xbdb8959b	-0.0901291
154	0x3cbedc35	0.023298362
155	0xbcf19bfc	-0.029493324
156	0x3d334672	0.043768354
157	0xbe1d5632	-0.15364912
158	0xbb816367	-0.0039486173
159	0xbe88e798	-0.26739192
160	0xbb79f4f5	-0.003814039
161	0xbe5df58b	-0.21675698
162	0xbde4369c	-0.111432284
163	0xbe6b7fc4	-0.22997957
164	0xbdbfddbe	-0.09368466
165	0xbdcb6e23	-0.09933116
166	0x3e0add59	0.13561
167	0xbdd8e07f	-0.10589694
168	0xbe3e771d	-0.18600126
169	0x3e10d8d0	0.14145207
170	0xbd2ec9a2	-0.04267276
171	0x3e2a70a1	0.16644527
172	0x3d39e51d	0.045384515
173	0x3d81575e	0.06315492
174	0x3deceb38	0.11568302
175	0x3d48a203	0.04898263
176	0x3dcb95fb	0.09940716
177	0xbc85b55d	-0.016321832
178	0x3d171500	0.03688526
179	0xbce8b3c2	-0.028406028
180	0xbd8e1a7b	-0.069386445
181	0x3d364a0d	0.044504214
182	0xbe7925aa	-0.24330774
183	0xbe35484a	-0.17703357
184	0x3d0d2da7	0.034467366
185	0xbd6b1102	-0.057389267
186	0xbd4759cb	-0.048669618
187	0xbd8d9ab6	-0.069142744
188	0x3d6c58b0	0.057701766
189	0x3bb6ef47	0.0055827233
190	0x3d6a0954	0.057137802
191	0x3e066678	0.13125026
192	0xbe125590	-0.14290452
193	0x3d2e35d9	0.042531822
194	0x3d0f3b50	0.034968674
195	0xbd966bab	-0.07344755
196	0xbd97165a	-0.0737731
197	0xbde28b21	-0.11061693
198	0xbe4a46e1	-0.197536
199	0xbe7f5f80	-0.24938774
200	0xbe902229	-0.28151062
201	0xbd704788	-0.058661968
202	0x3d2e4dc3	0.042554628
203	0xbd8fecc8	-0.07027584
204	0xbd7a84e4	-0.06116189
205	0xbd925b67	-0.0714634
206	0xbc3fb879	-0.011701697
207	0xbc688269	-0.014191248
208	0xbddec65a	-0.10877676
209	0xbe159213	-0.14606504
210	0x3da3823d	0.07983825
211	0x3d0ffbc2	0.035152204
212	0x3d915aa8	0.070973694
213	0xbe679031	-0.22613598
214	0xbc9e7f75	-0.019347886
215	0x3cfcd1ce	0.030861761
216	0xbdf5098d	-0.11964712
217	0x3d237680	0.039907932
218	0x3d468e3b	0.048475485
219	0xbc3a30a9	-0.011364141
220	0xbdcbb2d3	-0.099462174
221	0xbe5e6922	-0.21719792
222	0xbe80b262	-0.25136095
223	0xbe81480b	-0.25250277
224	0x3e1fc31a	0.15601769
225	0xbe428228	-0.18994963
226	0xbe55f6a8	-0.20894873
227	0xbdb58ffb	-0.08865353
228	0xbe3b9c1f	-0.18321274
229	0xbddf55c8	-0.10905033
230	0x3adc09b3	0.0016787559
231	0x3db28a28	0.087177575
232	0xbe1c15ab	-0.1524264
233	0xbe8072c0	-0.25087547
234	0x3db8c302	0.0902157
235	0xbdfe61dc	-0.12421009
236	0xbc7267cf	-0.014795258
237	0xbd677eca	-0.0565174
238	0xbd0efdb4	-0.03490992
239	0xbe5f0164	-0.21777874
240	0xbdfb11e9	-0.122592755
241	0xbe0347ca	-0.12820354
242	0xbd56ee06	-0.05247309
243	0xbdcd3f43	-0.10021832
244	0xbd661f67	-0.05618229
245	0x3daa7bd2	0.08324398
246	0xbdb98527	-0.090586
247	0xbc0afb67	-0.008482791
248	0x3e19683a	0.14981166
249	0xbe0c42af	-0.13697313
250	0x3df3ab53	0.11897912
251	0xbdfb546e	-0.12271963
252	0x3d75e263	0.060030352
253	0xbd212417	-0.03934106
254	0xbdea878b	-0.11451634
255	0xbdd2afa3	-0.10287406

batch_norm1.weight f4 [256]
0	0x3f49b3fe	0.7879027
1	0x3f21b00d	0.6315926
2	0x3f81738d	1.0113388
3	0x3ee9170e	0.45525402
4	0x3f1ade6a	0.60495627
5	0x3f4840f6	0.7822412
6	0x3f06cd11	0.52656657
7	0x3f4dbf5b	0.8037011
8	0x3f4e0303	0.80473346
9	0x3f0a1956	0.5394491
10	0x3fa5df79	1.2958823
11	0x3f7f46bb	0.997173
12	0x3f923ddb	1.1425127
13	0x3f05d738	0.5228152
14	0x3ec54c2f	0.38534686
15	0x3f804c3b	1.0023264
16	0x3f9815dc	1.1881671
17	0x3f050deb	0.5197436
18	0x3f043ab3	0.5165207
19	0x3f2ac0e2	0.66700566
20	0x3f907a03	1.1287235
21	0x3f2dd2bd	0.67899686
22	0x3ecd8dbc	0.40147197
23	0x3f140f2e	0.5783566
24	0x3ef5956b	0.4796556
25	0x3f84e360	1.0381889
26	0x3ef77236	0.48329324
27	0x3f981495	1.1881281
28	0x3f6142be	0.87992465
29	0x3f247212	0.6423656
30	0x3f1a3709	0.60240227
31	0x3f855c0b	1.0418714
32	0x3f01ca9d	0.5069979
33	0x3f0fcbc5	0.561703
34	0x3f92762a	1.1442311
35	0x3f16339b	0.58672494
36	0x3f55d82e	0.8353299
37	0x3fa7f951	1.312296
38	0x3edbf0cb	0.42957148
39	0x3f50f389	0.81621605
40	0x3f337e92	0.70115006
41	0x3f1059b2	0.56386864
42	0x3f9c964e	1.2233369
43	0x3f9ad7bb	1.2097086
44	0x3f50a21d	0.81497365
45	0x3f51ee83	0.82004565
46	0x3f84fa74	1.0388932
47	0x3f12d2be	0.5735282
48	0x3f6fe877	0.9371409
49	0x3ef67a51	0.48140195
50	0x3ec09624	0.37614548
51	0x3f8a3283	1.0796665
52	0x3f8789bb	1.0588907
53	0x3ee6ad56	0.4505412
54	0x3f1ab65e	0.6043452
55	0x3f61643f	0.8804359
56	0x3f7a0ac5	0.97672683
57	0x3f8305bc	1.0236125
58	0x3f9b2439	1.2120429
59	0x3f044605	0.5166934
60	0x3f4b02f0	0.7930136
61	0x3f9295b2	1.1451933
62	0x3ed426a2	0.41435724
63	0x3f937f8c	1.1523299
64	0x3f62dc8d	0.88617784
65	0x3f40d860	0.7533016
66	0x3f9a1efe	1.2040708
67	0x3f159584	0.5843127
68	0x3f1c3724	0.6102164
69	0x3ec0f732	0.37688595
70	0x3f8cf194	1.1011224
71	0x3ecfe46e	0.40603966
72	0x3f957976	1.1677692
73	0x3f15ce41	0.58517843
74	0x3f8259a5	1.0183607
75	0x3efcff7b	0.49413666
76	0x3fb0fd25	1.3827254
77	0x3f15b506	0.58479345
78	0x3f04f77e	0.51940143
79	0x3f095308	0.5364232
80	0x3ef90109	0.48633602
81	0x3f9561ff	1.1670531
82	0x3f6cc635	0.9248994
83	0x3f04ce1b	0.5187699
84	0x3ef80526	0.48441428
85	0x3f2b76fc	0.6697843
86	0x3f57b87c	0.84265876
87	0x3f2ef7f0	0.6834707
88	0x3f7b1512	0.98079026
89	0x3f032744	0.5123179
90	0x3f642b4d	0.8912857
91	0x3f865dff	1.0497435
92	0x3ef59992	0.47968727
93	0x3ee16af9	0.44026926
94	0x3ed53d07	0.41648123
95	0x3f53e449	0.8277021
96	0x3f9e8d4a	1.2386868
97	0x3f18239b	0.5942933
98	0x3f3103e7	0.6914658
99	0x3fa1757f	1.2613982
100	0x3f9655a0	1.1744881
101	0x3fac94bb	1.3482889
102	0x3f711ec5	0.94187576
103	0x3f4e6c2e	0.8063382
104	0x3f734b7d	0.9503706
105	0x3f852c10	1.0404072
106	0x3f35eb2d	0.71061975
107	0x3f5cbf8b	0.8622977
108	0x3f4c4e6b	0.79807156
109	0x3f9c11e4	1.219296
110	0xbf0013f7	-0.50030464
111	0x3f131d8f	0.5746698
112	0x3ec89d68	0.3918259
113	0x3f5f4b79	0.8722454
114	0x3f168b08	0.58805895
115	0x3edbcd88	0.42930245
116	0x3edb9407	0.42886373
117	0x3f6b95c0	0.92025375
118	0x3f93db44	1.155129
119	0x3f9b8ef6	1.2153003
120	0x3f888fd4	1.0668893
121	0x3ebfc871	0.37457612
122	0x3f96802d	1.1757866
123	0x3f96e128	1.1787462
124	0x3f417435	0.7556794
125	0xbf0ad694	-0.5423367
126	0x3f116927	0.56801075
127	0x3ed2812f	0.41114184
128	0x3f63da61	0.89005095
129	0x3f875b0e	1.0574663
130	0x3f84d941	1.0378801
131	0x3f0b22eb	0.54350156
132	0x3f1d5c19	0.61468655
133	0x3f619036	0.88110673
134	0x3f054c3e	0.5206946
135	0x3f49328a	0.7859274
136	0x3f6df188	0.9294667
137	0x3ef505c3	0.47855958
138	0x3f8035d1	1.0016423
139	0x3f21cb7d	0.63201123
140	0x3fa03ab8	1.251792
141	0x3ed218da	0.41034585
142	0x3f96f3ff	1.1793212
143	0x3f86710c	1.0503249
144	0x3ed45bd3	0.41476306
145	0x3f654a06	0.89566076
146	0x3f27f4aa	0.656077
147	0x3f946017	1.1591824
148	0x3f827457	1.0191754
149	0x3f0a7db2	0.54098046
150	0x3f024bc4	0.5089686
151	0x3eba30c4	0.3636533
152	0x3f9532c2	1.1656115
153	0x3eff7c22	0.49899393
154	0x3efd8953	0.49518833
155	0x3f9f6e25	1.2455488
156	0x3f7f0bf1	0.99627596
157	0x3f8d8569	1.1056339
158	0x3fa2048b	1.2657636
159	0x3f04ef00	0.51927185
160	0x3f2ffcd3	0.68745154
161	0x3f676b3a	0.9039799
162	0x3fadc917	1.3576993
163	0x3f24775f	0.64244646
164	0x3f3e6f45	0.74388534
165	0x3f85578d	1.0417343
166	0x3f81b175	1.013228
167	0x3efddbc4	0.4958173
168	0x3f016dff	0.50558466
169	0x3f027424	0.50958467
170	0x3f59a439	0.8501621
171	0x3f8fcccc	1.1234374
172	0x3f82d625	1.0221602
173	0x3f8b6788	1.089097
174	0x3f63062f	0.8868131
175	0x3f1649cc	0.58706355
176	0x3f3d9d93	0.74068564
177	0x3f959d7e	1.1688688
178	0x3f5e88a4	0.8692725
179	0x3f641d34	0.8910706
180	0x3f969818	1.1765165
181	0x3f84d44f	1.0377291
182	0x3f67f38a	0.90605986
183	0x3f34de64	0.7065184
184	0x3f08cc96	0.53437173
185	0x3f0001f3	0.50002974
186	0x3f11d1e7	0.5696091
187	0x3f979760	1.1843071
188	0x3f85f678	1.0465841
189	0x3f018562	0.5059415
190	0x3f94dbc6	1.162957
191	0x3f120a2f	0.5704679
192	0x3f488259	0.78323895
193	0x3f60d316	0.8782209
194	0x3eed0810	0.46295214
195	0x3eed60df	0.4636297
196	0x3f2b1f7a	0.66844904
197	0x3f467c22	0.7753316
198	0x3f754f34	0.9582398
199	0x3f27505b	0.6535699
200	0x3eca3a7a	0.3949774
201	0x3f0141b5	0.50490886
202	0x3f9436d7	1.1579236
203	0x3f68edb3	0.909877
204	0x3eeb57cb	0.45965418
205	0x3eb9ab0c	0.3626331
206	0x3f0da463	0.5532896
207	0x3f8ec704	1.1154485
208	0x3f81942c	1.0123343
209	0x3f5842b6	0.8447679
210	0x3f97c6f7	1.1857594
211	0x3f56d5f4	0.83920217
212	0x3f7c7ac8	0.9862485
213	0x3ed469e3	0.41487035
214	0x3f7c6680	0.985939
215	0x3f6a67bb	0.9156453
216	0x3f6ece06	0.93283117
217	0x3f935bac	1.1512351
218	0x3f38b46e	0.72150314
219	0x3f0bea4f	0.546544
220	0x3f346d2f	0.704791
221	0x3ee13b02	0.43990332
222	0x3f4ae323	0.79252833
223	0x3f76f181	0.96462256
224	0x3f4f1bf8	0.8090205
225	0x3f3f4cd3	0.747266
226	0x3f7e9fc2	0.9946252
227	0x3ecb2b3e	0.3968143
228	0x3f02165d	0.50815374
229	0x3ee0bad4	0.4389254
230	0x3f9b347d	1.2125393
231	0x3ec39520	0.3819971
232	0x3f844213	1.0332664
233	0x3f949a71	1.1609632
234	0x3f22dcf6	0.6361841
235	0x3f245942	0.64198697
236	0x3f941876	1.1569965
237	0x3ee69970	0.4503894
238	0x3ee50e23	0.44737348
239	0x3f277d4e	0.65425575
240	0x3f38c0e0	0.72169304
241	0x3f182893	0.5943691
242	0x3f3d9fbc	0.7407186
243	0x3f7d35ff	0.98910517
244	0x3f704456	0.9385427
245	0x3f4e4087	0.8056721
246	0x3f843f8d	1.0331894
247	0x3f184e49	0.59494454
248	0x3f420bc3	0.75799197
249	0x3f426712	0.7593852
250	0x3f8281f2	1.0195906
251	0x3f278d35	0.6544984
252	0x3f842e35	1.0326601
253	0x3f0d213c	0.55128837
254	0x3f07a3a5	0.52984077
255	0xbf18b988	-0.596581

batch_norm1.bias f4 [256]
0	0x3bf0f880	0.0073538423
1	0x3c6e2bfe	0.014536856
2	0xbd829e15	-0.06377808
3	0x3d2b6219	0.0418416
4	0xbdad5879	-0.084641404
5	0x3d87eb8d	0.066367246
6	0x3d9359c3	0.07194855
7	0xbd85b368	-0.0652836
8	0xbd984634	-0.07435265
9	0x3d10cf0f	0.035353716
10	0xbe69066a	-0.22756353
11	0xbe23a052	-0.15979126
12	0xbcd3679d	-0.025806243
13	0xbcd42240	-0.025895238
14	0xbdb2abf8	-0.08724207
15	0x3dbe9e89	0.09307582
16	0x3d471cc8	0.048611432
17	0x3a91ae1b	0.001111451
18	0xbcddbc1b	-0.027067235
19	0xbdbe6d9a	-0.092982486
20	0x3e32c649	0.17458452
21	0xbb8002fb	-0.0039066053
22	0xbc14c585	-0.009080295
23	0x39cd1d4e	0.0003912248
24	0x3d81970b	0.06327637
25	0xbdcd17d1	-0.10014308
26	0x3e06c050	0.13159299
27	0xbcd95fdd	-0.026534969
28	0xbda46373	-0.08026781
29	0x3d86a7bf	0.06574964
30	0xbc870ce7	-0.016485645
31	0x3da3bf72	0.079955
32	0x3e8bb5e4	0.2728721
33	0x3dbb4496	0.09143941
34	0x3cca88de	0.024723466
35	0xbd20a1c6	-0.03921678
36	0x3c27a809	0.010232934
37	0x3dbeeaf9	0.09322161
38	0xbda4104e	-0.08010922
39	0xbd54d8c0	-0.05196452
40	0xbd829d38	-0.06377643
41	0xbd9c74b5	-0.076394476
42	0x3e0ed4d7	0.1394838
43	0x3c35fd29	0.011107721
44	0x3e49e300	0.197155
45	0x3d3d4b7d	0.04621457
46	0x3c458052	0.01205452
47	0x3d06d8f0	0.03292173
48	0x3d29acbc	0.041424498
49	0xbad4461d	-0.0016195212
50	0x3d048390	0.03235203
51	0xbd1f20ac	-0.038849518
52	0x3db230e5	0.08700732
53	0xbe3ecd28	-0.18632948
54	0xbcad89d6	-0.02118389
55	0x3dc3c552	0.0955912
56	0xbcd748ba	-0.026279796
57	0xbd540f02	-0.051772125
58	0xbe6addcc	-0.22936171
59	0xbcb66eed	-0.02226969
60	0xbdcfacdc	-0.10140392
61	0x3cac3451	0.02102104
62	0xbdde0c5f	-0.10842203
63	0x3cb6ddfc	0.022322647
64	0x3d2f92f2	0.042864747
65	0xbceb0267	-0.028687669
66	0x3d4e1e0a	0.050321616
67	0xbcf4b98b	-0.02987363
68	0xbd6aa593	-0.05728681
69	0xbdd56463	-0.10419538
70	0xbc8b16fa	-0.01697873
71	0x3d3150b8	0.04328987
72	0xbdac0fcd	-0.08401451
73	0x3dec0206	0.115238234
74	0x3d4c3d92	0.049863406
75	0x3d54b385	0.051929016
76	0xbd71f405	-0.059070606
77	0x3dfb4e47	0.122707896
78	0xbc5d716b	-0.0135158105
79	0xbce93cd0	-0.02847138
80	0xbd78589e	-0.060631387
81	0x3da07c18	0.07836169
82	0xbd8ed66d	-0.06974492
83	0xbca927db	-0.020648887
84	0xbdbc4f00	-0.091947556
85	0x3bfc034a	0.007690822
86	0x3db630b8	0.08896011
87	0x3de4da57	0.111744575
88	0xbca8016e	-0.020508494
89	0xbcf387c1	-0.029727818
90	0x3c678b72	0.014132367
91	0xbde72e3f	-0.112881176
92	0xbd942dba	-0.07235284
93	0x3da0a510	0.07843983
94	0x3d9ca390	0.076483846
95	0x3b3e9d47	0.0029085444
96	0x3e0c53aa	0.1370379
97	0x3d2567de	0.04038226
98	0xbbffbc4e	-0.00780443
99	0x3df93872	0.12168969
100	0x3e0163d2	0.12635735
101	0xbc6ebdfb	-0.014571662
102	0xbd4e090d	-0.0503016
103	0xbbbd9766	-0.0057858704
104	0x3e7fdfd1	0.24987723
105	0x3ce6cbac	0.02817329
106	0xbcd7232f	-0.026261894
107	0x3db2222d	0.08697925
108	0xbdd658df	-0.104661696
109	0x3db5965e	0.08866571
110	0xbe292dda	-0.16521397
111	0x3dd5377c	0.104109734
112	0xbd61b461	-0.055103663
113	0x3dbfbeae	0.09362541
114	0xbdd148ae	-0.10218941
115	0xbd29a398	-0.04141578
116	0x3df947df	0.121719114
117	0x3cc6e80d	0.024280572
118	0xbd72f161	-0.059312228
119	0x3c786e8f	0.015163078
120	0x3dc11b00	0.09428978
121	0xbcbcafe8	-0.023033097
122	0x3e2217b5	0.15829356
123	0xbd908824	-0.07057217
124	0x3d2d6381	0.042331222
125	0xbe3fe0e8	-0.18738139
126	0xbddf16fe	-0.10893057
127	0xbd3c9dea	-0.046049036
128	0x3d95f984	0.07322982
129	0x3c87e0f3	0.016586756
130	0xbb11e22b	-0.002226005
131	0x3d4d94ea	0.050190844
132	0x3d517508	0.051137
133	0xbd017ec7	-0.031615045
134	0xbd9f4b4b	-0.07778033
135	0x3dbdc624	0.09266308
136	0xbc830c41	-0.015997054
137	0x3d7dc11e	0.06195175
138	0x3d37f174	0.044908002
139	0x3dd37573	0.10325136
140	0x3dbe5b29	0.09294731
141	0xbdbd151c	-0.09232542
142	0xbd46ca83	-0.048532974
143	0xbdf23d4c	-0.11828098
144	0xbe167e1f	-0.14696549
145	0xbda21193	-0.07913508
146	0xbdabf331	-0.083959945
147	0x3d3a7d9d	0.04552995
148	0x3dd837d1	0.10557521
149	0x3d35cc5b	0.04438434
150	0x3d812cea	0.06307395
151	0xbe100745	-0.14065273
152	0xbe37e1e1	-0.1795726
153	0x3c8d4350	0.017244011
154	0xbce81476	-0.028330069
155	0xbdcf40ce	-0.101197824
156	0x3dc5364a	0.096294954
157	0x3e146bab	0.14494197
158	0x3c1d61c0	0.009605825
159	0x3cb458a1	0.022014918
160	0xbae79d90	-0.0017670859
161	0x3dda6e3c	0.10665557
162	0x3e2b9ba6	0.16758594
163	0x3ceffc88	0.029295221
164	0x3c3f9823	0.011693987
165	0x3ccc0b72	0.024907801
166	0x3daa2a39	0.083088346
167	0xbd87353e	-0.06601952
168	0xbd982489	-0.074288435
169	0xbdc99601	-0.09843064
170	0x3d8c10a4	0.068391114
171	0x3d21f9b2	0.03954477
172	0x3d03fe00	0.032224655
173	0x3cb8a8ef	0.022541491
174	0x3d208fd0	0.03919965
175	0x3de4d256	0.11172931
176	0x3c3d2fb9	0.0115470225
177	0xbd9ecca4	-0.07753876
178	0xbce03b30	-0.027371973
179	0x3c5f4d83	0.01362932
180	0xbb586a6e	-0.0033022421
181	0xbd7d6216	-0.06186112
182	0xbe0e55a7	-0.13899861
183	0x3d6587c2	0.056037672
184	0xbda2bab4	-0.07945767
185	0xbd2eb242	-0.04265047
186	0x3d924de5	0.071437635
187	0x3be7667d	0.007061778
188	0xbde2b0cc	-0.110688776
189	0xbd3f9cfd	-0.046780575
190	0xbc8e83a0	-0.017396748
191	0xbd8054ac	-0.0626615
192	0x3b9ac06f	0.004722647
193	0x3df2d317	0.118566684
194	0xbe0acdeb	-0.13555114
195	0x3d448056	0.047973953
196	0x3debd521	0.115152605
197	0xbc8e0b7a	-0.017339457
198	0xbdcf272b	-0.101148926
199	0x3db9c600	0.09070969
200	0x3cb5174a	0.022105832
201	0x3db6a70f	0.08918583
202	0xbdc513c3	-0.0962291
203	0xbcd77a2c	-0.026303373
204	0x3dcafc9d	0.099114634
205	0xbdc67809	-0.09690864
206	0x3c3e68dd	0.011621681
207	0x3d4a1105	0.049332637
208	0x3e541cda	0.20714131
209	0x3d1bcc2c	0.03803651
210	0x3da78cf7	0.08181184
211	0xbdd3d3a6	-0.10343103
212	0xbd18a2d0	-0.037264645
213	0x3c80f2f6	0.015740853
214	0xbcf97bfe	-0.030454632
215	0x3d46c9ba	0.048532225
216	0xbdb982d2	-0.09058155
217	0xbc0f0056	-0.008728107
218	0x3d7354fc	0.05940722
219	0x3e11d091	0.14239718
220	0x3c43539a	0.011921788
221	0xbdc67a12	-0.09691252
222	0xbd9b0349	-0.07568986
223	0x3a90bf60	0.0011043362
224	0xbd840e02	-0.06447984
225	0x3dbe2316	0.09284036
226	0xbda130c6	-0.07870631
227	0xbde657f0	-0.112472415
228	0x3bf62fed	0.0075130374
229	0x3d7567db	0.059913497
230	0x3d60b97f	0.054864403
231	0x3e0b53ba	0.13606158
232	0xbdcea0b0	-0.100892425
233	0xbe17093b	-0.14749615
234	0xbce2abf6	-0.027669888
235	0x3d39c18a	0.04535059
236	0x3dbb4a23	0.09145
237	0xbc26059c	-0.010133173
238	0x3d54e653	0.051977467
239	0x3d93c2f5	0.072149195
240	0xbe1a10fa	-0.15045539
241	0xbdaf21c3	-0.085513614
242	0xbd05b1ad	-0.032640148
243	0xbd405556	-0.046956383
244	0xbdda9590	-0.10673058
245	0xbc464b45	-0.012102907
246	0x3cd6c6a4	0.026217766
247	0xbdac7205	-0.08420185
248	0x3d62dcba	0.055386283
249	0xbe138038	-0.1440438
250	0xbd5a3c6f	-0.05328029
251	0xbcec6c6b	-0.028860291
252	0x3e32b9f8	0.17453754
253	0xbc1b14cf	-0.00946541
254	0xbbbbe14e	-0.0057336455
255	0xbda89604	-0.08231738

batch_norm1.running_mean f4 [256]
0	0x3eacdc0d	0.33761635
1	0x3e3a0fd5	0.18170102
2	0x3e14ea78	0.14542568
3	0x3d4e2d96	0.050336443
4	0x3daad877	0.08342069
5	0x3db0ee26	0.08639173
6	0x3d153dcd	0.03643589
7	0x3e73e422	0.23817495
8	0x3d388617	0.045049753
9	0x3d639d9b	0.055570226
10	0x3d42e6c5	0.04758336
11	0x3eb8d4e1	0.36099914
12	0x3e3863ea	0.18006864
13	0x3e0d888b	0.13821618
14	0x3db1d46a	0.08683093
15	0x3df94ae7	0.121724896
16	0x3da94775	0.082655825
17	0x3e04e34e	0.12977335
18	0x3e70e98e	0.23526594
19	0x3ec67aa1	0.38765433
20	0x3d9e994f	0.07744085
21	0x3d9a9046	0.07547049
22	0x3d0a7c12	0.03380973
23	0x3d56e19e	0.05246126
24	0x3f0d084e	0.55090797
25	0x3e0851d4	0.13312465
26	0x3d605a3a	0.054773547
27	0x3e29e346	0.16590604
28	0x3d8365c8	0.064158976
29	0x3f28e201	0.65969855
30	0x3e9e0f18	0.3087089
31	0x3d194afb	0.037425023
32	0x3d9f2964	0.077715665
33	0x3e4f6765	0.20254286
34	0x3ef6cb13	0.48201808
35	0x3e014e02	0.12627414
36	0x3e235e47	0.15953933
37	0x3e054cf8	0.13017642
38	0x3d884104	0.06653026
39	0x3d672772	0.056434102
40	0x3dbbc389	0.09168155
41	0x3dcca419	0.09992237
42	0x3e741fc1	0.23840238
43	0x3db8b621	0.09019113
44	0x3de5d312	0.11221899
45	0x3db927ab	0.09040769
46	0x3e112915	0.14175828
47	0x3e22efde	0.15911815
48	0x3e5422c7	0.20716392
49	0x3e0b4e83	0.13604169
50	0x3e25e414	0.16200286
51	0x3db47c6b	0.08812793
52	0x3da51302	0.08060266
53	0x3d9d74d9	0.076883025
54	0x3d7fa992	0.062417574
55	0x3ecdd5f9	0.4020231
56	0x3e69fddb	0.22850744
57	0x3e182e22	0.14861348
58	0x3d60369a	0.054739572
59	0x3eb4bfd1	0.35302594
60	0x3e369535	0.17830355
61	0x3e79c1df	0.24390362
62	0x3e0360a7	0.12829839
63	0x3da16522	0.07880618
64	0x3de76d54	0.113001496
65	0x3e487eb3	0.19579582
66	0x3e17d37e	0.14826772
67	0x3db3b98f	0.08775627
68	0x3e992462	0.2991057
69	0x3d29a497	0.04141673
70	0x3ef40369	0.47658852
71	0x3e7239d2	0.23654869
72	0x3d692609	0.05692104
73	0x3df00fbe	0.117217526
74	0x3db946f2	0.09046735
75	0x3dc8e194	0.098086506
76	0x3d938839	0.07203717
77	0x3e58ff8f	0.21191238
78	0x3e6b3d6a	0.22972646
79	0x3e40db88	0.18833745
80	0x3d361b71	0.044459764
81	0x3d2d04e9	0.04224101
82	0x3e3e0d4d	0.18559761
83	0x3e08703d	0.13324066
84	0x3d0ad2b5	0.033892352
85	0x3e0877b3	0.13326912
86	0x3d867bc5	0.06566576
87	0x3dc1a592	0.09455408
88	0x3e3cf44a	0.18452564
89	0x3ea1f814	0.3163458
90	0x3e0137ad	0.12618895
91	0x3dce8485	0.1008387
92	0x3d3bdc8a	0.04586462
93	0x3d11b671	0.03557438
94	0x3e6a25d8	0.22865999
95	0x3e98bec4	0.29833043
96	0x3d6a6bf1	0.057231847
97	0x3cfc9e74	0.030837275
98	0x3e964711	0.29351094
99	0x3d6b21c8	0.057405263
100	0x3e8748f4	0.26422846
101	0x3da10fb5	0.07864324
102	0x3ddf5996	0.10905759
103	0x3e1fb0af	0.15594743
104	0x3d462818	0.04837808
105	0x3ec2a6e1	0.38017944
106	0x3dc1fd95	0.09472195
107	0x3cf1ada8	0.029501751
108	0x3d408bc8	0.047008306
109	0x3dba2cde	0.09090589
110	0x3db15bcd	0.08660088
111	0x3e4dd6b0	0.20101428
112	0x3b844a8d	0.0040372075
113	0x3d8713a4	0.06595543
114	0x3dd18673	0.10230722
115	0x3e04d981	0.12973596
116	0x3d98ad5b	0.0745494
117	0x3d93dbc6	0.07219653
118	0x3dd898fe	0.10576056
119	0x3d8840a6	0.06652956
120	0x3f25ee05	0.64816314
121	0x3e7ab5bf	0.24483393
122	0x3e1aacce	0.15104982
123	0x3e0a02bd	0.13477607
124	0x3ea227dc	0.31671035
125	0x3d78da4d	0.060755063
126	0x3cc8a1c4	0.024491198
127	0x3d8c03b2	0.06836642
128	0x3d77e091	0.060516898
129	0x3d9b5755	0.07585017
130	0x3cef79d0	0.02923289
131	0x3e242824	0.16030937
132	0x3d9ac2ed	0.075567104
133	0x3e52c2db	0.20582144
134	0x3e5b3e76	0.21410546
135	0x3d85d9bc	0.0653567
136	0x3e044a19	0.12918891
137	0x3e72a28a	0.23694816
138	0x3d04b1b1	0.032396022
139	0x3e23546b	0.15950172
140	0x3dbddc5a	0.09270544
141	0x3e1340a7	0.14380132
142	0x3de958af	0.11393868
143	0x3e4d8767	0.20071183
144	0x3dba713f	0.09103631
145	0x3d55335e	0.05205094
146	0x3d69a7ac	0.05704467
147	0x3e1082b0	0.14112353
148	0x3e8db931	0.27680352
149	0x3c9a9ae0	0.018872678
150	0x3d863813	0.06553664
151	0x3d31d825	0.043419022
152	0x3d9dcb70	0.07704818
153	0x3d142b2d	0.036173988
154	0x3e20ec40	0.15715122
155	0x3debf7cb	0.11521872
156	0x3e4e141d	0.2012486
157	0x3e1c4522	0.15260747
158	0x3dd20504	0.10254863
159	0x3d87d437	0.06632274
160	0x3d381c9a	0.04494915
161	0x3d6a62c7	0.057223108
162	0x3d90afca	0.07064779
163	0x3eaae7e4	0.33380044
164	0x3d2f2d81	0.042768005
165	0x3d72b899	0.059258077
166	0x3e062dfc	0.13103479
167	0x3d1c810c	0.038209006
168	0x3d2686a8	0.040655762
169	0x3f036cfc	0.5133817
170	0x3ddd4330	0.108038306
171	0x3f059b32	0.52189934
172	0x3e2e30c5	0.17010792
173	0x3e026fcf	0.12737964
174	0x3e82c306	0.25539416
175	0x3ee1101d	0.43957606
176	0x3d4db8a9	0.050224934
177	0x3d174c00	0.036937714
178	0x3e402cb6	0.18767056
179	0x3e816ee9	0.2527993
180	0x3e63171b	0.22176783
181	0x3e72037c	0.23634142
182	0x3cecb816	0.028896373
183	0x3d86d5b9	0.06583733
184	0x3ea78ec8	0.3272612
185	0x3deb7144	0.11496213
186	0x3ec0a35b	0.3762463
187	0x3e25acbf	0.16179179
188	0x3ed9082b	0.42389044
189	0x3e9ae434	0.3025223
190	0x3e1ffcbf	0.15623759
191	0x3ec480f5	0.38379636
192	0x3caecd3b	0.021338096
193	0x3e34c185	0.17651947
194	0x3d96d45c	0.07364723
195	0x3e34454c	0.1760456
196	0x3e8552bc	0.26039684
197	0x3d57b33d	0.05266117
198	0x3cacb2a1	0.02108127
199	0x3d77861c	0.06043063
200	0x3afaa97c	0.0019123997
201	0x3d244132	0.040101238
202	0x3e9fe9bd	0.31233016
203	0x3e5b1cdb	0.21397726
204	0x3d978931	0.07399214
205	0x3c8fc7ba	0.017551292
206	0x3e85e283	0.26149377
207	0x3dfae68c	0.122510046
208	0x3e2aced8	0.16680467
209	0x3e201e1d	0.15636487
210	0x3dab10d2	0.083528176
211	0x3dc8fe50	0.09814131
212	0x3e18b396	0.14912257
213	0x3ddc5423	0.10758235
214	0x3e5fb06f	0.21844648
215	0x3e455e1c	0.19274181
216	0x3d5cfe58	0.0539535
217	0x3d88c4cb	0.0667816
218	0x3e1f133a	0.15534678
219	0x3e5cbbcb	0.21556012
220	0x3dc80b39	0.097677656
221	0x3c3ac39a	0.011399174
222	0x3db77eb4	0.089597136
223	0x3d4e822a	0.050417103
224	0x3e8dfe91	0.2773328
225	0x3d0e11d2	0.034684964
226	0x3de83ecf	0.11340105
227	0x3d81c3ec	0.06336197
228	0x3da2658b	0.07929524
229	0x3d32e059	0.043670986
230	0x3e86bb8c	0.26314962
231	0x3e395277	0.18097864
232	0x3da280ca	0.07934721
233	0x3d979f44	0.074034244
234	0x3efc25bb	0.49247536
235	0x3d9454e6	0.072427556
236	0x3e02ac78	0.12761104
237	0x3df1e42b	0.11811098
238	0x3e7f9354	0.24958545
239	0x3df168ae	0.11787544
240	0x3c598fee	0.013278944
241	0x3db180dd	0.08667157
242	0x3d8fc2c5	0.07019571
243	0x3e00f967	0.1259514
244	0x3dcb14c6	0.099160716
245	0x3e6e1c99	0.23253097
246	0x3d324e45	0.043531675
247	0x3dcfb745	0.10142378
248	0x3dbaa0c1	0.091126926
249	0x3e937d2a	0.2880643
250	0x3dbcfa60	0.09227443
251	0x3df0efaa	0.11764462
252	0x3e9ebb3a	0.31002218
253	0x3e511dc9	0.20421518
254	0x3d5f0791	0.054450575
255	0x3ccf0fe2	0.025276128

batch_norm1.running_var f4 [256]
0	0x3e031ee1	0.12804748
1	0x3ddf8d3a	0.10915609
2	0x3d815948	0.06315857
3	0x3c9333c8	0.017969027
4	0x3d32f962	0.04369486
5	0x3d03ea55	0.0322059
6	0x3c4609fd	0.012087342
7	0x3df4b5d1	0.11948741
8	0x3d09daf2	0.03365607
9	0x3d132b9e	0.03593027
10	0x3c9b24b5	0.018938402
11	0x3e7bc215	0.24585755
12	0x3db6ce76	0.08926098
13	0x3d89ab2e	0.06722103
14	0x3d89ce7c	0.06728837
15	0x3d404e42	0.046949632
16	0x3d1a4068	0.03765908
17	0x3d738c2c	0.05945985
18	0x3dc24c95	0.09487263
19	0x3e55fe07	0.20897685
20	0x3ca4717d	0.020073647
21	0x3d2543c7	0.04034784
22	0x3c806987	0.01567532
23	0x3cf34c25	0.029699394
24	0x3dee6724	0.11640766
25	0x3d814a5e	0.063130125
26	0x3d04f3ad	0.03245895
27	0x3d97f978	0.07420629
28	0x3d210bbb	0.039317828
29	0x3ebb27e2	0.36553866
30	0x3dee448c	0.11634168
31	0x3c189b29	0.009314337
32	0x3d1b2608	0.037878066
33	0x3dbe61bc	0.09295985
34	0x3e64931d	0.22321744
35	0x3d95ee7e	0.073208794
36	0x3d8cba2f	0.06871449
37	0x3d3f8310	0.04675585
38	0x3c9bda2b	0.019024929
39	0x3d408e11	0.047010485
40	0x3d9ad954	0.07560983
41	0x3d3438be	0.043999426
42	0x3d827f04	0.063718826
43	0x3d039bb1	0.0321309
44	0x3d35d180	0.044389248
45	0x3cf8340b	0.030298254
46	0x3db77aaf	0.08958947
47	0x3daf4808	0.08558661
48	0x3e033b8d	0.12815686
49	0x3d7f8582	0.062383182
50	0x3d774643	0.06036974
51	0x3cedfdc2	0.029051665
52	0x3d38f2ff	0.045153614
53	0x3d1fef11	0.03904635
54	0x3d061aff	0.03274059
55	0x3e5cfd1b	0.21580927
56	0x3dc5a52c	0.09650645
57	0x3d79eb16	0.06101521
58	0x3c99cbe0	0.018773973
59	0x3e1c1f61	0.15246345
60	0x3da4eb9a	0.0805275
61	0x3df3360b	0.11875542
62	0x3d812979	0.063067384
63	0x3d1569cb	0.036477845
64	0x3d1f9f91	0.038970534
65	0x3dcc130d	0.09964571
66	0x3d85ca9d	0.06532786
67	0x3d27b3f4	0.0409431
68	0x3e181a8d	0.14853878
69	0x3cc863f6	0.024461728
70	0x3e5b508d	0.21417446
71	0x3e076cae	0.13225052
72	0x3cbf9e95	0.023391047
73	0x3d338b2b	0.043833893
74	0x3cc32d70	0.023825377
75	0x3d9df62d	0.0771297
76	0x3ca8a9e0	0.020588815
77	0x3dbde714	0.0927259
78	0x3d914441	0.070930965
79	0x3de8ce4b	0.11367472
80	0x3cafedc8	0.021475688
81	0x3c872e82	0.016501669
82	0x3da8db3e	0.08244942
83	0x3d8c0dd1	0.06838573
84	0x3c57afce	0.013164474
85	0x3d4424d3	0.04788668
86	0x3ced6989	0.028980987
87	0x3d0fff7c	0.03515576
88	0x3da7f6e8	0.082013905
89	0x3e5d74cc	0.21626586
90	0x3d65b535	0.056081016
91	0x3d3a081e	0.045417897
92	0x3ce8197a	0.02833246
93	0x3c4fffcd	0.012695265
94	0x3d899997	0.06718748
95	0x3da524c0	0.0806365
96	0x3ccc704f	0.024955897
97	0x3c578902	0.013155224
98	0x3de1cd48	0.110254824
99	0x3c6a78b5	0.014311005
100	0x3d293810	0.04131323
101	0x3cc75748	0.024333611
102	0x3d37255d	0.044713367
103	0x3ddd3262	0.108006254
104	0x3c3aa9b6	0.011393001
105	0x3e84ed0e	0.25962108
106	0x3d1f3e1d	0.038877595
107	0x3c2ca0f3	0.01053642
108	0x3c87b265	0.016564557
109	0x3d323cc6	0.04351499
110	0x3cff8c13	0.031194722
111	0x3d92214c	0.07135257
112	0x3ac4b01f	0.0015006101
113	0x3cd0b1fc	0.025475495
114	0x3d81e11e	0.06341766
115	0x3d64ddc5	0.05587556
116	0x3d604a13	0.054758143
117	0x3d013654	0.031545952
118	0x3d9ba54f	0.075998895
119	0x3ceace23	0.028662747
120	0x3e131ebd	0.14367194
121	0x3de19676	0.11015026
122	0x3d4aed2c	0.04954259
123	0x3d4edeb6	0.050505362
124	0x3e20e324	0.15711647
125	0x3d040060	0.03222692
126	0x3be8d8f2	0.00710594
127	0x3cfa0203	0.030518537
128	0x3ca84b35	0.020543674
129	0x3d1231de	0.03569209
130	0x3c1e2f32	0.009654807
131	0x3dd359e5	0.103198804
132	0x3d3793d9	0.044818733
133	0x3d4fdf66	0.05075016
134	0x3df4921b	0.1194193
135	0x3cbcea1c	0.02306085
136	0x3d890515	0.066904224
137	0x3de72dd3	0.11288037
138	0x3c06982f	0.008214994
139	0x3d9b4337	0.075811796
140	0x3d158405	0.036502857
141	0x3d6980f0	0.05700773
142	0x3d27584d	0.040855695
143	0x3db5402b	0.0885013
144	0x3d43b360	0.047778487
145	0x3c776290	0.015099183
146	0x3cf6d2ea	0.030129869
147	0x3d3009ee	0.04297822
148	0x3e16c352	0.14722946
149	0x3be6d83d	0.0070448206
150	0x3cfb5068	0.03067799
151	0x3cc76aec	0.024342977
152	0x3cdda5c2	0.027056579
153	0x3c76f070	0.015071973
154	0x3da92895	0.082596935
155	0x3d684a8d	0.056711722
156	0x3daddef6	0.08489792
157	0x3dbe5ff4	0.09295645
158	0x3d145647	0.036215093
159	0x3d210b3a	0.039317347
160	0x3c32e4ec	0.010918837
161	0x3cab0f29	0.020881252
162	0x3c991a22	0.018689219
163	0x3e3f48c2	0.18680099
164	0x3cbb4936	0.022862058
165	0x3cee05a5	0.029055426
166	0x3d60b71d	0.05486213
167	0x3c591fce	0.013252212
168	0x3c43481e	0.01191905
169	0x3e8ce3b2	0.27517468
170	0x3d26241b	0.040561777
171	0x3e765edf	0.24059628
172	0x3d5fd40e	0.05464559
173	0x3d82444b	0.06360682
174	0x3e1e4af6	0.15458283
175	0x3ea0c2bf	0.3139858
176	0x3c8d8af9	0.017278181
177	0x3c98f16b	0.018669805
178	0x3dd4f1f5	0.10397712
179	0x3df093eb	0.11746963
180	0x3da009f7	0.07814401
181	0x3db422bb	0.08795687
182	0x3c198146	0.0093692
183	0x3cc6a856	0.02425019
184	0x3de95871	0.11393822
185	0x3d427bd9	0.04748139
186	0x3daef057	0.08541935
187	0x3d8bf8f9	0.06834597
188	0x3e4b0e29	0.1982962
189	0x3e4a01ca	0.19727245
190	0x3d4dc472	0.050236173
191	0x3e20c510	0.15700173
192	0x3c256ac8	0.010096259
193	0x3ddc3c29	0.10753662
194	0x3cd24ac3	0.025670415
195	0x3d939d3f	0.07207727
196	0x3dd9e1fa	0.10638805
197	0x3c8f8f3a	0.01752435
198	0x3bf76bdb	0.007550699
199	0x3c93ebbf	0.018056748
200	0x39ce6ca7	0.00039372334
201	0x3c4bafeb	0.012432079
202	0x3dd30eb8	0.10305542
203	0x3dfacfde	0.12246679
204	0x3d2aa080	0.04165697
205	0x3c1cce77	0.009570709
206	0x3dfffb53	0.12499108
207	0x3d356680	0.044287205
208	0x3d8aa1cb	0.06769141
209	0x3da51c32	0.080620185
210	0x3d3aaaec	0.04557316
211	0x3d15d554	0.0365804
212	0x3dbfac7a	0.09359069
213	0x3d8509dc	0.06496021
214	0x3d97cf9b	0.074126445
215	0x3e017fd0	0.12646413
216	0x3ca6c876	0.02035926
217	0x3cdc4af2	0.026891205
218	0x3d78a506	0.060704254
219	0x3da597fc	0.08085629
220	0x3d1c2bdc	0.038127765
221	0x3b61b13a	0.003443791
222	0x3d45423e	0.048158877
223	0x3cceec01	0.02525902
224	0x3dcf041a	0.10108204
225	0x3c580624	0.013185058
226	0x3d5ed5a4	0.054402962
227	0x3cdaa6e9	0.026690917
228	0x3d3075de	0.043081157
229	0x3c5fd141	0.01366073
230	0x3dd4af83	0.10385039
231	0x3de2ac4c	0.11068019
232	0x3d17f09b	0.037094694
233	0x3cf52aa8	0.029927567
234	0x3e69bed5	0.22826703
235	0x3d18d5db	0.037313323
236	0x3d984bbe	0.07436322
237	0x3d41fc48	0.047359735
238	0x3e1b094d	0.15140267
239	0x3d568dd2	0.052381344
240	0x3bbaf8ae	0.0057059145
241	0x3d49cf0a	0.049269713
242	0x3d464031	0.04840106
243	0x3d8106cd	0.06300125
244	0x3ce4f407	0.027948393
245	0x3d9599eb	0.07304748
246	0x3c609549	0.013707467
247	0x3d2e4f7a	0.042556264
248	0x3d60a9ae	0.05484932
249	0x3df54554	0.11976114
250	0x3d193716	0.03740605
251	0x3d97325e	0.07382654
252	0x3e3b3ec9	0.1828567
253	0x3da3ce73	0.079983614
254	0x3cc16160	0.023606002
255	0x3bd07364	0.006361412

fc2.weight f4 [256, 256]
0	0xbda4f826	-0.08055143
1	0x3d50e47e	0.050999157
2	0xbe20da94	-0.15708381
3	0xbe8e1b8b	-0.2775539
4	0x3cd634e2	0.026148263
5	0x3e156e9d	0.14592977
6	0xbcc342dc	-0.023835592
7	0x3d3bf2e7	0.045885947
8	0x3e016608	0.12636578
9	0xbe55b10b	-0.20868318
10	0x3e084bda	0.13310185
11	0xbbc4bffb	-0.006004331
12	0xbd07a2fe	-0.033114426
13	0x3cd5e5f5	0.026110629
14	0xbe257404	-0.16157538
15	0xbe12c09c	-0.14331287
16	0x3da0e021	0.07855249
17	0xbca9aa1e	-0.020711001
18	0xbc24c45f	-0.010056584
19	0x3e31ce29	0.173638
20	0x3de8a533	0.11359634
21	0x3e14952d	0.14510031
22	0x3d76cdc3	0.060254823
23	0x3cd1b8c2	0.025600795
24	0x3da37f55	0.07983271
25	0xbde032cf	-0.10947191
26	0x3b83984d	0.0040159584
27	0x3da1c244	0.07898381
28	0x3e314278	0.17310512
29	0x3a2ba944	0.0006548355
30	0xbddd8628	-0.10816604
31	0x3e312744	0.17300135
32	0xbcdf6b3e	-0.027272817
33	0x3de49d62	0.11162831
34	0xbd95b053	-0.07309022
35	0xbbb46206	-0.0055048494
36	0x3dc4e51a	0.0961401
37	0xbe0e5c24	-0.13902336
38	0x3debb1a4	0.11508492
39	0xbde2ca86	-0.110737845
40	0x3e5fe2c7	0.21863852
41	0x3cddb618	0.027064368
42	0xbe32b62c	-0.17452306
43	0xbe2a44cb	-0.16627805
44	0x3d929963	0.071581624
45	0xbc2f2de2	-0.010692092
46	0x3df9e262	0.12201382
47	0x3db2d94f	0.087328546
48	0xbe4f56e9	-0.20247997
49	0xbd7705bf	-0.060308214
50	0x3d756d1d	0.05991851
51	0x3c5f0afb	0.013613458
52	0xbe124221	-0.14283039
53	0xbe00e4a4	-0.1258722
54	0xbaf33118	-0.001855406
55	0xbb8ad1f1	-0.0042364527
56	0x3df8ea98	0.1215412
57	0x3d40034a	0.046878137
58	0x3e2257c6	0.15853795
59	0x39bc1ca7	0.00035879502
60	0xbb0e8c21	-0.0021751004
61	0x3b8ce54a	0.0042997943
62	0xbe100dfb	-0.14067833
63	0x3d4ccc58	0.049999565
64	0xbc9130d4	-0.017723478
65	0xbd97f8df	-0.07420515
66	0xbad8e93a	-0.0016548999
67	0xbc3f1550	-0.011662796
68	0xbdcef4e0	-0.101053
69	0x3baa589c	0.0051985513
70	0xbd8cf0c8	-0.06881863
71	0xbd21baca	-0.039484777
72	0x3d82032b	0.063482605
73	0xbcc7e89d	-0.02440291
74	0x3d460e5f	0.04835355
75	0x3dd44219	0.103641696
76	0x3cb62a54	0.02223698
77	0x3d84ef82	0.06490995
78	0x3df81cd5	0.12114874
79	0xbd777357	-0.06041273
80	0x3d63b4ec	0.055592462
81	0x3cb37824	0.021907873
82	0x3dfcbf1e	0.1234114
83	0xbcae6ae2	-0.0212912
84	0x3db785b1	0.089610465
85	0x3ce77ff1	0.02825925
86	0x3da55e2c	0.080746025
87	0xbe7bfc94	-0.2460807
88	0xbc86485e	-0.01639193
89	0x3de7e3ff	0.11322784
90	0x3d88fcc8	0.06688839
91	0x3d19683f	0.037452932
92	0x3d2b87b8	0.04187748
93	0xbae7622c	-0.0017653159
94	0xbd9561a0	-0.07294011
95	0x3dab1278	0.08353132
96	0xbe44e911	-0.19229533
97	0xbe035fb4	-0.12829477
98	0x3d9ad600	0.075603485
99	0x3dffa49a	0.12482567
100	0x3cac39bd	0.021023626
101	0xbd56ad69	-0.05241147
102	0x3ddfcd25	0.109278
103	0xbc032f36	-0.008006861
104	0x3d25779e	0.04039728
105	0x3ca6468a	0.020297308
106	0xbde10b9d	-0.10988543
107	0xbc70f77b	-0.014707441
108	0xbd343c4b	-0.044002812
109	0xbdde4c7d	-0.10854433
110	0x3e55ffc1	0.20898344
111	0xbda4725a	-0.08029623
112	0x3d50abd1	0.050945107
113	0x3ccbfb2a	0.024900038
114	0x3da06ab2	0.078328505
115	0xbe04db61	-0.12974311
116	0xbe83680e	-0.25665325
117	0xbba9ff2d	-0.00518789
118	0xba3faf0b	-0.0007312155
119	0x3ddabd6b	0.1068066
120	0xbd323948	-0.04351166
121	0x3e57ccfc	0.21074289
122	0xbcd77769	-0.026302056
123	0x3dd2e07f	0.102967255
124	0x3d2308ac	0.039803192
125	0x3d9a1129	0.07522804
126	0xbb60ed77	-0.0034321228
127	0xbda904d1	-0.08252872
128	0xbca783f4	-0.020448662
129	0xbddb0580	-0.106944084
130	0xbb6c18d2	-0.0036025536
131	0x3e083d5c	0.13304657
132	0x3e1426ec	0.14467973
133	0xbddb1f1e	-0.106992945
134	0x3d7d4b6a	0.0618395
135	0xbc3c8adb	-0.011507715
136	0x3dfed4a2	0.124429
137	0x3d9c8717	0.07642954
138	0xbeac0690	-0.33598757
139	0x3ce802ce	0.02832165
140	0xbe028216	-0.12744936
141	0xbdcb2c85	-0.09920601
142	0x3c5b1eee	0.013374073
143	0x3e0193b2	0.12653998
144	0x3c69aba2	0.014262112
145	0x3d943584	0.0723677
146	0x3e098a58	0.1343168
147	0x3d92f147	0.07174926
148	0xbd4feb8f	-0.050761756
149	0x3c752041	0.014961303
150	0xbcb8a06d	-0.022537434
151	0x3d992de0	0.07479453
152	0x3d5ee860	0.05442083
153	0x3cbdb93c	0.023159616
154	0xbde1808d	-0.11010847
155	0xbd00b976	-0.03142687
156	0xbcc6fa67	-0.024289323
157	0x3dfa7041	0.12228442
158	0x3c85cbfe	0.016332623
159	0x3d032173	0.03201432
160	0x3d86eaa4	0.06587723
161	0xbdeab827	-0.114609055
162	0xbca913f2	-0.020639393
163	0xbc5d503f	-0.013507902
164	0xbe86a1ac	-0.2629522
165	0xba92119f	-0.0011144168
166	0xbe1b3c3e	-0.151597
167	0x3d09c64d	0.03363638
168	0x3e0b014f	0.13574718
169	0x3e3ed108	0.18634427
170	0x3db3207b	0.087464295
171	0x3cec590f	0.02885106
172	0x3d43dbe0	0.04781711
173	0xbc63d352	-0.013905363
174	0xbd5c37f6	-0.053764306
175	0xbe0f7f3d	-0.14013381
176	0xbcc3f0a0	-0.02391845
177	0xbde0f6a6	-0.109845445
178	0xbcce5d9b	-0.025191119
179	0xbe6b6d48	-0.22990906
180	0x3e60c340	0.21949482
181	0xbd057d57	-0.032590237
182	0x3d92bda6	0.07165079
183	0x3cda30ad	0.026634539
184	0xbd28f2c0	-0.04124713
185	0xbdbd0ed6	-0.09231345
186	0x3e0d58a2	0.13803342
187	0xbc7a18fe	-0.015264748
188	0x3c33c498	0.010972165
189	0x3d9d10c7	0.07669216
190	0xbd5946fc	-0.05304621
191	0xbd856803	-0.06513979
192	0x3c9c66f7	0.019092066
193	0x3c826a90	0.015919954
194	0x3d9c0dcb	0.07619818
195	0xbd467ab9	-0.04845688
196	0xbd67d492	-0.056599207
197	0xbdd7f47e	-0.1054468
198	0x3d18e638	0.03732893
199	0x3d855299	0.06509895
200	0x3ded377b	0.11582848
201	0xbe3118c3	-0.17294602
202	0x3d29225f	0.041292544
203	0x3cfb4648	0.030673161
204	0xbcdaf990	-0.026730329
205	0x3da35ff7	0.07977288
206	0xba8eeab4	-0.0010903687
207	0x3d8422d0	0.064519525
208	0xbe1492fe	-0.14509198
209	0xbdc936f5	-0.09824935
210	0xbc515260	-0.012775987
211	0xbe455077	-0.19268976
212	0xbdecd134	-0.1156334
213	0x3d56e44b	0.05246381
214	0x3ced5f42	0.028976087
215	0x3d881948	0.06645447
216	0xbc081336	-0.0083053615
217	0x3dbd840e	0.09253703
218	0xbd20ac9c	-0.039227113
219	0x3c09fc6f	0.008422001
220	0x3ea96d83	0.33091363
221	0xbe2d30ba	-0.16913119
222	0x3d1770fd	0.03697299
223	0xbdd13487	-0.10215097
224	0xbd0a4b58	-0.03376326
225	0xbdbdb83a	-0.09263654
226	0x3e344fe3	0.176086
227	0x3e116763	0.14199595
228	0x3dd39a80	0.10332203
229	0xbdac3113	-0.08407798
230	0xbd9ca561	-0.07648731
231	0x3a9ec6df	0.0012113712
232	0x3e4af261	0.19819023
233	0x3e111130	0.14166713
234	0xbc730c8f	-0.014834537
235	0x3dc0d2d0	0.09415209
236	0x3e45e8e6	0.19327125
237	0xbd7a1ad0	-0.061060727
238	0xbe3df1df	-0.18549298
239	0x3dbf1c78	0.09331602
240	0xbcabd5f1	-0.020976039
241	0xbc5b472b	-0.013383667
242	0xbd9e1ca3	-0.07720306
243	0x3cf10657	0.029421968
244	0xbd3488ac	-0.044075653
245	0x3cfe3f53	0.031036055
246	0xbd044bc0	-0.032298803
247	0x3d167864	0.036735907
248	0x3e5bd514	0.21468002
249	0x3e2e1758	0.17001092
250	0xbdb0a69b	-0.086255275
251	0xbc3646f4	-0.011125315
252	0xbd6968c7	-0.05698469
253	0x3e14e1b1	0.1453922
254	0xba7a86ab	-0.000955681
255	0x3d9fa1ae	0.0779451
