tennis_collab_compet/checkpoint_actor.pth (torch_old, 296522 bytes, 10 tensors)

fc1.weight f4 [256, 24]
000000 f1 7c 20 3d 8a 0c e3 bc 32 23 a4 bc a2 4a ec 3d
       0.039181653 -0.02771594 -0.020036314 0.115376726
000010 b0 f2 77 bd 60 8b 31 bd cc e5 85 3c 89 d7 a7 3d
       -0.06053418 -0.04334581 0.016344927 0.08195407
000020 8b fb 83 3d 97 83 ee bb f3 6c 84 bb 14 bc 18 3d
       0.064444624 -0.0072788703 -0.004041308 0.03728874
000030 8b ed 5e bd 33 d7 d4 bc b5 b7 94 3b e1 a1 75 3d
       -0.054425757 -0.025981521 0.004538501 0.059968833
000040 42 d1 40 3d 88 0a b1 bc 96 56 7b bc 80 9c e1 3c
       0.047074564 -0.021611467 -0.015340468 0.027540445
000050 cb 6c a1 bc c7 6a 19 3d e1 fa 0c 3d 80 2c fb 3c
       -0.019705197 0.037455346 0.034418944 0.030660868
000060 ad fe 86 3d 62 02 bd bb 6b 93 37 3d 74 99 10 bd
       0.06591544 -0.0057681063 0.044818323 -0.035302594
000070 c6 2d 87 bd d6 ad c3 bd 24 ca 2b bd 9c 77 44 3d
       -0.066005275 -0.09554641 -0.041940823 0.04796563
000080 24 f1 49 3d 76 69 8d 3d f9 e4 b0 3b 27 9c 1e bd
       0.049302235 0.06904881 0.0053983894 -0.038723137
000090 53 6a ba bd 92 9c 0e bd ca 22 30 3b dc 83 5b 3c
       -0.09102311 -0.034817286 0.0026876205 0.013398137
0000a0 ce e5 f4 bc 13 16 25 3d 1f b9 2e bb de d9 98 bc
       -0.029894736 0.040304255 -0.0026660634 -0.018658575
0000b0 f4 60 0a be 4e b7 a1 bd 5f 1f c8 3c ba e4 ee bc
       -0.13513547 -0.07896291 0.024429021 -0.0291618
0000c0 2f 0f 19 3d 6b 7b 06 3c 1e a6 ee bb 76 c8 13 3d
       0.037367996 0.008208136 -0.0072829863 0.036079846
0000d0 b6 42 02 3e 05 fe 9a bb 7b 57 13 3d 77 ff d6 bc
       0.1272076 -0.0047299885 0.0359721 -0.026244862
0000e0 73 ee 94 3d ef 32 c8 bc d7 1a ff 3c 45 f2 1b bd
       0.07272043 -0.02443835 0.031140728 -0.038072843
0000f0 2d 2e 00 3e 34 e5 85 3d 73 2d 9c bb 1d b4 48 bd
       0.12517615 0.06537858 -0.00476616 -0.048999894
000100 fc 46 d1 3b b4 9c b7 bd 9a 04 62 bc f4 ca 12 bd
       0.006386636 -0.089654356 -0.013795042 -0.035838082
000110 8f 74 8a 3c 90 1e af 3d 4e 93 1d 3d a9 ca 33 b9
       0.016901283 0.08550751 0.03847056 -0.00017146267
000120 09 c0 7f 3c b6 fc 96 3d 7e ba be bc b7 f6 af ba
       0.01560975 0.073724195 -0.023282286 -0.0013424967
000130 b5 7d af 3c e7 5e 00 bd e1 8f b3 bc cd 8f b0 3d
       0.021422246 -0.031340506 -0.021919193 0.08621178
000140 7c 4c 8b 3c b4 ee 66 3d 4b 75 91 3c 1f df 77 3b
       0.017004244 0.05637999 0.017756125 0.00378222
000150 5b 09 9a bc 4e 2d a7 bd 0a ac 40 bd d0 b3 9d 3d
       -0.01880329 -0.08162938 -0.04703907 0.07700312
000160 2b 3e cf 3d ea 20 38 3e b0 82 5c bc 8a 89 c4 3d
       0.101192795 0.17981306 -0.013458893 0.09596546
000170 c4 73 79 3d fc ab da 3c 74 4f 72 bd 18 04 7f 3d
       0.06090142 0.026693337 -0.059157804 0.062259763
000180 45 4e 96 bd fa ca c7 bd 8a 21 0f 3c a5 53 51 bc
       -0.073391475 -0.097555116 0.008736024 -0.01277629
000190 0e bb de 3c 43 82 1a 3d ff 2a 44 3d 14 5b 11 bd
       0.027188804 0.037721884 0.047892567 -0.03548725
0001a0 d3 8a dd 3c 7d 1c 9d bd 50 99 b6 3c 4f a6 79 3d
       0.027043736 -0.07671449 0.022289902 0.06094962
0001b0 43 b1 de bd a7 cc 81 3d f4 be 09 bd 34 3d 14 3d
       -0.10873654 0.063378625 -0.033629373 0.03619118
0001c0 6d 75 a2 3a 88 fb 8a 3b 11 24 aa 3c 11 70 91 3b
       0.0012394615 0.0042414106 0.02076915 0.004438408
0001d0 a0 5b d8 bd 2a 45 d6 3d 57 3f ac 3b 80 42 81 bc
       -0.10564351 0.10462411 0.005256574 -0.01577878
0001e0 04 13 34 bd 6e cc 76 bd d9 65 d6 bc 96 5f 17 bd
       -0.043963447 -0.060253553 -0.026171612 -0.036956392
0001f0 ce 44 a0 bd c2 24 63 bd 4e 22 15 3d 21 68 96 bb
       -0.078256235 -0.055454977 0.03640967 -0.00459005
000200 b3 2a 8d bd 84 05 11 bd 19 a6 af 3a e3 7b d4 3b
       -0.0689291 -0.03540565 0.0013400941 0.006484495
000210 0c 02 4c 3d 49 d3 cc 3d 06 3d b9 3b fb c1 4d bd
       0.04980664 0.10001237 0.0056530265 -0.050233822
000220 56 41 bb bd ca 89 a1 bc 3f 77 20 3d 91 a7 94 3c
       -0.09143321 -0.019719023 0.039176222 0.018146308
000230 06 88 d7 bc 18 b2 70 3e 96 90 02 bd 1d 4d 52 bd
       -0.026309978 0.23505437 -0.03187617 -0.051343072
000240 f6 39 45 3d e6 3a 94 bd f9 00 b5 bc 1e 6f 4e 3d
       0.04815098 -0.072377965 -0.02209519 0.05039894
000250 56 c1 be ba ed 22 99 3d b0 c7 1f 3d 4f e8 03 3d
       -0.0014553468 0.07477365 0.039008796 0.03220397
000260 ca 19 a3 3c 4a 52 c2 bc a5 e9 e1 bc 31 8b 7d 3d
       0.019909758 -0.02372088 -0.02757723 0.06190032
000270 92 0a a2 3d 68 f8 65 3d 78 a5 15 bd c1 5e a9 3c
       0.079121724 0.0561451 -0.036534756 0.020675065
000280 ca 4d b7 3d 65 2d 97 3d 15 b8 31 3d 50 0d ae 3d
       0.08950384 0.07381705 0.043388445 0.08498633
000290 42 f3 a0 3d ea 59 8a 3d 6c 8f 25 bd ad bc 0a 3d
       0.07858898 0.06755431 -0.04041998 0.03387134
0002a0 b5 a6 05 bd 8a 3e 82 3d f6 e0 2d bd 39 5c 2a 3a
       -0.032629687 0.06359585 -0.042450868 0.00064987276
0002b0 26 3f 44 bd bb d8 1e 38 9a 57 ef bc 72 fc 86 bd
       -0.047911786 3.787198e-05 -0.029216576 -0.06591119
0002c0 b0 c4 62 3c 0b 67 9e bc f8 30 e3 3c 58 b0 83 bd
       0.013840839 -0.019336244 0.027733311 -0.06430119
0002d0 3d c0 fa bc 73 e0 81 bd 6f a8 a0 bc d0 fb 6b bd
       -0.030609244 -0.063416384 -0.019611565 -0.057613194
0002e0 61 34 82 bc ce 26 0b bd f7 6e f3 bc 12 37 72 bd
       -0.015894117 -0.033972554 -0.029715998 -0.05913455
0002f0 9b a7 8b 3c a6 d1 41 be 60 2d 9a 3d 1f 24 20 bb
       0.017047694 -0.18927631 0.07528186 -0.0024435592
000300 1b 19 87 bd 41 e8 33 3d 9f 0c 42 bd 79 cd 7b bc
       -0.06596585 0.043922666 -0.047375318 -0.015368813
000310 2c 58 3a bd 5b 79 c8 bd a2 da 51 3d eb 88 58 3c
       -0.045494244 -0.09788772 0.051233895 0.013216238
000320 25 54 70 bc c5 aa 8d 3d b6 69 2e bd c4 bf b8 bb
       -0.014668499 0.06917337 -0.042581283 -0.0056380946
000330 d9 cb 90 bc cb 28 10 be 80 b3 bc 3c 0b 70 71 bc
       -0.017675327 -0.14078061 0.023034811 -0.014736186
000340 45 63 45 3c fa 1a d8 3d b0 4a a4 bc 55 c9 27 bd
       0.0120475935 0.1055202 -0.020055145 -0.04096349
000350 65 07 d2 bc 21 3c fd bc d9 64 fc bc c9 c2 15 bd
       -0.025638292 -0.03091246 -0.030809807 -0.036562715
000360 78 09 50 bd ee b8 99 3c 84 c3 6f 3c 69 25 49 3d
       -0.05079028 0.01876494 0.014634017 0.049107943
000370 e7 f6 c3 3c e4 b8 b1 3c a8 0a 12 bd fe 96 94 3d
       0.023921443 0.021694608 -0.035654694 0.07255362
000380 ff 3f 68 3d d2 82 dc bc a0 f1 92 3c 74 08 b5 3d
       0.056701656 -0.026917849 0.017937481 0.08839503
000390 a6 6a 25 bd ce 33 9a bc 34 19 ca bc 52 c8 54 3b
       -0.04038491 -0.01882353 -0.02467022 0.0032468033
0003a0 4b 3d aa 3d a3 ae 9d 3d f6 03 82 3b cb e7 92 3c
       0.08312472 0.07699325 0.0039677573 0.017932793
0003b0 e6 1a 02 be 8f b5 80 bb bf 5d 13 bd 18 b2 80 bc
       -0.12705573 -0.0039278935 -0.035978075 -0.015709922
0003c0 f3 1a 4b bc b8 8c ca bd b9 01 c6 bc db 98 dd 3b
       -0.012396562 -0.09890121 -0.024170743 0.0067626066
0003d0 97 a5 b7 3c ad a2 5f 3d 1a f6 fb bc 35 de 07 3d
       0.022417827 0.0545985 -0.030756999 0.033170898
0003e0 0b b6 03 be 30 56 d4 bd 6b 40 76 bd 11 48 e9 3c
       -0.12862413 -0.103680015 -0.060120028 0.028476747
0003f0 fe a7 7b 3c c8 54 33 3d 5a 74 b0 3c c3 97 06 3c
       0.015359877 0.043782026 0.021539856 0.008214894

fc1.bias f4 [256]
000000 da 33 0d be c9 06 ff 3d a2 85 9a 3d 85 70 15 3d
       -0.13789311 0.12452466 0.0754502 0.03648426
000010 b5 be 50 bd 8c eb 33 be 74 f8 86 be 87 71 fb bc
       -0.050963122 -0.17570323 -0.2636143 -0.030693782
000020 be fc 60 be 8e 45 4b be b7 b3 db 3d 1f ea 05 be
       -0.21971413 -0.19850752 0.10727637 -0.13077591
000030 49 5e a0 3d c4 3a 30 be 9e 3f a2 bd 5c 4d 2a 3e
       0.078304835 -0.17209917 -0.0792229 0.16631073
000040 7f e4 78 bd af 3c b4 bd 00 fc 3c be ad 93 ae be
       -0.060764786 -0.08800637 -0.18455505 -0.34097043
000050 3e 11 b0 3d 73 48 99 be 57 80 1d be a7 ca 01 be
       0.08597039 -0.29938087 -0.15380989 -0.12674962
000060 2d dc ba bd f0 cf 60 be 1e 73 13 bc b5 aa af bd
       -0.091240264 -0.21954322 -0.008999614 -0.08577482
000070 77 8f 2a be b6 f6 0f be f8 f8 3c be 45 22 ce bd
       -0.1665629 -0.14058957 -0.18454349 -0.1006513
000080 06 d1 0d 3b fd 99 38 3d 21 37 3f be d9 9f 0c bd
       0.002163948 0.04506873 -0.18673374 -0.03433213
000090 0a 9e 8b be 5b c3 c3 3d 31 f6 d1 bd b9 98 5b 3c
       -0.27269012 0.095587455 -0.102520354 0.013403111
0000a0 af 55 0c be 63 53 3a be d5 92 a7 bd 36 06 02 be
       -0.1370456 -0.18195872 -0.08182303 -0.12697682
0000b0 6e 64 c4 bd 1c 8a c6 bd 95 6b 06 be 13 ca 62 be
       -0.09589468 -0.09694311 -0.13126977 -0.22147398
0000c0 c0 06 00 3e 13 00 b6 3d 31 c9 1c be 60 69 94 3c
       0.12502575 0.08886733 -0.15311123 0.018116653
0000d0 ff 30 9c bd f8 87 44 be 85 1d d8 3d a6 92 85 bd
       -0.07626533 -0.19192493 0.105525054 -0.065221116
0000e0 5f b7 11 3e c0 e4 30 bd 8c cb 61 be 6e 00 91 3d
       0.14230107 -0.043186903 -0.22050303 0.0708016
0000f0 d7 b6 ae 3d f5 67 8e 3d dc 03 e8 bd 11 94 3a be
       0.08530968 0.06953422 -0.11328861 -0.18220545
000100 1e 07 08 3e 20 e6 57 bd ed 7e 29 be 35 a9 d1 3d
       0.13283965 -0.0527097 -0.16552325 0.10237352
000110 d1 59 45 be 69 62 a9 bd d3 25 7c bd f6 ad 2d be
       -0.19272543 -0.082707234 -0.06155951 -0.16960892
000120 18 c7 5a be a5 6a 09 be 89 21 ea bc 02 0b d5 3d
       -0.2136501 -0.13419588 -0.028580444 0.1040249
000130 e2 96 73 3d 8d b2 1e 3e 90 72 df 3d 44 53 05 be
       0.059470065 0.15497799 0.10910523 -0.13020045
000140 4a ab af bd 35 68 be bd ac d5 80 be f0 e5 8c be
       -0.08577593 -0.0929722 -0.2516302 -0.27519178
000150 10 9b 1e 3e 7f bb 2c be b4 58 f6 bd 67 10 85 3d
       0.15488839 -0.16868399 -0.120286375 0.06497269
000160 b9 f6 2c be 5a 40 a9 bb ce b9 00 be cd fd ac 3d
       -0.16890992 -0.005165142 -0.12570879 0.08446846
000170 7c 04 f4 bd 2d 31 27 3e 0c 29 72 be 47 4e 42 be
       -0.11914918 0.16327353 -0.2364847 -0.18975173
000180 b3 59 fb 3d d6 3a 51 be 43 24 6e 3e 51 cb 23 3d
       0.12272968 -0.204326 0.2325602 0.03998882
000190 00 41 cb 3b b0 bd 50 bd 8e 21 bc bd ff 9a f5 ba
       0.006202817 -0.05096215 -0.091860875 -0.0018738209
0001a0 e6 7f 1d be 49 cf 07 3e 74 dd 0f 3e f4 f5 b0 bd
       -0.1538082 0.13262667 0.14049321 -0.08640662
0001b0 40 f6 b3 3d 50 6b 78 bd b5 b5 03 be c6 69 4b be
       0.08787203 -0.060649216 -0.12862284 -0.19864568
0001c0 c5 c3 01 be e9 12 6d be 84 51 fa bd da 40 d8 3d
       -0.12672336 -0.23151745 -0.12222579 0.105592445
0001d0 86 ad 8b 3d 99 43 5c be 0b 58 88 be 04 00 8f 3d
       0.06820206 -0.21510161 -0.2662967 0.06982425
0001e0 ca cf 26 be d9 6f 4d 3d bd 02 ce 3d 2e 57 ad 3d
       -0.16290203 0.050155494 0.10059116 0.08463894
0001f0 98 c7 bd bc 2f 2f 68 3d fc 2e c7 bc 69 21 b9 bc
       -0.023166463 0.056685623 -0.024314396 -0.022598939
000200 2a 87 ae bc 68 a5 7d be 2e 4f 4e be d8 8c e2 3d
       -0.021304686 -0.24770129 -0.20147392 0.1106202
000210 59 c1 92 be e8 9d 06 3e 65 2e 1c 3e b7 24 ad 3d
       -0.28663138 0.13146174 0.15252073 0.084542684
000220 3e 77 ff 3c 19 c1 35 bd 0c 64 07 3d 40 91 4b 3e
       0.031184789 -0.044373605 0.033054397 0.19879627
000230 9b bb c4 bc 7e db 15 be 6e 89 c8 3d 5f 7f 09 bd
       -0.024015239 -0.14634511 0.09791838 -0.033568736
000240 c3 f9 b5 3d 46 b0 51 be 2e cb a3 bd cf 43 66 be
       0.08885529 -0.20477399 -0.07997738 -0.22486804
000250 21 d4 8c bd ff 16 1a 3e cd fd 86 bd bf 7c ff 3d
       -0.06876398 0.15047835 -0.065913774 0.12474965
000260 99 7a f4 3d 56 60 19 be 9e 79 18 3e 5e 23 79 bc
       0.11937446 -0.14978155 0.14890143 -0.015206186
000270 56 f5 53 3e 23 2a d6 bd b1 9d 61 bd 2d 25 12 3e
       0.20699057 -0.10457256 -0.055082027 0.14271994
000280 70 2c 35 be 67 ef 86 bd c6 4f 53 bc 9a ae 41 bc
       -0.17692733 -0.06588631 -0.012897437 -0.011821413
000290 5a a6 11 be e0 d8 bd 3d 25 e5 d2 bd e4 37 fd 3d
       -0.14223614 0.09269881 -0.10297612 0.12364176
0002a0 21 ca 56 3d e1 bc be 3d c4 92 d6 bb f6 ea 23 be
       0.05243886 0.093133695 -0.0065482575 -0.16007599
0002b0 03 0b 59 be 37 af 8f be 4a 22 9d be b7 29 4e be
       -0.21195607 -0.28063366 -0.30690223 -0.201331
0002c0 e7 cf bd bc b9 31 16 3e 4b c0 28 be 01 a1 08 3e
       -0.023170425 0.14667405 -0.16479604 0.13342668
0002d0 b7 f4 3c be 37 d6 a2 3d e9 a2 b5 3d aa 7b a5 3c
       -0.18452726 0.079510145 0.08868963 0.02020057
0002e0 e6 d2 cb 3d 9b db 41 be ae 35 53 be 4a 32 e0 bd
       0.09952335 -0.18931429 -0.20625946 -0.10947092
0002f0 ad e1 72 bd 1d af 5d 3d 1f 4e 9f 3d a2 fd ba 3d
       -0.059297252 0.05412208 0.07778572 0.09130408
000300 c7 0c 51 bd 5f df 6b be e4 25 ec 3d 54 80 7a be
       -0.051037576 -0.23034428 0.115306646 -0.24463016
000310 92 94 24 be 92 e0 0d 3c c9 b4 7d 3d 6d 88 3d bd
       -0.160723 0.008659499 0.06193999 -0.046272684
000320 22 a9 59 bc 5b 32 de bd 97 cf 91 bd 96 a4 3b be
       -0.013284953 -0.10849448 -0.07119673 -0.18324503
000330 86 2b 20 3e b7 10 2d 3e 55 13 ca bd 51 fd 99 3d
       0.15641603 0.16900907 -0.098669685 0.075190194
000340 80 51 c5 bd 51 6b 21 be 84 c5 5e bd 47 ab eb bd
       -0.096346855 -0.15763594 -0.054387584 -0.11507278
000350 8a f3 e0 3d 98 01 22 3d 09 fb 4b bd f8 9f 33 be
       0.109839514 0.0395523 -0.049799953 -0.17541492
000360 bb 9e d2 3d f4 aa 13 3e 70 48 c5 3d f6 e9 a1 bd
       0.10284182 0.14420682 0.09632957 -0.07905953
000370 64 3f 2f bd 54 25 0e 3c 0e 6f 4d 3e a7 6a 85 bd
       -0.042785063 0.008675892 0.20061895 -0.06514483
000380 93 71 85 bd 42 1e 1f be 9e 48 da bc c6 29 18 be
       -0.06515803 -0.15538886 -0.026645955 -0.14859685
000390 27 80 d4 bd a3 40 79 be b4 8d d6 3d 2d 9c ef 3d
       -0.103760056 -0.24341063 0.104762465 0.1169971
0003a0 00 c4 26 be 3b 6d 3d bd 80 33 07 bd fb 1d ac 3c
       -0.16285706 -0.04624675 -0.0330081 0.02101039
0003b0 0c d4 e3 bd ae e7 25 3c f9 9d 9e 3b 16 d2 03 3e
       -0.11124429 0.0101260375 0.004840609 0.1287311
0003c0 90 8b a7 be 5c 51 8c be 2c cd 0d 3d a3 bd aa bd
       -0.32723665 -0.27405822 0.034619495 -0.083369516
0003d0 10 8d fb bd af ec e4 3d 5c 86 ae bd a4 7c 39 be
       -0.12282765 0.11177956 -0.08521721 -0.18113953
0003e0 5e 6b a6 bd 83 2c d0 bd 11 07 85 bd ef 30 65 be
       -0.081259474 -0.1016474 -0.064954884 -0.22381948
0003f0 80 e7 83 3d ea 3a 45 3e b4 8c 21 be ed a0 96 3d
       0.064406395 0.19260755 -0.1577633 0.07354913

batch_norm1.weight f4 [256]
000000 91 32 45 3f cc c0 f0 3e ad c6 fe 3e fd 23 2b 3f
       0.77030283 0.47022092 0.49760953 0.6685179
000010 0c e3 2d 3f d8 e3 8f 3f e5 fe 81 3f c5 22 18 3f
       0.6792457 1.1241407 1.0155913 0.59428054
000020 9a da 86 3f 45 6f b7 3e 30 e8 0a 3f 30 9e 87 3e
       1.0535462 0.3582708 0.5426054 0.26487875
000030 c5 4b 59 3f 51 fb 37 3f c3 26 bb 3e 89 91 73 3e
       0.8488124 0.71867853 0.3655301 0.23785986
000040 31 a2 fa 3e 36 f4 0d 3f a0 a0 ff 3e ad 4b e5 3e
       0.48951867 0.5545076 0.49927235 0.447843
000050 0a 86 96 3e 80 73 76 3f aa d0 f9 3e 72 9a 44 3f
       0.2939914 0.9626999 0.4879201 0.76798165
000060 38 55 28 3f af 09 13 3f b6 54 41 3f fd 3e 84 3f
       0.65755033 0.5743665 0.75519884 1.0331722
000070 51 a5 45 3f 05 b5 17 3f e7 65 6d 3f 53 71 11 3f
       0.7720538 0.5926059 0.92733616 0.56813544
000080 b0 7a 32 3f f9 f1 89 3f eb 4b 92 3e ff 60 69 3f
       0.69718456 1.0776969 0.28573546 0.9116363
000090 4a 08 d1 3e 57 de 16 3f ab f4 ad 3e 9b 61 66 3f
       0.40826637 0.58933014 0.3397573 0.89992684
0000a0 37 1e 86 3e 70 b0 cf 3e c7 b6 30 3f 34 e3 da 3e
       0.26194927 0.405643 0.69028896 0.42751467
0000b0 67 36 24 3f 7d c5 83 3f e7 ef 6b 3e 7b 62 62 3e
       0.6414551 1.0294644 0.23040734 0.2210788
0000c0 b4 20 86 3e 3e 03 85 3f 72 13 33 3f e4 69 9f 3e
       0.26196826 1.0391614 0.69951546 0.31135476
0000d0 70 d7 8d 3e 92 f0 6f 3f 7f 91 85 3f e4 15 b2 3e
       0.27703428 0.93726456 1.0435027 0.34782326
0000e0 64 4f 37 3f d2 b1 e2 3e cf 90 61 3f 71 8b c2 3e
       0.71605515 0.4427629 0.88111585 0.3799701
0000f0 c3 c9 65 3f 14 cf 8c 3f 02 cf 74 3f 53 b1 fd 3e
       0.8976099 1.1000695 0.9562837 0.4954935
000100 fa 2f 1c 3f 8e 46 53 3f 26 bf a8 3e c3 8d b3 3e
       0.61010706 0.8252953 0.32958335 0.35069093
000110 74 b3 93 3e 02 4a 69 3f 24 6b a9 3e f5 aa 83 3f
       0.2884785 0.9112855 0.33089554 1.0286547
000120 cd 63 e7 3e d3 eb ce 3e df 0c 53 3f c5 2a 06 3f
       0.4519333 0.40414295 0.82441515 0.5240901
000130 10 77 8f 3e e4 0c 20 3f 0a 87 ab 3e 53 1a 9b 3e
       0.28020525 0.6251967 0.33501464 0.3029352
000140 a9 1e 91 3e 31 aa 3c 3f 36 36 1c 3f 25 d0 ec 3e
       0.28343704 0.7369719 0.6102022 0.46252552
000150 03 b8 3e 3f 76 61 e8 3e c4 35 95 3e 0d a0 3b 3f
       0.7449953 0.45386857 0.29142582 0.73291093
000160 38 85 01 3f 20 95 d6 3e 72 67 7a 3f d4 64 69 3f
       0.505939 0.41910648 0.97814095 0.91169477
000170 44 f7 8c 3e fb 6d 7c 3f 2c 85 86 3f e8 79 5d 3e
       0.275324 0.98605317 1.0509391 0.21628535
000180 63 15 85 3e 32 08 97 3e d3 5b d5 3e da 8c 11 3f
       0.2599288 0.2949844 0.4167162 0.5685555
000190 70 31 47 3f 3a 24 4b 3f 71 50 36 3f 0c 3e 7f 3e
       0.7780981 0.7935215 0.71216494 0.24926013
0001a0 40 ff 89 3f 8b 31 8a 3f b2 47 53 3f 3b 31 39 3f
       1.0781021 1.0796369 0.82531273 0.72340745
0001b0 6d e5 c1 3e 3c ab 20 3f 03 f3 a8 3e b0 d6 85 3f
       0.3787035 0.6276128 0.32997903 1.0456142
0001c0 97 9f 8b 3e e4 34 8b 3f 9f 8e 84 3f f3 41 bc 3e
       0.27270195 1.0875516 1.0356025 0.36769065
0001d0 64 79 41 3e 09 81 4a 3f 36 64 8c 3e 94 5b 75 3e
       0.18893963 0.7910314 0.27420205 0.23960716
0001e0 3a 8d d1 3e 88 33 6e 3f 18 d1 af 3e 85 1b 03 3f
       0.4092806 0.9304738 0.34339213 0.51213866
0001f0 05 8c cd 3e 06 00 70 3f 07 92 46 3f 6f 25 65 3f
       0.4014589 0.93750036 0.7756657 0.89510244
000200 27 c2 12 3f 6c 9d 99 3e ce 54 4a 3f a5 6c 44 3f
       0.573275 0.30002916 0.7903565 0.7672828
000210 3a f1 75 3f d7 73 3a 3e b6 9a 52 3e f6 1a 70 3f
       0.9607121 0.18208252 0.2056683 0.9379114
000220 b2 fd 36 3f 37 c2 76 3f 2f 0f f4 3e b4 71 8b 3f
       0.7148086 0.963901 0.47667834 1.0894074
000230 c2 79 46 3f d8 91 c6 3e 66 0e b8 3e b9 ec 41 3f
       0.7752954 0.38783145 0.35948485 0.75751835
000240 a3 e3 19 3f fb b6 a0 3e 42 23 93 3e 7d 79 43 3f
       0.6011297 0.31389603 0.28737837 0.7635725
000250 cc d7 68 3f af 7b 86 3f 14 e0 cd 3e 82 4d a9 3e
       0.9095428 1.0506495 0.4021002 0.33066946
000260 fa 5b 8a 3e 7a 49 a1 3e fa 2d 86 3f 5c 74 10 3f
       0.27023298 0.3150137 1.0482781 0.5642755
000270 70 de b0 3e 4a 5f 7e 3f 42 39 8c 3f 14 78 56 3e
       0.34544706 0.9936415 1.0954974 0.20944244
000280 ce 90 0d 3f 36 f9 41 3f 67 be 2c 3f 0a 01 a6 3e
       0.5529908 0.7577089 0.6747803 0.32422668
000290 f5 f2 61 3e 66 04 87 3e 65 59 46 3f 54 44 c4 3e
       0.22065337 0.26370543 0.77480155 0.3833338
0002a0 db d3 51 3e b4 83 91 3f 1e e3 43 3f 94 de cb 3e
       0.20490973 1.1368318 0.7651843 0.3981825
0002b0 1b e6 33 3f f1 50 fd 3e 16 1c 6a 3e a0 98 8e 3e
       0.7027299 0.49475816 0.22862276 0.2785082
0002c0 98 10 6e 3f 61 db 87 3e 92 8a 97 3e 40 cf 6c 3f
       0.9299407 0.2653456 0.29597908 0.9250374
0002d0 0d 25 ae 3e ca e9 e4 3e 77 7b 18 3f e4 ad 1f be
       0.34012643 0.44709617 0.5956339 -0.15593678
0002e0 26 f3 6e 3e 80 bf 9d 3e 9c c1 09 3f 66 62 f4 3e
       0.23334941 0.30810165 0.5381105 0.47731322
0002f0 98 fc 7f 3f 2f a6 5f 3f 7a 04 88 3f b9 80 51 3e
       0.999948 0.8736295 1.0626366 0.2045926
000300 31 7e 05 3f d6 58 80 3f bf 72 4c 3f 4f 66 b3 3e
       0.5214568 1.002711 0.7986259 0.35038993
000310 02 f7 75 3f 95 a2 e1 3e 89 c2 80 3f 9f 42 6e 3e
       0.9608003 0.44069353 1.0059367 0.23267601
000320 be 8f 4c 3f b6 eb 02 3f 36 17 91 3e 45 55 5b 3f
       0.79906833 0.51140916 0.2833802 0.85676986
000330 86 4a 0d 3f 6e 23 08 3f dc 11 db 3e ec 47 fe 3e
       0.5519184 0.5317906 0.42787063 0.49664247
000340 27 58 d4 3e 37 ce 56 3f fe 1d 28 3f 1f 1e 71 3f
       0.41473505 0.8390841 0.65670764 0.94186586
000350 67 be 40 3f 82 d7 37 3f 7b 3b 3c 3f 8f 59 dd 3e
       0.7529053 0.71813214 0.7352826 0.4323239
000360 9e 1a 3b 3e db 88 a4 3e a3 9b 87 3e 8c 72 70 3e
       0.18271872 0.32135662 0.2648593 0.23481196
000370 c8 f0 34 3f be 0e 11 3f 4b 06 1e 3e ad 83 53 3f
       0.70679903 0.5666312 0.15432088 0.82622796
000380 45 a5 54 3f b5 aa 6f 3f d1 08 18 3f 0e 3a 0a 3f
       0.8306468 0.93619853 0.5938845 0.53994834
000390 69 61 6c 3f a2 a7 4f 3e a9 29 13 3f 5c 7e 7b 3f
       0.92336136 0.2027879 0.57485443 0.98239684
0003a0 25 6e 5e 3f 88 5c 34 3f 2d 2f 10 3f 11 dd 46 3f
       0.8688682 0.7045369 0.56321985 0.7768107
0003b0 1f 74 29 3f 1a 29 0d 3f dd 53 83 3f fd 2c 79 3f
       0.6619281 0.5514084 1.0259968 0.9733427
0003c0 f2 cf 0e 3f e6 41 90 3f db ed f6 3e 67 33 39 3f
       0.5578605 1.1270111 0.48228344 0.7234406
0003d0 de cd 7a 3f 4a d6 cf 3e bd 4f 54 3f e6 1d 16 3f
       0.9797038 0.40593177 0.8293417 0.5863937
0003e0 de 3b ca 3e 73 0a 1c 3f d6 a7 81 3f 03 a8 7a 3f
       0.394988 0.60953444 1.0129344 0.97912616
0003f0 fb f4 c1 3e cd cf 85 3f 6b e5 39 3f 28 97 85 3f
       0.37882218 1.0454041 0.7261569 1.0436754

batch_norm1.bias f4 [256]
000000 11 dc a9 ba db 0f 24 3d 0f 88 ce bb 84 0c 89 bd
       -0.0012959262 0.040054183 -0.0063028405 -0.0669184
000010 d2 34 17 3d 3a 2a 25 bd cc ca 5d bd 00 ac 0c bd
       0.036915608 -0.040323474 -0.05414848 -0.03434372
000020 64 aa 20 bc 96 97 87 3c e2 5e 6e bd cf 57 30 bd
       -0.009806249 0.016551774 -0.058195956 -0.04305249
000030 3d a1 26 3d e4 a3 f4 bc ee 72 0f bd 4f 93 fc bc
       0.040681113 -0.029863305 -0.035021715 -0.030831961
000040 9f 62 9a 3c c7 95 96 bd ec a9 9e bc ba 3a 19 bc
       0.018845854 -0.073527865 -0.019368134 -0.00935238
000050 e6 64 4b 3c 34 06 a5 bd 53 1f 57 bd 54 b2 04 bd
       0.012414193 -0.08057824 -0.052520107 -0.03239663
000060 61 bf 12 3d 8a 78 ec bc 7f 84 2b bd 6c 64 17 bd
       0.035827044 -0.028866071 -0.041874405 -0.036961004
000070 62 07 26 bd fd e3 4d bd dc 2a 46 bd ca df 83 bd
       -0.040534385 -0.050266255 -0.048380718 -0.06439169
000080 34 d5 82 bd f3 04 14 bc f2 42 ca bc d0 ee 2c bd
       -0.063883215 -0.009034383 -0.024690125 -0.042219937
000090 9d c9 01 bd ea 92 2c 3d 93 9a 52 3d 59 57 05 bd
       -0.031686414 0.042132296 0.051416945 -0.032554004
0000a0 1f c6 74 bc 41 ea 53 bd 83 23 37 3d 32 f6 26 bd
       -0.014939814 -0.051737074 0.0447116 -0.040762134
0000b0 b5 18 6f bc 29 a2 c3 3c 45 62 06 3d 2f d9 8b bd
       -0.014593293 0.023881035 0.03280856 -0.06828534
0000c0 95 5c 20 bd 55 ce 4f bd 01 6a 59 bd d6 3f 2e bd
       -0.039150793 -0.050733883 -0.05307961 -0.042541347
0000d0 9e 31 ca 3d df c7 62 bd 88 ca c1 3c 9c 1d 90 bd
       0.09872745 -0.055366393 0.023656145 -0.070368975
0000e0 07 4a 05 3d 5f 7a 0a 3d 86 75 33 3d 1d fd 58 bc
       0.0325413 0.03380811 0.04381325 -0.013243941
0000f0 6d 29 c5 ba 09 39 3a bc 01 46 bd bc 74 d0 07 3d
       -0.0015042253 -0.011366137 -0.02310467 0.03315778
000100 1d 3e 7c 3c 24 f3 23 bd ef e1 8f bc 8f f2 c9 ba
       0.015395668 -0.0400268 -0.017563788 -0.0015407371
000110 fd f0 7c bd 60 76 32 3c 40 bc 4c 3c 46 9e 81 bc
       -0.06175326 0.010892481 0.012496054 -0.015822541
000120 31 91 27 bd 48 af b0 bc 40 0b 8a bd 76 ef 3a bd
       -0.04090995 -0.021567956 -0.06740427 -0.045638524
000130 a0 90 20 3c 34 7b 53 bd 87 66 82 bd 64 78 b3 bb
       0.009800106 -0.051631168 -0.06367212 -0.005476998
000140 26 66 17 bd b1 8a 83 bd 6c ba 68 bd 32 0a a3 bd
       -0.03696265 -0.06422938 -0.05681841 -0.07960929
000150 e9 18 86 bd 87 4e 81 bd 1d e4 3b bc 9e 8a 91 bd
       -0.0654772 -0.06313806 -0.011467961 -0.07106517
000160 c1 d1 87 bc 20 24 8b bd 7d 3b 75 bc 9c ed 4d 3c
       -0.01657951 -0.06794 -0.014967796 0.0125688575
000170 02 15 9b 3d fd c2 05 3d f3 07 bd 3c 53 f8 b6 3d
       0.07572366 0.03265666 0.02307508 0.08934083
000180 aa 49 e6 3b 6f a5 39 bd e9 b0 04 bd 90 37 ee bc
       0.0070278244 -0.045323785 -0.032395277 -0.029079229
000190 6c a0 95 bd 6b 5d 17 3d b6 d3 87 bd d2 19 df bc
       -0.07305989 0.036954325 -0.066321775 -0.027233992
0001a0 a7 ca 4d 3c 9c 0c bc 3c 67 94 c6 3b fd 54 a0 bc
       0.012560523 0.022955231 0.0060601714 -0.019571776
0001b0 1d 58 cc 3c b4 15 9b bd 73 8d 83 3c d9 9a fe bc
       0.02494436 -0.07572499 0.01605866 -0.031079696
0001c0 51 c9 1f 3d 37 a5 f7 bc ec 92 63 bd 32 3e 9f bd
       0.03901035 -0.030230148 -0.055560037 -0.07775535
0001d0 28 79 9b bb 67 b2 e1 bc 98 a0 62 bd 2e 0e d8 bc
       -0.0047446676 -0.02755089 -0.055328935 -0.026373949
0001e0 9d 6c a3 3a 63 33 bb 3c 22 e9 32 bd 3c 91 65 bd
       0.0012468282 0.022851652 -0.043679364 -0.05604671
0001f0 b8 96 a1 bc 0b 8b 2e 3c 81 21 65 bd cc 59 6f bd
       -0.019725189 0.010653268 -0.055940155 -0.058435246
000200 61 a0 89 3d e2 2d 94 bd 2b 6b a1 bd cd 76 39 bb
       0.06720043 -0.07235314 -0.07881769 -0.002829957
000210 e0 58 87 bd e5 71 b3 3d 51 ae cf 3c 28 8e 85 3c
       -0.066087484 0.08761958 0.025351675 0.016303137
000220 7a e4 14 3c 64 00 8b ba e9 9d fe bc 8b fe 18 3b
       0.009087676 -0.0010604975 -0.031081157 0.0023345079
000230 96 cd 70 bd f6 83 89 bd b6 3d a9 bc cc eb 40 bd
       -0.058789812 -0.06714623 -0.020659309 -0.047099873
000240 f4 3b 52 bd 94 0c 86 bd ee 74 06 bd 2a 99 05 bc
       -0.051326707 -0.06545368 -0.032826357 -0.008154193
000250 59 16 25 3d 28 55 d5 bc 17 ec 10 bd c0 01 ac bc
       0.040304516 -0.026041582 -0.035381403 -0.020996928
000260 7b b1 79 bd 87 34 03 3d e1 d8 0d bd 31 37 60 bd
       -0.060960274 0.032032516 -0.03463066 -0.054740135
000270 6b a4 06 bd eb c3 0e bc 2c 00 57 bd a0 45 4d bd
       -0.032871645 -0.008713703 -0.0524904 -0.050115228
000280 50 41 86 bc 45 c5 91 bd d6 bd 93 bc b0 93 11 3d
       -0.016388565 -0.07117704 -0.018034857 0.035541236
000290 c4 96 cd 3c 83 d8 8a bd a8 75 66 bd 74 58 39 bc
       0.025096305 -0.067795776 -0.05626455 -0.011312593
0002a0 ad c9 6a 3c bc 2d 1c bc 87 0b 82 bd be 76 d7 bc
       0.01433031 -0.009532388 -0.06349855 -0.026301738
0002b0 7a 35 46 bd 00 df 8c bd 65 2d 83 bd 16 09 45 3d
       -0.048390843 -0.068784714 -0.06405143 0.04810437
0002c0 4f a1 15 bd 5c 71 c3 3d 59 20 7c bd a6 cb db 3c
       -0.03653079 0.09543106 -0.061554287 0.026830506
0002d0 2a f4 e1 bc 1a 7f 34 3d e0 38 57 bd 78 63 b3 3c
       -0.027582247 0.044066526 -0.052544475 0.021898016
0002e0 2e 1c a6 bc bd 43 13 bd 30 4b 40 bd 65 4a d2 bc
       -0.020277109 -0.035953272 -0.046946704 -0.02567024
0002f0 80 b4 48 bc 21 25 89 bd d3 70 2c bc da c7 3f 3d
       -0.012250066 -0.06696535 -0.010524946 0.046821453
000300 5f dd 08 3d 73 18 01 bd 8a 06 e3 bc b2 b5 31 bd
       0.03341424 -0.031517457 -0.027713079 -0.04338617
000310 ce 00 40 bd 8f 4c 2e bc 3b e3 bc bd bf 7d 19 bd
       -0.046875767 -0.01063837 -0.09223028 -0.037473436
000320 1a 8c 54 bd 32 9a 1e bd 48 06 9d bd ae 0e 81 bd
       -0.051891424 -0.03872127 -0.07667214 -0.06301628
000330 a0 6a d4 3c 20 59 9b bd a7 ee 41 bd 29 2c 1f 3d
       0.025929749 -0.075853586 -0.047346737 0.038860474
000340 ba 85 e4 bc 4c cd 00 3d 01 5b 85 3d a7 ff 5c bc
       -0.027895797 0.031445786 0.06511498 -0.013488687
000350 04 37 a1 bd d8 41 e1 bb 95 b2 34 bd 21 9c 65 bd
       -0.078718215 -0.0068743043 -0.04411562 -0.0560571
000360 50 12 66 bd 2e 81 1c 3c ea 4d 86 3c 4b dd 82 bd
       -0.056169808 0.009552283 0.016394574 -0.063898645
000370 46 35 34 3d 5f a5 0e bd 76 e6 60 bd 21 60 7a bd
       0.043996118 -0.03482568 -0.054907285 -0.061126832
000380 1c 76 59 bd a6 32 74 bd 99 39 55 bd 62 ab 7f bd
       -0.053091154 -0.059618615 -0.052056883 -0.062419303
000390 94 0c 02 bd d9 53 a2 3b 6e 44 53 bd 17 6d 23 3c
       -0.031750277 0.004953843 -0.05157893 0.0099747395
0003a0 22 73 6a bd aa e7 21 3d b3 a5 80 bb f4 51 7a bd
       -0.057238705 0.039527573 -0.003926003 -0.061113313
0003b0 a1 76 2e bd ba a2 81 bd 61 24 33 3d a1 8b 88 bd
       -0.042593602 -0.06329866 0.043735866 -0.06667257
0003c0 03 a7 8d bd 9c 7a 06 bd 7a 7e 4f 3d 5b 72 09 3d
       -0.069166206 -0.032831773 0.050657727 0.033556323
0003d0 b3 af ef 3c a4 22 ba bb 0b c3 57 3d be a6 d2 3c
       0.029258585 -0.005680399 0.05267624 0.025714274
0003e0 fe 08 9c ba f8 4f 08 3c d0 8c 07 3c 62 96 0e 3d
       -0.0011904535 0.008319847 0.008273318 0.034811385
0003f0 67 6b 03 3c e3 24 4d bd e7 c6 79 3c de 4d 50 3d
       0.008021212 -0.050084006 0.015245176 0.05085551

batch_norm1.running_mean f4 [256]
000000 24 07 ed 3d 17 1b 83 3e 1c 39 21 3f 37 1c 63 3e
       0.115736276 0.25606605 0.62977767 0.22178732
000010 78 6b b6 3f 51 65 28 40 82 99 c9 3e 39 bf af 3e
       1.4251547 2.6311839 0.3937493 0.3432558
000020 21 7a 14 3e 53 31 41 3e 2a a8 36 40 db c7 56 3e
       0.14499713 0.18866472 2.854014 0.20974676
000030 bc 78 87 3e 29 87 a0 3e 3d c8 28 3e e6 6b 21 3f
       0.264593 0.3135312 0.16482635 0.63055265
000040 db 68 d8 3c c3 ac 2f 40 0f f4 14 3d 69 06 15 3e
       0.026417186 2.7449195 0.036365565 0.14553227
000050 94 3d 25 3f 0e d0 82 3e 99 ce 27 3d bb 48 86 3f
       0.64547086 0.25549358 0.04096851 1.0490946
000060 e1 a5 9b 3e 6d 72 b3 3e c2 ec 0a 3f 48 2d 03 3e
       0.30399993 0.35048237 0.54267514 0.12810242
000070 4e b4 8e 3e 36 c9 83 3f e2 5b 4a 3f ff 2d af 3f
       0.27871937 1.029578 0.7904645 1.3685912
000080 df f8 b2 3f 1d 39 ad 3e ff 93 14 3a 0d e3 05 3e
       1.39822 0.33832636 0.0005667805 0.13074894
000090 bd 4d 58 3d 2a 6f 85 3d 2c 49 47 3f 75 d3 75 3e
       0.052808512 0.065153435 0.77846026 0.24006446
0000a0 2c a2 4b 3f 53 c5 89 3e 97 4a a3 3d fa df bf 3d
       0.7954433 0.2690836 0.07973211 0.09368892
0000b0 8d fd 80 3f fd 0b 68 3f 63 6a 15 3c 46 6c 22 3f
       1.0077378 0.9064329 0.009119603 0.6344646
0000c0 35 4a f0 3e fb f5 a2 3f de b1 9e 3f 06 14 98 3e
       0.46931615 1.2731317 1.2398031 0.29702777
0000d0 77 94 30 3e 50 01 89 3f 5b c8 ec 3f c9 d6 94 3e
       0.17244135 1.0703526 1.8498644 0.29070118
0000e0 a7 70 a9 3f 67 10 02 40 04 00 00 00 84 d2 be 3d
       1.3237504 2.0322511 6e-45 0.093174964
0000f0 60 22 6c 3f 05 75 21 3f 63 d7 34 40 7a 24 73 3f
       0.9223995 0.6306918 2.8256462 0.94977534
000100 37 0a 0b 40 cc 03 54 3e 13 63 f0 3d 43 26 44 3f
       2.1724985 0.20704573 0.11737647 0.7662088
000110 c6 4c 36 3e ef f8 3f 3f 57 9d 8e 3f 50 e3 3c 3f
       0.17802724 0.7498922 1.1141766 0.7378435
000120 71 27 b3 3f 34 39 d9 3b ea 5d 14 3f 33 1f d5 3f
       1.3996412 0.0066291336 0.579558 1.6650146
000130 97 4c 70 3f a2 f1 d7 3f 77 48 11 40 51 85 60 3d
       0.93866867 1.6870615 2.270048 0.05481464
000140 7d 44 84 3e 1a 20 a0 3f 41 72 97 3e 78 b7 bc 3e
       0.25833502 1.2509797 0.29579356 0.36858726
000150 dc 74 a5 3f 5c 61 fa 3d 89 26 12 3f 35 06 0e 3d
       1.2926288 0.12225601 0.5709005 0.03467389
000160 9f c5 78 3e cb a1 f1 3e dc 74 32 3e 79 56 d7 3f
       0.24294136 0.4719375 0.17427391 1.6823264
000170 b0 36 30 3f ad cc e3 3f 1e 9e a9 3c 59 6d c6 3e
       0.68833447 1.7796837 0.020705279 0.387553
000180 86 13 47 3e c0 42 a2 3c 71 e1 34 40 53 13 e0 3e
       0.19441041 0.01980722 2.8262599 0.43764743
000190 44 ca 1e 3f ef 2d 66 3f 10 00 90 3c ea 12 52 3f
       0.6202738 0.8991384 0.017578155 0.8206011
0001a0 76 de 10 3f 8c 51 72 40 50 7f 8a 3e 81 a4 31 3e
       0.5658945 3.7862272 0.27050257 0.1734791
0001b0 3b 73 82 3f 25 ad f2 3d d3 54 74 3e 6f 52 d3 3f
       1.0191416 0.11849431 0.23860483 1.6509532
0001c0 3e 0d 0a 3f b5 7a 2d 3f 77 ef b2 3f d4 9a 6e 3e
       0.53926456 0.6776536 1.3979329 0.2330125
0001d0 af eb 91 3d 32 ad 45 3f a3 87 04 3f fb 04 13 3e
       0.07125031 0.772174 0.51769465 0.14357369
0001e0 e3 58 24 3f 31 ac 58 3d 7b 9c 2c 3f a1 60 5e 3e
       0.6419813 0.05289859 0.6742627 0.21716549
0001f0 6e fe 42 3f 51 a3 0b 3f ea c5 f6 3e 03 d2 a1 3d
       0.7616948 0.54546076 0.4819787 0.07901385
000200 df 7f dd 3e 3e 20 af 3e 2d d5 c6 3e 72 47 b4 3f
       0.4326162 0.34204286 0.38834515 1.4084303
000210 63 e1 0c 3f 75 0a 41 3f c7 ee 95 3f 78 14 84 3e
       0.5503141 0.7540658 1.1713494 0.25796866
000220 19 c4 6c 3e 10 38 ed 3e 4f 0f a5 3c a8 26 a3 3f
       0.2312168 0.46331835 0.020148901 1.2746172
000230 36 34 92 3f 1b 14 4d 40 2e 0e bc 3e ef ac a8 3e
       1.1422184 3.2043521 0.36729568 0.32944438
000240 eb fc 99 3f f9 13 69 3f be 14 7e 3f 5f 4f fe 3d
       1.203031 0.910461 0.992504 0.124174826
000250 62 e6 16 3f 59 58 02 3f 94 04 2a 3e 92 e7 c2 3e
       0.58945286 0.5091606 0.16603309 0.380673
000260 82 4c ce 3d 36 a8 1d 3e 53 ac 79 3f 8b ad a1 3d
       0.100731865 0.15396199 0.9752857 0.07894429
000270 4f aa 87 3f 81 86 30 3f 79 a6 7c 3e b1 90 08 3f
       1.0598849 0.68955237 0.2467288 0.5334578
000280 b3 a4 b2 3f 50 ac 98 3e ee 90 84 3e 3b a8 aa 3d
       1.3956512 0.29818964 0.25891823 0.08332869
000290 f5 6b 55 3d b5 6b 1b 3d dd ec 07 3d 8e 80 d7 3f
       0.05210491 0.037944514 0.033184875 1.6836107
0002a0 4d 33 c2 3e 96 9e 82 3f 48 ff 13 3f b5 2c d6 3f
       0.37929764 1.0204647 0.57811403 1.6732394
0002b0 e4 93 68 3e b0 0f 7c 3e a6 8a 96 3e 76 5d 4e 3d
       0.22712666 0.2461536 0.29402655 0.0503821
0002c0 dc 8e cb 3e 97 3e dd 3d 67 18 d2 3d 54 7f a3 3f
       0.3975743 0.10802954 0.10258561 1.2773232
0002d0 37 a1 3a 3e 07 50 3c 3d 1c 67 8b 3f 8c d4 a9 3b
       0.18225561 0.045974758 1.0890841 0.0051828083
0002e0 d4 6f 32 3f 2f a3 ef 3e 06 6a 9d 3e 6d e2 99 3f
       0.69701886 0.46804187 0.30744952 1.2022225
0002f0 ee 0d 21 3f 71 a6 4f 3f 97 ac 52 3f 16 71 fb 3e
       0.6291188 0.81113344 0.822946 0.49109715
000300 a9 87 8c 3d f1 fe 2f 3e b2 00 c4 3d 30 79 7d 3e
       0.068618126 0.17187096 0.09570445 0.2475326
000310 33 cc 3f 3e e8 c9 33 3d 4d 2e d2 3e 91 2a 8f 3d
       0.1873024 0.043893725 0.4105095 0.06990541
000320 b9 48 65 3f e2 cb e5 3e 02 78 5b 3d 97 24 22 3e
       0.8956409 0.44882113 0.053581245 0.1583427
000330 49 8d 94 3d ae c6 0e 40 aa 43 41 3f 21 6f d6 3e
       0.072535105 2.2308764 0.7549387 0.4188166
000340 ba 95 86 3f 9e 27 78 3e d2 3c ca 3d e8 b5 aa 3c
       1.0514443 0.24233863 0.09874882 0.020838693
000350 7c 6e 01 3d 64 6a 09 40 da 85 86 3f da 9a c2 3f
       0.031599507 2.1471186 1.0509598 1.5203507
000360 b9 73 fa 3e a1 0c c6 3e 90 99 8d 3f b4 de dd 3d
       0.48916414 0.3868151 1.1062489 0.10833493
000370 de 2d a8 3f bd 9d 88 3f 87 4f f3 3e 78 95 51 3f
       1.3138998 1.0673138 0.47521612 0.81868696
000380 82 ef 8a 3e 67 a6 b4 3f 84 33 e0 3e bc 34 ce 3e
       0.27135855 1.4113282 0.43789303 0.40274608
000390 0a 74 57 3e dd c6 2b 09 c1 68 2e 3f 4e f6 21 3f
       0.21040359 2.0676881e-33 0.6812859 0.63266456
0003a0 35 08 42 3f 16 4b be 3e 1e 32 9d 3e e8 bc b2 3e
       0.7579377 0.3716666 0.307023 0.3490975
0003b0 29 86 cd 3f 76 c0 00 3f 22 d6 b5 3d 4b b2 dd 3f
       1.6056567 0.5029367 0.08878733 1.7320036
0003c0 2a 04 00 3e 69 e2 e9 3c d7 ea 1e 3f d7 98 8e 3c
       0.12501588 0.028550344 0.6207709 0.017406864
0003d0 50 6d db 3f 60 aa 35 3d a0 9e 4f 3e a8 d8 1d 3f
       1.7142735 0.044351935 0.20275354 0.61658716
0003e0 eb 29 f3 3e 05 0d f4 3c 1e f7 93 3f 0e d2 0d 3d
       0.47492918 0.029791364 1.1559789 0.034624152
0003f0 d2 2f 2f 3c 93 24 01 3e 55 67 05 3d 1e 42 8e 3e
       0.010692554 0.12611608 0.03256925 0.27784818

batch_norm1.running_var f4 [256]
000000 77 8a cd 3d 90 77 a2 3e 58 d3 5a 3f e6 ee c7 3e
       0.10036176 0.31731844 0.85478735 0.39049453
000010 c4 19 df 3f 2d 28 2d 3f 6e 47 38 3f ea 9f 0e 3f
       1.7429738 0.6763943 0.71983993 0.5571276
000020 77 e9 2c 3e 74 e5 56 3e 68 1c 4a 40 34 2e e2 3d
       0.16885935 0.20985967 3.1579838 0.11043969
000030 cf fd 0d 3f c2 1f f7 3e bf 7e 78 3e 47 10 dd 3f
       0.55465406 0.48266417 0.242671 1.7270592
000040 da d2 a2 3c 2c 0a 92 3f fd a0 ec 3c dd a4 83 3d
       0.019875932 1.1409354 0.028885359 0.064279296
000050 b4 27 6c 3f 49 bb 95 3e 70 d7 f6 3c 42 c6 01 40
       0.9224808 0.2924445 0.030132025 2.0277257
000060 55 aa c2 3e 3e 90 05 3f 27 f3 97 3f bd ca 3f 3d
       0.38020578 0.5217322 1.1871079 0.046824206
000070 fe 0f aa 3e 9c 0d 49 40 cb 46 bc 3f f4 40 33 40
       0.33215326 3.1414557 1.4709104 2.8008394
000080 b4 83 2d 40 7a 21 33 3f d7 1d 72 39 eb 42 4f 3e
       2.7111635 0.69972956 0.00023090035 0.20240371
000090 99 34 54 3d 6f ed 50 3d 90 47 40 3f 8e c8 fb 3e
       0.051807974 0.051007684 0.75109196 0.4917645
0000a0 e2 ca a4 3f 54 f7 a1 3e 12 14 ca 3d 53 d3 21 3e
       1.2874415 0.3163401 0.09867109 0.1580327
0000b0 91 4e 4c 40 1f 4e 1d 40 d6 98 a6 3b e1 e2 dd 3f
       3.1922953 2.4578931 0.0050841374 1.7334863
0000c0 a5 24 c7 3e 17 cc f6 3f c0 10 27 40 b5 e2 c0 3e
       0.38895145 1.9281033 2.6103973 0.37672964
0000d0 fc 27 8f 3e 97 21 01 40 26 0f e4 3f f6 08 49 3e
       0.27960193 2.0176752 1.7817123 0.19632325
0000e0 c4 32 e7 3f d4 fe 17 40 04 00 00 00 dd 50 2f 3e
       1.8062367 2.3749285 6e-45 0.1712069
0000f0 b9 10 e4 3f b1 5f 0f 3f 69 6e 6d 3f 48 1a 87 40
       1.7817603 0.5600539 0.927466 4.221958
000100 67 34 db 3f a3 ef 81 3e 33 e4 08 3e 75 0d a5 3f
       1.7125367 0.2537814 0.13368301 1.2894732
000110 ab 11 40 3e 9d 32 89 3f 8e 32 f9 3f 9e 35 9a 3f
       0.1875674 1.0718571 1.9468553 1.2047613
000120 ae bd 2d 40 45 58 64 3b a7 e3 80 3f 88 36 5a 3f
       2.7147021 0.0034842652 1.0069474 0.8523946
000130 16 b6 c3 3f 9a c3 8b 40 e3 aa 63 40 ec 2b a2 3d
       1.5289943 4.367627 3.557305 0.07918534
000140 5d 3a ec 3e 31 a7 44 40 0f ca 24 3f 19 d8 c2 3e
       0.46138278 3.0727046 0.64370817 0.38055494
000150 88 82 21 40 65 67 12 3e 42 ec 03 3f 57 19 0e 3d
       2.523592 0.14297254 0.51532376 0.034692135
000160 41 fc 80 3e f1 ee 23 3f cf 81 57 3e 01 0f 15 41
       0.25192454 0.6403647 0.21045612 9.316163
000170 81 d5 ce 3e bb cf d2 3f 4c 12 2b 3c db 9a 59 3f
       0.40397266 1.6469644 0.010441374 0.85001916
000180 5e 41 33 3e 5b e8 7f 3c e1 a7 0c 40 dd 3b 4e 3f
       0.17505404 0.015619363 2.1977465 0.80560094
000190 e7 14 b4 3e bd 4d c4 3e c9 05 84 3c 5a 67 84 3f
       0.35172197 0.3834056 0.01611604 1.034404
0001a0 50 d4 ec 3e f5 20 90 3f e1 d0 c5 3e 23 05 9d 3e
       0.46255732 1.1260058 0.38635924 0.30667982
0001b0 3e cd d3 3f 01 d9 11 3e 78 ab 9a 3e de ae 09 40
       1.654701 0.14242937 0.30208945 2.151298
0001c0 15 1c 8a 3f 96 de 43 3f 97 b2 d7 3f 99 17 c0 3e
       1.078982 0.76511514 1.6851376 0.37518004
0001d0 bd 57 c6 3d 7f bb 8a 3f 91 b6 8f 3f cd 97 b4 3d
       0.096847035 1.0838469 1.122759 0.08818016
0001e0 72 6e 63 3f 26 7b 1d 3d c0 b3 84 3f b2 10 43 3e
       0.888404 0.03844752 1.0367355 0.19049338
0001f0 42 59 7d 3f 6d b7 9b 3f 55 81 12 3f 90 f9 56 3d
       0.9896432 1.2165352 0.57228595 0.052484095
000200 a8 c7 a6 3e 78 60 04 3f e5 a9 49 3f ca f9 ab 3f
       0.325742 0.517097 0.78774863 1.3435605
000210 bd 53 4c 3f 0e 78 bb 3f 72 37 82 3f 5f f1 8f 3e
       0.79815274 1.4646013 1.017317 0.2811384
000220 24 94 ba 3e 2f f0 e3 3e 6d 47 80 3c 3d 52 c3 3f
       0.36441147 0.44519183 0.015659058 1.5259472
000230 3a ff 90 3f 7d 76 85 3f 0e 13 30 3f 92 43 e5 3e
       1.1327889 1.0426785 0.68779075 0.44778115
000240 13 23 44 3f ac 61 a5 3f 94 43 3e 40 2d 8d 40 3e
       0.7661602 1.2920432 2.9728746 0.18803854
000250 aa 7a 1b 3f 3d 2d 15 3f b2 19 7c 3e 91 57 05 3f
       0.60734046 0.58272153 0.24619177 0.5208674
000260 82 ca 26 3e 6e 78 62 3e a3 d8 06 40 67 bb 6a 3d
       0.16288188 0.22116253 2.1069725 0.057307627
000270 a6 93 a1 3f 40 2a 92 3f 8b 55 03 3e c6 41 03 3f
       1.2623184 1.1419144 0.12825601 0.5127224
000280 d0 c0 f0 3f 42 2a d4 3e f9 e7 f6 3e 8a 1c f2 3d
       1.8808842 0.4143849 0.48223856 0.1182185
000290 16 28 21 3d 17 bb f1 3c 92 70 06 3d be 8b 06 40
       0.03934487 0.029508157 0.0328222 2.1022792
0002a0 bd bd 34 3f 91 18 ab 3f bf e1 b6 3f 99 bd fa 3f
       0.7060202 1.3366872 1.4287642 1.9589111
0002b0 eb 4b bc 3e c5 3f 5f 3e 3d 71 1d 3f dd ff 65 3d
       0.3677667 0.2180167 0.6150091 0.056152213
0002c0 cc 41 45 3f 44 bb 07 3e 18 69 cf 3d 9c 8c 20 40
       0.77053523 0.1325503 0.10127467 2.508582
0002d0 ab 07 9b 3e b1 25 1c 3d 9b c9 bd 3f 72 2e 89 3b
       0.30279288 0.038121883 1.482715 0.004186445
0002e0 45 07 6e 3f 2f 64 b5 3e f1 27 2f 3f ee c0 15 3f
       0.9297984 0.35427997 0.6842032 0.5849751
0002f0 9f 16 47 3f f6 4f f3 3f 10 74 a3 3f d3 af 68 3f
       0.7776889 1.9008777 1.2769794 0.90893286
000300 4d 60 69 3d 71 70 dd 3d 09 8f c6 3d 48 91 b1 3e
       0.056976605 0.10812462 0.096952505 0.34681153
000310 fe 4b 98 3e c7 1d 1e 3d fa f8 4f 3f cb 0b b1 3d
       0.29745477 0.038602617 0.81239283 0.086448275
000320 40 52 3c 40 a9 d0 78 3f f2 d9 d6 3c d6 ba 45 3e
       2.9425201 0.9719339 0.026226971 0.19309554
000330 4e 8c 74 3d 7a eb 85 40 8e e2 0b 40 6a b7 06 3f
       0.059704117 4.1849947 2.1857028 0.5262362
000340 92 b0 41 40 fb c8 21 3e 98 e5 22 3d 19 d0 37 3c
       3.026402 0.15799324 0.03976974 0.011219048
000350 ad 6e 1d 3d 21 50 ff 3e 3b 3e b4 3f ac d7 bd 3f
       0.038435627 0.4986582 1.4081491 1.4831443
000360 b3 7b 58 3f 1b 7c d8 3e 36 6a 9d 3f 77 5b 14 3e
       0.8456375 0.42282185 1.2298038 0.14488016
000370 8e 68 88 3f 15 9f d2 3f d4 8e 50 3f 24 f0 b4 3f
       1.0656908 1.6454798 0.8146794 1.4135785
000380 2b 6e 22 3f ca ad 0c 40 85 35 62 3f ec a7 28 3f
       0.6344935 2.1981072 0.88362914 0.6588123
000390 37 5d 47 3e f9 55 51 07 8f 02 e4 3f 4d 8c 42 3f
       0.19469152 1.5748678e-34 1.7813281 0.7599533
0003a0 30 61 01 40 b8 4d b3 3e 32 8e f0 3e 76 52 38 3f
       2.0215569 0.35020232 0.46983486 0.72000825
0003b0 b5 2a 19 40 00 84 b1 3f 90 a6 9b 3d 91 76 07 40
       2.3932316 1.3868408 0.07600129 2.1166117
0003c0 b6 f7 e4 3d a2 37 9a 3c 08 63 bd 3f a2 82 3b 3c
       0.111800596 0.018825356 1.4795847 0.0114447195
0003d0 5b 67 bb 40 75 c9 4f 3d b8 87 95 3e b1 82 2f 3f
       5.8563666 0.050729234 0.29205108 0.68558794
0003e0 c0 13 0f 3f f4 6a 9a 3c 75 dc 2c 40 55 ed d4 3c
       0.5588951 0.018849827 2.7009556 0.025992075
0003f0 c6 6f fe 3b 16 c7 bf 3d 0a ae dd 3c 3b 14 56 3e
       0.0077647893 0.093641445 0.027060527 0.20906155

fc2.weight f4 [256, 256]
000000 d2 85 eb bb ca 0e 2a bd bc a5 09 bc a2 68 a3 3c
       -0.0071875835 -0.04151801 -0.008401331 0.019947354
000010 ff 60 59 3d 3e 0d fe 3d c4 c4 8d 3d 01 5d 7f 3d
       0.05307102 0.124048695 0.06922296 0.062344555
000020 14 66 a6 bd 95 75 86 bc d5 54 80 bd d9 03 8b bc
       -0.081249386 -0.01641349 -0.062661804 -0.016969608
000030 7d 82 b1 bc 8d 02 23 3d f1 2a 1e bd f5 83 8a bd
       -0.021668667 0.039797354 -0.03861517 -0.0676345
000040 c6 f7 a2 bc 73 89 d2 3c 39 2c 4f bd f2 aa 71 3d
       -0.019893538 0.025700307 -0.050579283 0.059000917
000050 19 bd 0d bd f2 28 5b 3d 8c e3 c5 3d 96 17 83 bb
       -0.034604166 0.053505845 0.09662542 -0.0040006144
000060 c9 a6 e8 bd 02 c9 f8 bd fe 26 06 be 31 11 26 bd
       -0.11359937 -0.12147714 -0.13100812 -0.04054374
000070 47 66 8a bd fa bd 1c 3c 47 ad 30 3d 4a a0 8d 3c
       -0.06757789 0.009566778 0.043134 0.017288346
000080 20 38 8b 3d a7 6d 28 bd 5e c5 ff bc d5 8b be 3d
       0.06797814 -0.041120198 -0.031222042 0.093040146
000090 5d 9a 7b bd 14 23 93 bd 6d 19 37 bd 80 4c 9a 3c
       -0.06142651 -0.07184425 -0.044701982 0.018835306
0000a0 1e be a1 bd 29 36 2c 3e bf 89 4f bd 4f 15 02 3e
       -0.0789759 0.16817535 -0.050668474 0.12703441
0000b0 12 19 41 3c 79 8d d8 bb e4 ad 1d be c7 0e c8 bd
       0.011785762 -0.0066086617 -0.15398365 -0.097684436
0000c0 c0 e2 2c 3c bb 5b d3 bc b6 99 c2 bb 43 45 a8 3d
       0.010552108 -0.025800576 -0.005938734 0.082163356
0000d0 1f ad 0a be 71 b9 ec 3c 8b 79 8a 3d e7 41 37 3e
       -0.13542603 0.02889702 0.06761464 0.17896233
0000e0 ae ef 52 bd 26 05 4d 3d 6b 20 66 bd 00 aa 0a be
       -0.051498108 0.050053738 -0.05618326 -0.13541412
0000f0 7b 19 d1 3c 46 3a 0a be 23 a6 61 3d 16 10 ab bc
       0.025524845 -0.13498792 0.05509008 -0.020881694
000100 2d a4 f7 3c 1c 2b 05 3e 57 9e ec bb 1f 5a 1c bc
       0.030229652 0.13004726 -0.007221024 -0.009542971
000110 ca 90 1a be 81 19 07 3d df 25 3b 3c 81 9c 3a 3d
       -0.15094295 0.032983307 0.011422603 0.04555941
000120 d3 90 b9 3c de eb 13 bd 30 68 53 3d d7 43 9d 3d
       0.022652065 -0.036113612 0.051613033 0.07678955
000130 06 f2 e9 3d 52 3c 67 bc 39 43 f4 3d 6b e2 b9 bd
       0.114231154 -0.014113503 0.11926884 -0.09076389
000140 17 0d 9c 3c fb d6 b0 3d 92 ac 41 3d bb 0c 38 bd
       0.01904921 0.08634754 0.047283716 -0.044934016
000150 b4 45 9b 3d 90 3f 95 3c ff 4f a4 bb 76 ca c6 3d
       0.07581654 0.018218786 -0.005014419 0.09706585
000160 84 f5 3c bd 55 d5 82 bd 5e 2a 60 be 5d bb 22 bb
       -0.04613258 -0.06388346 -0.21891162 -0.0024830915
000170 99 7d 66 bd e0 1e a6 3c aa 9e 31 bd d2 9b 70 3d
       -0.056272123 0.020278394 -0.043364204 0.05874235
000180 4f a9 d3 bd 09 bb 96 bd 81 bc fc 3d 41 09 b2 3c
       -0.103350274 -0.07359893 0.12340642 0.021732928
000190 d9 2c b6 3d 60 d7 e0 3d 69 65 69 bc 1c f4 4d 3d
       0.08895273 0.109785795 -0.0142453695 0.05028163
0001a0 db 97 b4 bc 4b e2 d8 3c 78 a9 a8 bb 1a 4e 0d bd
       -0.022045067 0.026475092 -0.0051471554 -0.03449831
0001b0 f2 4d a3 bd 2a 81 b1 3c 1f ff d4 bc 6b 91 5d 3d
       -0.07973851 0.021668036 -0.026000557 0.05409376
0001c0 c2 30 47 bc 37 36 90 3d 0e e0 b3 3d f5 c8 06 be
       -0.012157621 0.07041591 0.087829694 -0.13162597
0001d0 f8 21 44 3c e5 40 f1 bb 8e d5 a7 3d e9 1f d2 bd
       0.011970989 -0.0073624724 0.08195029 -0.10259993
0001e0 de 11 82 3d 01 94 bc 3d 5a 1e 9e 3d 60 ef 45 3b
       0.06351064 0.09207917 0.07720633 0.0030202493
0001f0 88 3a 35 3e f9 3c e2 bd 33 bd b2 3d 73 1d 88 3d
       0.17698109 -0.11046786 0.08727493 0.06646242
000200 7f a5 82 bb 07 00 ce 3d c0 18 10 3d 06 2a 51 3d
       -0.003987014 0.10058599 0.035179853 0.051065467
000210 fc 31 b4 3d 21 ce 85 bc bd 23 5b bd bf 9d cb bd
       0.08798596 -0.016333641 -0.05350088 -0.09942197
000220 f3 c5 ed b9 13 87 df 3d 12 6b 79 3d eb 28 d5 3c
       -0.00045351646 0.10914435 0.060893126 0.026020488
000230 7c 3b 3f 3e 79 a8 dc 3c d1 3c 8a 3d 54 90 ff 3c
       0.18675035 0.026935803 0.06749881 0.03119675
000240 c2 1d 86 3d d8 82 bf 3d 5c ef 84 3b 39 5b d7 bc
       0.065486446 0.09351128 0.004056854 -0.026288616
000250 09 84 a3 3d ea 8b fe bc b8 ea 28 3d 80 fa 49 3b
       0.07984168 -0.031072576 0.04123947 0.0030819476
000260 df ed 81 3d 4f 1b bd bd 79 bd 80 bd 55 84 07 3c
       0.063441984 -0.09233724 -0.06286139 0.0082712965
000270 90 fb 64 3d 17 8e 9c 3d f4 55 86 bc df 44 ca 3d
       0.05590397 0.07644289 -0.016398408 0.09876417
000280 59 b0 18 3d 53 72 44 3d 80 a0 bb bd e7 5f 71 bc
       0.037277553 0.04796059 -0.09161472 -0.014732338
000290 b1 52 2b be c5 98 fa 3d 0a 95 78 bd d3 4f 97 bd
       -0.16730763 0.1223617 -0.06068901 -0.07388272
0002a0 67 98 95 bd e3 db 90 3b b9 12 7e bd f9 94 70 3d
       -0.07304459 0.004420744 -0.062029574 0.05873582
0002b0 6c 79 37 3d 62 39 25 bc c6 60 46 ba 9f a0 74 be
       0.04479353 -0.010084482 -0.0007567521 -0.23889397
0002c0 8c fb 74 3d 00 9a 1a bd 64 b0 c3 3d 74 67 87 3d
       0.059810206 -0.037744522 0.09555128 0.06611529
0002d0 ec 7a fe bb 9a 88 07 3d 64 1f a5 bd f8 9b 67 3d
       -0.0077661183 0.033089258 -0.08062628 0.056545228
0002e0 43 7c aa bd 26 19 0c bd bf 56 d4 3d 86 5f 1c 3e
       -0.08324482 -0.03420367 0.10368108 0.15270814
0002f0 62 ca 8a bc 8e 01 79 bd 0b 35 25 3d ab ca 6c bd
       -0.016942207 -0.0607925 0.04033379 -0.057810467
000300 12 80 41 bd 9f 4d a7 3d 53 da 70 bc f4 b7 26 3e
       -0.047241278 0.08169102 -0.01470049 0.1628111
000310 57 d8 90 3d d4 4c f0 3d 30 33 65 bd ba 9c 31 bc
       0.070725136 0.11733404 -0.05595702 -0.010840589
000320 6b eb 62 3d 46 14 d0 3c 49 59 de bc 50 ba 7d bd
       0.055400293 0.025400292 -0.027142184 -0.06194526
000330 e8 34 be bd 1c 42 d5 3c f4 b5 83 bd cf 70 46 3d
       -0.09287435 0.0260325 -0.06431189 0.048447426
000340 84 6a 81 bd b6 ad 76 bd 4c 57 1b 3e 64 3d d4 3c
       -0.06319144 -0.060224257 0.1517002 0.02590818
000350 8a e8 f2 3c b0 c7 c5 bc 0b aa c7 3d 7d 2e dd 3d
       0.029651899 -0.02414307 0.0974923 0.107998826
000360 74 eb b0 3c f1 25 a5 bc ea 3a b7 3b 36 3c c8 bd
       0.021596648 -0.020159693 0.00559174 -0.09777109
000370 32 bb 24 3c e2 e9 55 3d fa 9e ab 3d b1 5b 26 3c
       0.010054396 0.052225 0.08379932 0.010153697
000380 bc 57 81 3d 92 b1 51 3d a2 0e 79 3d b8 82 e4 3d
       0.06315562 0.051194735 0.06080497 0.11157745
000390 d1 95 1a bd 03 c0 5e bd 8c 9a b0 3d 08 dc 08 3e
       -0.037740532 -0.054382335 0.086232275 0.13365185
0003a0 d0 4b ca bd 04 f1 c5 bd ab e5 0f bd 47 40 9f bc
       -0.09877741 -0.09665111 -0.035131138 -0.01943983
0003b0 7c f4 93 3c da 1f 79 3d 4b b4 16 3d 89 52 d9 3d
       0.018060915 0.06082139 0.036793035 0.106114455
0003c0 ea 73 cb 3d 4c 53 94 3d f5 4a b5 bd 31 7b 8b bd
       0.09934218 0.0724245 -0.088521875 -0.06810606
0003d0 2d 83 8e bd 2c 58 a3 bd 2c 73 3b 3d e8 4d 8b 3c
       -0.069586135 -0.07975802 0.045764133 0.017004922
0003e0 f7 cf e1 bd 70 70 61 3d dc 63 22 3d 34 ab ba bd
       -0.11025994 0.05503887 0.039646015 -0.09114686
0003f0 14 a2 a4 bc 8f 12 80 3d b1 29 4f 3c b8 ba ca 3b
       -0.020096816 0.0625354 0.012644217 0.0061868094
