tennis_collab_compet/checkpoint_critic.pth (torch_old, 297545 bytes, 9 tensors)

fcs1.weight f4 [256, 24]
-0.078861855 -0.094131865 -0.017273812 0.022167813 -0.0250533 0.057250746 -0.066348486 -0.016817387
-0.03929889 -0.051604547 0.03392046 -0.002798262 -0.041825473 0.0851851 0.025012689 -0.0071273977
-0.00060149934 -0.05994237 -0.011942072 0.0129395705 -0.020169802 0.045008015 0.014491081 0.009975551
0.052370053 0.07780404 -0.060347486 0.031977996 0.026340578 -0.004983871 -0.009347984 0.03489779
-0.022206612 0.070024386 -0.061011896 0.05333201 0.057357263 0.031188203 -0.029897448 0.04597006
-0.030143347 0.039114445 -0.028692672 0.0008991696 0.075095005 -0.028773623 0.04673322 0.005977454
0.06558749 0.007943745 -0.022245344 0.06494695 0.0034989165 0.025711201 0.02314775 -0.038221765
0.067473285 0.02978044 -0.029523864 0.06703841 -0.0676798 0.01653213 0.035070762 -0.0385523
0.06389118 -0.016274035 -0.036717743 -0.06676455 -0.11119184 -0.10687649 0.04877034 0.0070926035
0.07061828 0.073603734 -0.008019715 0.046958044 -0.011159657 0.04068498 0.0012738608 -0.009215235
0.03899874 0.04123585 0.040395427 -0.050904147 -0.100905046 0.081834145 -0.039745014 0.0192416
-0.014327761 -0.037738416 0.02839282 0.01951144 -0.07805902 0.066179864 -0.027600743 -0.00023992603
-0.06516095 0.00083510816 0.030002369 -0.01884367 -0.0025623085 0.0074821543 0.009091575 -0.008023586
-0.058899492 0.046006575 -0.010684079 -0.044232536 0.053130075 0.047857214 -0.023277227 -0.01112215
0.055603754 0.042828415 0.07369108 -0.012749726 0.08571553 0.030004984 0.05389746 -0.007194741
-0.018233726 -0.058111355 0.016829427 -0.06583014 0.009669126 0.07044733 -0.04043477 -0.011094902
-0.00045901732 0.0040334403 -0.013521083 0.0061837053 0.020187331 0.07818638 0.011741123 -0.0625357
-0.0046487013 -0.075977564 0.061513845 0.09787259 -0.011682481 0.07854092 0.060005438 0.05342144
-0.007499267 0.041667435 -0.028778426 0.011089906 -0.07287279 -0.023524808 0.027735014 -0.020309731
0.0698293 0.0033705477 0.034683164 -0.014998108 0.05505079 0.06383011 -0.0374853 0.015353294
-0.047884997 -0.013370887 -0.014139449 0.0036360503 0.40738997 -0.002542616 0.01868888 -0.006360682
0.05543687 -0.10154425 -0.008317594 -0.004995364 0.054869704 0.008986998 0.006122592 0.023411714
-0.01047587 -0.037817277 0.055905547 -0.015350514 -0.013943829 0.043743275 -0.04782995 -0.016718201
0.039618723 -0.08775697 -0.04023939 -0.052374937 -0.104305364 0.17449053 0.042420197 0.030064765
0.025744818 0.0776427 -0.014388451 0.029685585 0.07144967 0.041997932 -0.056896754 0.0007486179
0.01335128 0.016376387 -0.039738197 -0.011939215 0.056949556 -0.005655389 -0.030722784 -0.01917366
0.01620267 0.06896519 0.030071553 0.04902471 -0.045428436 -0.004273974 0.04232045 -0.040922265
0.040817957 0.004303924 -0.032260295 0.056915138 0.02320374 0.019181544 0.030985722 0.006927149
0.0020178559 0.097069964 -0.007343855 0.008301324 0.033740878 0.098943464 0.00862753 -0.029041983
0.022310395 0.0126865795 -0.021138024 -0.07780308 -0.056068312 0.108372755 0.01813678 -0.073567934
-0.04745532 0.03865366 -0.021281548 -0.01705825 0.060346738 0.029115433 0.02269377 0.017576007
0.024372397 -0.066410996 0.002069949 -0.03483836 -0.0028119264 -0.018869374 -0.0067656655 0.038442668
00000000: 5382 a1bd 35c8 c0bd cf81 8dbc 4699 b53c
00000010: 943c cdbc c27f 6a3d b7e1 87bd 9ec4 89bc
00000020: dff7 20bd 4a5f 53bd 2ef0 0a3d 0c63 37bb
00000030: 3051 2bbd 8775 ae3d 69e7 cc3c f28c e9bb
00000040: f0ad 1dba 2186 75bd aea8 43bc 7e00 543c
00000050: 243b a5bc 535a 383d 006c 6d3c 7e70 233c
00000060: fb81 563d b957 9f3d ed2e 77bd 5cfb 023d
00000070: 32c8 d73c bd4f a3bb 4928 19bc fcf0 0e3d
00000080: a4ea b5bc f268 8f3d 9ce7 79bd aa72 5a3d
00000090: 73ef 6a3d 677e ff3c 7eeb f4bc 1a4b 3c3d
000000a0: 2eef f6bc 7836 203d e50c ebbc 40b6 6b3a
000000b0: 69cb 993d a9b6 ebbc 556b 3f3d 85de c33b
000000c0: bc52 863d 7b26 023c de3b b6bc e802 853d
000000d0: 144e 653b 4ca0 d23c 5aa0 bd3c 6d8e 1cbd
000000e0: 6f2f 8a3d 1cf6 f33c 08dc f1bc 6f4b 893d
000000f0: b59b 8abd 646e 873c 5ca6 0f3d 04e9 1dbd
00000100: 61d9 823d 2051 85bc 5865 16bd dabb 88bd
00000110: 8cb8 e3bd 10e2 dabd 68c3 473d 1269 e83b
00000120: 51a0 903d 8ebd 963d 1f65 03bc 1457 403d
00000130: fed6 36bc 4ba5 263d adf7 a63a 7ffb 16bc
00000140: 25bd 1f3d ece6 283d ad75 253d de80 50bd
00000150: 4ea7 cebd a998 a73d abcb 22bd 8fa0 9d3c
00000160: fcbe 6abc 9993 1abd 0f98 e83c 75d6 9f3c
00000170: 68dd 9fbd 4f89 873d f41a e2bc a794 7bb9
00000180: 1b73 85bd 29eb 5a3a 87c7 f53c 0a5e 9abc
00000190: 67ec 27bb dc2c f53b d4f4 143c 5c75 03bc
000001a0: 9840 71bd 6471 3c3d 460c 2fbc 2d2d 35bd
000001b0: ec9e 593d ed05 443d e2af bebc ae39 36bc
000001c0: c3c0 633d d96c 2f3d 59eb 963d 3ae4 50bc
000001d0: a08b af3d 03cd f53c 95c3 5c3d ddc1 ebbb
000001e0: e55e 95bc 2c06 6ebd dedd 893c f4d1 86bd
000001f0: 416b 1e3c b146 903d ee9e 25bd 64c7 35bc
00000200: 43a8 f0b9 f32a 843b 8887 5dbc aea0 ca3b
00000210: e75f a53c 2e20 a03d d75d 403c b812 80bd
00000220: 2254 98bb 209a 9bbd f1f5 7b3d 6d71 c83d
00000230: e067 3fbc 10da a03d 43c8 753d 71d0 5a3d
00000240: 69bc f5bb 79ab 2a3d bcc0 ebbc 70b2 353c
00000250: 543e 95bd 19b7 c0bc 8a34 e33c 9860 a6bc
00000260: aa02 8f3d 68e4 5c3b ef0f 0e3d a0ba 75bc
00000270: f07c 613d 5cb9 823d 308a 19bd 628c 7b3c
00000280: 0f23 44bd 9111 5bbc 26a9 67bc cd4a 6e3b
00000290: 6b95 d03e 05a2 26bb 6c19 993c 456d d0bb
000002a0: c511 633d 6ff6 cfbd 8546 08bc 27b0 a3bb
000002b0: 0ebf 603d 343e 133c 06a0 c83b ecc9 bf3c
000002c0: fca2 2bbc 4ae6 1abd 37fd 643d b980 7bbc
000002d0: a874 64bc 262c 333d 56e9 43bd 9cf4 88bc
000002e0: 3e47 223d edb9 b3bd 0fd2 24bd 1a87 56bd
000002f0: 0d9e d5bd a5ad 323e cdc0 2d3d 624a f63c
00000300: cce6 d23c 2303 9f3d 8abd 6bbc 2f2f f33c
00000310: 3454 923d 0606 2c3d 920c 69bd e63e 443a
00000320: 54bf 5a3c c627 863c 85c4 22bd b29c 43bc
00000330: f043 693d d750 b9bb 59ae fbbc 1412 9dbc
00000340: 76bb 843c 9f3d 8d3d 9e58 f63c 22ce 483d
00000350: 2b13 3abd b10c 8cbb 3558 2d3d 1b9e 27bd
00000360: bb30 273d ee07 8d3b 5f23 04bd d91f 693d
00000370: c515 be3c 9d22 9d3c c5d5 fd3c 23fd e23b
00000380: 013e 043b 9ecc c63d b9a4 f0bb 4702 083c
00000390: e033 0a3d dfa2 ca3d 7c5a 0d3c 74e9 edbc
000003a0: 4ac4 b63c 5fdb 4f3c a629 adbc 3957 9fbd
000003b0: e3a7 65bd 89f2 dd3d 9693 943c c9aa 96bd
000003c0: 8260 42bd 4d53 1e3d a456 aebc bebd 8bbc
000003d0: 242e 773d 7d83 ee3c 49e8 b93c 8ffb 8f3c
000003e0: 9fa8 c73c 7d02 88bd fba7 073b abb2 0ebd
000003f0: 4c48 38bb f293 9abc 84b2 ddbb 0f76 1d3d

fcs1.bias f4 [256]
-0.09004893 0.12543665 0.05846581 0.054612845 -0.08439767 -0.1546713 -0.1896376 -0.058508012
-0.16507667 -0.2295569 0.046300925 -0.09766582 0.046042945 -0.0656881 0.009882685 0.08627499
0.0019301822 0.044855382 -0.2237221 -0.15170777 0.1482628 -0.18293616 -0.058049243 -0.13142887
-0.055787783 -0.2131859 0.06396668 0.051616874 -0.15696815 -0.0667062 -0.10923912 -0.09090316
-0.03494117 0.050156888 -0.08196575 0.044094738 -0.1539357 0.14349924 -0.18770899 0.12751344
-0.19178209 -0.19530244 0.0118838325 -0.11852969 -0.157714 -0.16215664 -0.100207396 -0.16153136
0.2698201 0.05786053 -0.06482864 0.13970277 -0.11580129 -0.13441776 0.10328289 -0.10535744
0.15860194 -0.0725799 -0.11739858 0.16345224 0.055871803 0.039371748 -0.052722834 -0.18727252
0.10726033 0.0067230444 -0.19317257 0.14431052 -0.23799892 -0.18875897 -0.06727638 -0.16762422
-0.22962661 -0.04493832 -0.061776977 0.07136717 0.07813866 0.17104799 0.07265817 0.00054963824
-0.053092375 -0.11794277 -0.159192 -0.17533292 0.032281432 -0.11570074 -0.11244242 0.09853203
-0.13683641 0.06548144 -0.066527866 0.050594494 -0.14122078 0.14480714 -0.18013565 -0.22594848
0.2513854 -0.15078127 0.21548122 0.12573294 0.046077922 0.070083335 0.03025444 0.04348899
-0.06442427 0.14919864 0.12567773 -0.027622966 0.051794928 0.052852962 -0.045440827 -0.19836356
-0.06309778 -0.1928883 -0.14071164 0.10447993 0.13253506 -0.20455685 -0.17911845 0.17828642
-0.10746465 -0.025861908 0.13516773 0.1706973 0.102353565 -0.027501503 0.031758375 0.049509637
0.05268949 -0.19984633 -0.19842455 0.07223339 -0.2272282 0.087197036 0.15802963 0.1479667
-0.016540956 -0.07265075 0.11593148 0.108071074 0.037781164 -0.1523387 0.06117824 0.011989903
0.08574101 -0.13568456 -0.030178638 -0.113704726 0.032841735 0.13444057 0.0035706614 0.22649817
0.1369975 -0.11352401 0.28181005 -0.0095223095 0.2342257 0.06895627 -0.019824406 0.17606516
-0.16376308 -0.0044926596 0.027717588 0.036207195 -0.09589969 0.14070843 0.02341297 0.077021636
0.0899453 0.15375765 0.05403285 -0.24458401 -0.243542 -0.25033382 -0.20047657 -0.20811102
-0.00752404 0.1847818 -0.15350649 -0.02155758 -0.107448824 0.10829421 0.14502 0.065602474
0.15026021 -0.19941577 -0.11347914 -0.08380184 0.04316743 0.2095505 0.15680847 0.058951702
-0.016470583 -0.16179799 0.20199078 -0.17359625 -0.19915436 0.11037737 0.098287076 0.0013867158
0.01128388 -0.053153012 0.022593616 -0.06600315 0.14710642 0.22594196 -0.096593395 0.13539018
-0.07003476 -0.14031953 -0.009137946 -0.051048454 0.1803327 0.016123736 -0.12866978 -0.14714977
0.08501103 0.13236208 -0.045451075 -0.0015827988 -0.10088032 0.007720614 0.19519937 -0.001784664
0.0016069892 -0.14945719 0.008670128 -0.13488175 -0.10073982 -0.12242301 0.20649365 0.079199895
-0.089829594 -0.018001936 0.045351803 0.11476653 -0.09119584 0.12547088 0.0064093354 0.15756513
-0.06624111 -0.1969206 0.047274347 -0.043802243 -0.06940179 0.15065372 -0.0001675874 -0.23221523
-0.006672991 -0.11318662 -0.11997575 -0.1492127 0.1606325 0.21815789 -0.16835074 0.14387423
00000000: 936b b8bd 7772 003e d879 6f3d b8b1 5f3d
00000010: b0d8 acbd 2762 1ebe 5c30 42be 19a6 6fbd
00000020: dc09 29be f710 6bbe 0aa6 3d3d 0405 c8bd
00000030: 8797 3c3d 7c87 86bd fcea 213c f1b0 b03d
00000040: 2bfe fc3a 47ba 373d 6817 65be 4859 1bbe
00000050: 34d2 173e 9e53 3bbe 0bc5 6dbd 4a95 06be
00000060: bb81 64bd 684d 5abe f600 833d 376c 533d
00000070: 42bc 20be 439d 88bd c2b8 dfbd 702b babd
00000080: 791e 0fbd 4f71 4d3d a9dd a7bd af9c 343d
00000090: 52a1 1dbe 77f1 123e c936 40be e292 023e
000000a0: 8662 44be 5dfd 47be 68b4 423c b2bf f2bd
000000b0: c77f 21be 640c 26be 8939 cdbd 7a68 25be
000000c0: dc25 8a3e 2aff 6c3d e1c4 84bd 3e0e 0f3e
000000d0: 3a29 edbd cfa4 09be fb85 d33d a4c5 d7bd
000000e0: 8c68 223e c5a4 94bd ab6e f0bd 0660 273e
000000f0: d5d9 643d 4544 213d e6f3 57bd 5ec4 3fbe
00000100: 4eab db3d fc4c dc3b 08cf 45be 23c6 133e
00000110: fdb5 73be 084a 41be 33c8 89bd afa5 2bbe
00000120: 3d23 6bbe 3e11 38bd db09 7dbd f328 923d
00000130: 2907 a03d 3427 2f3e cecd 943d 9915 103a
00000140: 6477 59bd fb8b f1bd 3a03 23be 798a 33be
00000150: 8939 043d 82f4 ecbd 3648 e6bd 29cb c93d
00000160: d81e 0cbe 221b 863d c33f 88bd 2c3c 4f3d
00000170: 2e9c 10be 5348 143e 7b75 38be 0a5f 67be
00000180: 96b5 803e 6866 1abe 1ca7 5c3e 23c0 003e
00000190: 34bc 3c3d da87 8f3d 29d8 f73c 8321 323d
000001a0: dff0 83bd 87c7 183e aab1 003e 8f49 e2bc
000001b0: eb26 543d 597c 583d 2920 3abd d11f 4bbe
000001c0: 6939 81bd 8384 45be b616 10be 93f9 d53d
000001d0: 45b7 073e 5a77 51be d46a 37be b790 363e
000001e0: 6d16 dcbd 5adc d3bc 6969 0a3e 46cb 2e3e
000001f0: bf9e d13d d54a e1bc 1215 023d 9eca 4a3d
00000200: efd0 573d 84a4 4cbe ce2f 4bbe 19ef 933d
00000210: 82ae 68be 5c94 b23d 85d2 213e 9584 173e
00000220: e680 87bc ebc9 94bd 7c6d ed3d 5e54 dd3d
00000230: 6cc0 1a3d adfe 1bbe 0996 7a3d 4c71 443c
00000240: fc98 af3d e5f0 0abe 3139 f7bc 06de e8bd
00000250: 0e85 063d caaa 093e c201 6a3b 23ef 673e
00000260: 1349 0c3e 477f e8bd 6849 903e 7603 1cbc
00000270: ddd8 6f3e f238 8d3d cb66 a2bc 6d4a 343e
00000280: 82b1 27be 2937 93bb ff0f e33c ff4d 143d
00000290: 0f67 c4bd df15 103e 8fcc bf3c 85bd 9d3d
000002a0: 3e35 b83d a572 1d3e 8d51 5d3d 3b74 7abe
000002b0: 1363 79be c12b 80be bb49 4dbe 0e1b 55be
000002c0: 398c f6bb 7137 3d3e ce30 1dbe 8699 b0bc
000002d0: 210e dcbd 5bc9 dd3d 1f80 143e 975a 863d
000002e0: d0dd 193e a633 4cbe c067 e8bd 4da0 abbd
000002f0: 55d0 303d 6894 563e 6692 203e 5777 713d
00000300: 51ed 86bc 5fae 25be acd6 4e3e 37c3 31be
00000310: 1fef 4bbe 880d e23d bc4a c93d 76c2 b53a
00000320: 06e0 383c f9b6 59bd 3f16 b93c a92c 87bd
00000330: 11a3 163e 545d 673e c2d2 c5bd b9a3 0a3e
00000340: 626e 8fbd ecaf 0fbe 53b7 15bc 2f18 51bd
00000350: 23a9 383e ed15 843c 03c2 03be 6eae 16be
00000360: 431a ae3d ed89 073e e82a 3abd ea75 cfba
00000370: 579a cebd 34fd fc3b 58e2 473e 63eb e9ba
00000380: 9ca1 d23a 4e0b 19be 270d 0e3c 711e 0abe
00000390: ae50 cebd eab8 fabd 1273 533e 8e33 a23d
000003a0: 94f8 b7bd cc78 93bc d0c2 393d b70a eb3d
000003b0: e2c4 babd 707b 003e 6705 d23b c158 213e
000003c0: 6ba9 87bd 8ea5 49be bfa2 413d fb69 33bd
000003d0: 8722 8ebd f844 1a3e 66ba 2fb9 d4c9 6dbe
000003e0: 1ba9 dabb 63ce e7bd d9b5 f5bd 37cb 18be
000003f0: d97c 243e c864 5f3e 2364 2cbe c453 133e

batch_norm1.weight f4 [256]
0.55311346 0.27747127 0.39993492 0.592455 0.54471004 0.82227695 1.0060817 0.60625046
0.7960689 0.22258778 0.61209935 0.11193964 0.68268824 0.7131628 0.17696247 0.22142573
0.34662974 0.2872567 0.33625552 0.04825931 0.18058987 0.78675836 0.21229665 0.6130119
0.44168913 0.61765313 0.54255176 0.8017899 0.64450604 0.46646234 0.7961342 0.48571542
0.5062417 0.89204305 0.17957653 0.7554818 0.18648247 0.58569366 0.21183738 0.7745037
0.057591073 0.25255853 0.6678345 0.25945517 0.6824467 0.8878641 0.09656114 0.26278827
0.19067167 0.8172242 0.51042026 0.122585855 0.048079345 0.7746001 0.87384486 0.17941074
0.55916655 0.32721272 0.7248513 0.20973948 0.7283621 0.89373714 0.7199672 0.3631972
0.4922387 0.6201267 0.2064775 0.23631117 0.05002105 0.73665816 0.27449945 0.78305274
0.34207568 0.3163087 0.65311784 0.5620523 0.14131439 0.46336168 0.23863788 0.1303637
0.16583055 0.6057661 0.64282477 0.25812078 0.56567764 0.2655882 0.11904333 0.58032006
0.26609078 0.31615713 0.8517415 0.8209819 0.046706475 0.84169275 0.9148674 0.145268
0.10577383 0.11263066 0.32584637 0.44131607 0.54452485 0.68484133 0.49634323 0.098350644
0.8407487 0.82261664 0.6547563 0.5822834 0.20103958 0.44808176 0.17761774 0.8633715
0.054569475 0.802891 1.0396008 0.21698809 0.14530705 0.5856095 0.082960665 0.027014334
0.21690202 0.67040884 0.164821 0.3628125 0.34371212 0.76133114 0.60225224 0.6202429
0.47511238 0.1594372 0.6185539 0.56168115 0.97414297 0.07696653 0.080366015 0.691608
0.58240825 0.8260643 0.3435977 0.90008646 0.5551277 0.26680276 0.26972732 0.509468
0.3132062 0.21718493 0.19002752 0.5577891 0.6882226 0.84716356 0.22259666 0.17685673
0.1705438 0.15078399 0.8733114 0.20919678 0.30809447 0.73097587 0.7508936 0.069502324
0.39836043 0.52662003 0.5004053 0.21892871 0.072630174 0.11073482 0.84581745 0.20645574
0.039861243 0.87306434 0.66650003 0.35078314 0.5796425 0.27768224 0.28875285 0.040985793
0.7433428 0.015144118 0.2163431 0.8554299 0.13675714 0.2819674 0.48182377 -0.018694969
0.05811542 0.07425359 0.4764389 0.2652801 0.98626596 0.73242486 0.8681057 0.07684723
0.23065713 0.80666584 0.58439165 0.1371427 0.77714974 0.20359437 1.0297941 0.07341689
0.6657188 0.37451333 0.054631453 0.6884741 0.28861177 0.41445613 0.2952198 0.40921727
0.4338064 0.6016653 0.5683509 0.7336125 0.5410301 0.4438309 0.7763041 0.25605878
0.12911515 0.13122304 0.12926652 0.11861092 0.7649458 0.43468642 0.05254262 0.6233893
0.70600635 0.77687925 0.40768 0.4308672 0.7987456 0.053528048 0.44277582 0.7521276
0.76912826 0.5285993 0.40898758 0.5706705 0.5634612 0.43770477 0.7747217 0.827023
0.29076776 0.98642844 0.31923696 0.51068693 0.8524151 0.2939149 0.6256779 0.5797409
0.18782082 0.38182616 0.9326298 0.6728181 0.19826296 0.8106307 0.60720134 0.8172269
00000000: d898 0d3f b710 8e3e 45c4 cc3e 22ab 173f
00000010: 1e72 0b3f be80 523f 49c7 803f 3b33 1b3f
00000020: 2ccb 4b3f 0dee 633e 8bb2 1c3f 9c40 e53d
00000030: a8c4 2e3f d691 363f a635 353e 6dbd 623e
00000040: 7479 b13e 4f13 933e af29 ac3e 8eab 453d
00000050: 8dec 383e ff68 493f 4b64 593e 59ee 1c3f
00000060: 1425 e23e 841e 1e3f ace4 0a3f 1a42 4d3f
00000070: 59fe 243f 27d4 ee3e 73cf 4b3f b1af f83e
00000080: 0e99 013f ef5c 643f e9e2 373e 4167 413f
00000090: 43f5 3e3e 05f0 153f e6eb 583e e045 463f
000000a0: 9ee4 6b3d 5a4f 813e 34f7 2a3f 4fd7 843e
000000b0: d4b4 2e3f 104b 633f d9c1 c53d 2f8c 863e
000000c0: 6f3f 433e 9b35 513f e7aa 023f 4b0e fb3d
000000d0: d9ee 443d 314c 463f 4cb4 5f3f 73b7 373e
000000e0: 8a25 0f3f 6d88 a73e db8f 393f f2c5 563e
000000f0: f075 3a3f f5cb 643f c54f 383f fcf4 b93e
00000100: b606 fc3e a0c0 1e3f d66e 533e 8efb 713e
00000110: dfe2 4c3d a195 3c3f 318b 8c3e 2576 483f
00000120: 8b24 af3e 37f3 a13e bb32 273f a9e2 0f3f
00000130: b8b4 103e be3d ed3e 7d5d 743e 107e 053e
00000140: 7ccf 293e 7d13 1b3f 2a90 243f 6828 843e
00000150: 40d0 103f 2dfb 873e fdcc f33d db8f 143f
00000160: 0d3d 883e 59df a13e bb0b 5a3f df2b 523f
00000170: 4a4f 3f3d 2d79 573f c034 6a3f 22c1 143e
00000180: f39f d83d e7aa e63d 56d5 a63e 2ef4 e13e
00000190: fb65 0b3f c351 2f3f b320 fe3e 106c c93d
000001a0: 4f3b 573f 0197 523f 1c9e 273f 8610 153f
000001b0: 52dd 4d3e f96a e53e 6de1 353e ea05 5d3f
000001c0: 3e84 5f3d 448a 4d3f a411 853f 2032 5e3e
000001d0: 5fcb 143e 81ea 153f 48e7 a93d 2a4d dd3c
000001e0: 901b 5e3e ea9f 2b3f d6c6 283e 8fc2 b93e
000001f0: 09fb af3e 99e6 423f 342d 1a3f 3dc8 1e3f
00000200: ee41 f33e 8143 233e 8c59 1e3f 56ca 0f3f
00000210: 6f61 793f a1a0 9d3d f096 a43d 390d 313f
00000220: b518 153f f378 533f 0aec af3e 116c 663f
00000230: d91c 0e3f 5f9a 883e b319 8a3e 7f6c 023f
00000240: 905c a03e ba65 5e3e 9396 423e 44cb 0e3f
00000250: 5b2f 303f b6df 583f 61f0 633e ee19 353e
00000260: 09a3 2e3e 1e67 1a3e 5691 5f3f ae37 563e
00000270: 8fbe 9d3e 3c21 3b3f 903a 403f 3c57 8e3d
00000280: e6f5 cb3e 92d0 063f 901a 003f d92e 603e
00000290: 21bf 943d f0c8 e23d 7e87 583f 2269 533e
000002a0: 8b45 233d 2581 5f3f bf9f 2a3f d999 b33e
000002b0: 7363 143f 5e2c 8e3e 6ad7 933e b8e0 273d
000002c0: b74b 3e3f 091f 783c 0c89 5d3e 74fd 5a3f
000002d0: 100a 0c3e 085e 903e 9bb1 f63e 3126 99bc
000002e0: 6f0a 6e3d 4412 983d cdef f33e cbd2 873e
000002f0: ed7b 7c3f 3280 3b3f 2d3c 5e3f 1562 9d3d
00000300: 6231 6c3e a781 4e3f b19a 153f 236f 0c3e
00000310: 49f3 463f 0b7b 503e 4bd0 833f 985b 963d
00000320: 8c6c 2a3f 36c0 bf3e 3bc5 5f3d d73f 303f
00000330: ecc4 933e 9833 d43e 0d27 973e ed84 d13e
00000340: df1b de3e bd06 1a3f 727f 113f 07ce 3b3f
00000350: f380 0a3f ce3d e33e debb 463f 231a 833e
00000360: c336 043e 555f 063e 715e 043e 48ea f23d
00000370: 7dd3 433f 388f de3e ee36 573d 7196 1f3f
00000380: d5bc 343f 8fe1 463f 6fbb d03e a09a dc3e
00000390: 977a 4c3f 3a40 5b3d 83b3 e23e 6f8b 403f
000003a0: 97e5 443f 4952 073f d266 d13e 7617 123f
000003b0: fe3e 103f d71a e03e 2954 463f c8b7 533f
000003c0: 83df 943e 9386 7c3f 0773 a33e 61bc 023f
000003d0: e037 5a3f 047c 963e 6d2c 203f e669 143f
000003e0: 1a54 403e b87e c33e d4c0 6e3f cf3d 2c3f
000003f0: 7205 4b3e 7e85 4f3f 8c71 1b3f c835 513f

batch_norm1.bias f4 [256]
0.0042607505 0.06264826 0.07882553 0.028474716 0.026848609 -0.05013292 0.07539916 0.08097194
-0.0042041424 -0.008926181 0.027785907 -0.06298437 -0.029183706 0.04430337 -0.052018892 0.0057547363
0.0019715154 0.04453725 0.006079194 -0.11258778 -0.049983718 0.027630227 -0.032800667 -0.060637344
-0.0860015 0.030654237 0.011948699 0.088034034 0.033688713 0.041037045 0.048735693 0.0862703
0.05542329 0.050483797 -0.07322651 0.012716817 0.03471807 -0.065899946 0.0015685213 0.030713594
0.054104388 -0.010825623 0.03304515 -0.0044089183 0.077949494 0.11155863 -0.01828836 0.013878303
0.0700187 -0.05647233 0.020602705 -0.07590603 -0.039898135 -0.034793623 0.045816034 -0.012010935
-0.04101957 -0.06855985 0.052781463 0.05514791 0.026658889 0.08627763 0.028573848 -0.04070403
-0.02410317 0.009422475 0.041522082 -0.03967448 -0.025107361 -0.06748923 0.0720653 0.025178785
-0.014765763 0.05934166 -0.035623528 -0.030457858 0.043814033 0.03641852 0.09889731 0.064940676
-0.038817074 0.07011622 -0.001427118 0.017320253 0.063080296 -0.022461725 0.037729576 -0.03999643
0.02059087 0.073957436 0.06804027 -0.058627024 0.0126874205 0.012731042 0.012258178 0.0593558
0.07416874 0.05773611 0.039150115 0.03314314 -0.024210015 0.091354586 0.0444924 0.11775626
0.029607302 0.18369654 -0.012086651 0.16681094 -0.03981326 0.1632959 0.06498997 0.068834096
-0.065227024 -0.083594576 0.10055371 -0.03843141 0.02572459 0.005874341 -0.034953043 -0.063114755
0.031562265 0.047749892 -0.0034872836 0.048263993 -0.0012000999 0.04641849 0.026318178 -0.011049865
0.029121878 -0.08212169 -0.10870866 -0.051972963 0.13820194 0.06054521 -0.010009433 0.15272744
-0.0009886707 -0.061070748 0.051728 0.02587378 -0.010530418 -0.0022649611 -0.11373644 0.09570679
-0.02577959 -0.0041193436 -0.024456438 0.0682993 -0.0059706178 -0.050021395 0.058441445 0.037061375
-0.03763366 0.047109522 -0.033987243 0.033494905 0.0408466 0.0052977274 0.009558879 -0.074178554
-0.04674126 -0.00506029 0.039676163 -0.06202306 -0.054251064 0.02408781 -0.037992146 -0.006320577
0.10088602 -0.0049459054 0.057204 0.06689023 0.13458544 0.02339503 -0.008227186 0.08891637
0.03865909 -0.028087836 -0.05389667 -0.01754857 -0.0330287 0.044367984 0.081101485 0.06801064
-0.032611206 0.037601672 0.020335294 0.04181418 0.03923929 0.012229351 -0.026002536 0.03419711
-0.027771996 -0.024447238 -0.024805252 0.067860916 -0.052998576 -0.022015577 0.050750062 -0.0026986804
-0.037249435 0.041648604 -0.08726056 -0.021654122 0.045484792 -0.049829878 0.04429214 -0.026774418
0.009927724 -0.03883475 0.03383752 0.036476564 0.009226628 -0.019792119 0.04166923 -0.09223325
0.02204114 -0.005550119 -0.0074264375 0.088388704 -0.036533773 0.09298207 -0.09394839 -0.089338444
0.13766603 0.04518836 0.07338048 -0.046915952 0.058904756 -0.047891118 -0.12666017 0.024766268
-0.041181546 0.06635307 -0.0046241162 -0.015312428 -0.025205737 0.041824903 0.069555536 0.05518592
0.019318882 -0.0068860855 -0.11355434 0.03509706 -0.010942517 0.078964956 -0.059167422 0.04139481
-0.037269004 0.069410145 -0.040244136 0.07834307 -0.008288113 0.11218578 -0.04369354 0.02631418
00000000: c49d 8b3b bb4d 803d 486f a13d cf43 e93c
00000010: 9df1 db3c 2d58 4dbd e06a 9a3d 9ed4 a53d
00000020: e7c2 89bb 1e3f 12bc 459f e33c f3fd 80bd
00000030: ab12 efbc 7377 353d c311 55bd 3a92 bc3b
00000040: 8a34 013b b16c 363d fa33 c73b 6c94 e6bd
00000050: babb 4cbd c958 e23c fe59 06bd dd5e 78bd
00000060: 8e21 b0bd 981e fb3c 7ac4 433c 304b b43d
00000070: 2dfd 093d 7616 283d 149f 473d 7cae b03d
00000080: 8803 633d 19c8 4e3d c8f7 95bd 325a 503c
00000090: 8934 0e3d 8df6 86bd d796 cd3a 139b fb3c
000000a0: 909c 5d3d f45d 31bc 5a5a 073d b078 90bb
000000b0: fca3 9f3d da78 e43d 79d1 95bc d261 633c
000000c0: f765 8f3d 884f 67bd 01c7 a83c 9f74 9bbd
000000d0: 3a6c 23bd c283 0ebd 98a9 3b3d 83c9 44bc
000000e0: 2304 28bd 1b69 8cbd 6031 583d c6e2 613d
000000f0: be63 da3c 53b2 b03d b413 ea3c 45b9 26bd
00000100: 0374 c5bc b960 1a3c 0f13 2a3d b581 22bd
00000110: f4ad cdbc cb37 8abd f996 933d bd43 ce3c
00000120: 19ec 71bc 3e10 733d fae9 11bd c282 f9bc
00000130: 5876 333d 962b 153d ac8a ca3d 9eff 843d
00000140: a7fe 1ebd 1899 8f3d 220e bbba 34e3 8d3c
00000150: 3e30 813d a701 b8bc 548a 1a3d 4cd3 23bd
00000160: 2fae a83c ff76 973d b258 8b3d e422 70bd
00000170: e6de 4f3c dc95 503c 86d6 483c 111f 733d
00000180: c8e5 973d b37c 6c3d df5b 203d 1ac1 073d
00000190: 1554 c6bc 1d18 bb3d aa3d 363d 322a f13d
000001a0: 038b f23c f21a 3c3e 1707 46bc 7dd0 2a3e
000001b0: 3b13 23bd 0a37 273e 7619 853d e4f8 8c3d
000001c0: bf95 85bd a233 abbd 1aef cd3d 416a 1dbd
000001d0: 60bc d23c 8b7d c03b ec2a 0fbd 4f42 81bd
000001e0: 6f47 013d 6495 433d e98a 64bb 77b0 453d
000001f0: ac4c 9dba 5121 3e3d 3899 d73c 7e0a 35bc
00000200: 0191 ee3c 6b2f a8bd a5a2 debd 9ae1 54bd
00000210: cf84 0d3e 41fe 773d 9bfe 23bc 9564 1c3e
00000220: 4996 81ba 5225 7abd bde0 533d 40f5 d33c
00000230: c687 2cbc be6f 14bb a7ee e8bd ec01 c43d
00000240: b82f d3bc 8ffb 86bb de58 c8bc 81e0 8b3d
00000250: 2ca5 c3bb 3ce3 4cbd 4c60 6f3d abcd 173d
00000260: c125 1abd eaf5 403d 3536 0bbd f431 093d
00000270: c44e 273d 8f98 ad3b d89c 1c3c edea 97bd
00000280: c373 3fbd cad0 a5bb 7983 223d e40b 7ebd
00000290: 5d36 5ebd cd53 c53c a79d 1bbd d81c cfbb
000002a0: 549d ce3d 4311 a2bb be4e 6a3d bffd 883d
000002b0: c4d0 093e efa6 bf3c 52cb 06bc c919 b63d
000002c0: fe58 1e3d 7618 e6bc c1c2 5cbd 05c2 8fbc
000002d0: 1a49 07bd 34bb 353d 8918 a63d 2a49 8b3d
000002e0: 5493 05bd 3604 1a3d 3496 a63c 5845 2b3d
000002f0: 61b9 203d 9e5d 483c 4503 d5bc 4512 0c3d
00000300: 1982 e3bc 9345 c8bc 6234 cbbc aafa 8a3d
00000310: 0915 59bd 035a b4bc 4cdf 4f3d 58dc 30bb
00000320: dd92 18bd ba97 2a3d aab5 b2bd fc63 b1bc
00000330: 434e 3a3d 6a1a 4cbd ad6b 353d 0656 dbbc
00000340: e4a7 223c 3011 1fbd 3699 0a3d 7368 153d
00000350: 482b 173c 1523 a2bc 5bad 2a3d c9e4 bcbd
00000360: 9f8f b43c c6dd b5bb 7959 f3bb 2305 b53d
00000370: 70a4 15bd 626d be3d 0368 c0bd 13f7 b6bd
00000380: 53f8 0c3e 6e17 393d 8148 963d f12a 40bd
00000390: 1d46 713d 7a29 44bd 34b3 01be a1e2 ca3c
000003a0: fbad 28bd 1ee4 873d e685 97bb fae0 7abc
000003b0: 437c cebc 9750 2b3d 2273 8e3d a20a 623d
000003c0: a242 9e3c aca4 e1bb 2e8f e8bd efc1 0f3d
000003d0: 3e48 33bc 61b8 a13d 8a59 72bd 9b8d 293d
000003e0: 62a7 18bd e826 8e3d 09d7 24bd 5572 a03d
000003f0: deca 07bc a9c1 e53d fff7 32bd d690 d73c

batch_norm1.running_mean f4 [256]
1.9737203 0.86716497 0.026692813 0.4700234 1.5580673 1.4885844 0.9564915 0.39619642
0.49111474 0.23981453 1.3277912 0.033569623 1.5482637 1.6246194 0.40755284 0.061430495
1.6005864 1.103943 0.20311978 0.40166157 0.385744 0.35376328 0.5377027 0.73184097
0.15634847 0.021998927 2.0358546 1.542788 0.47758895 0.4975561 0.34014398 1.6096307
0.8478621 1.1896173 0.12796317 0.09832674 2.0558197 0.21276878 0.2185649 0.17638284
0.7938488 1.543249 1.6238059 0.28102842 1.0151043 1.8226236 0.029021908 1.2608726
0.035667606 1.8328638 0.91998565 1.6197481 0.72134924 2.5536203 0.49078915 0.1977947
0.6267543 0.8382343 0.55197895 0.9319792 1.0791883 1.9883848 0.58735263 0.27891573
2.0799294 0.34949905 0.39578786 0.9635441 0.07304737 0.58854556 0.06716106 0.97129434
0.27471772 0.42850053 1.2373888 1.1349446 0.422788 1.6489024 0.4359387 0.71048605
1.2271447 0.66743195 1.5588237 0.2518632 0.57682896 2.0450087 0.5104624 0.4949116
0.09042302 0.59618384 0.05385577 0.28620416 0.15851486 1.0787791 0.19738087 0.051157374
1.7256575 0.03982106 1.4211786 0.6475172 0.22703433 1.261484 0.24103175 1.2675465
0.7224224 0.5898002 1.0423738 0.2160905 0.44725823 0.14434688 0.078804374 1.56827
0.08842108 0.80643517 0.12237102 0.34520638 0.053048555 1.4489042 0.50511 0.931925
0.043563463 0.1937755 0.29844636 0.03619666 0.3693935 0.82083684 0.9260762 0.5436076
0.15382758 1.7594703 0.8878468 0.6097663 0.124442324 0.063461535 0.48711193 1.6254867
0.9209977 0.09107866 0.15827702 0.95255196 0.5483784 0.6152439 0.105455615 0.57670456
0.005116265 0.22551586 0.93445474 0.38420954 0.6334409 1.8727034 0.4313173 1.2312003
0.31354514 1.1350722 1.0413331 0.52353644 1.312965 0.5402902 1.2890432 0.56481165
0.7097508 0.49912095 1.543642 0.6918053 1.0549183 0.0058440757 0.06701594 1.6696395
0.24442121 1.093708 0.54144907 0.9124473 0.18398702 1.7573448 1.0947015 0.2954331
0.70667195 0.9648783 0.97179395 0.25066426 0.91366816 1.8595046 1.0808785 0.31712466
0.20213538 1.7556385 0.9612765 1.2343047 0.03746581 0.48376918 2.3484604 0.24982744
0.61159945 0.67334723 0.7107656 0.8988173 0.66949695 0.30074438 0.0482311 0.3187107
0.8166008 1.1459979 1.4135182 0.6913645 1.1706731 0.9259066 1.8977245 0.7319901
0.31391105 0.4273313 0.009884568 0.25465044 0.4450305 0.44359198 1.4459702 0.26400912
0.12449427 0.86861765 0.20893133 0.17760485 0.093408786 0.24523151 1.472336 1.3728677
0.780728 1.1472842 0.6304732 0.52869344 0.074244484 0.09897533 0.09859983 1.1736948
0.8322567 0.07178739 0.49184674 0.92779666 0.68152666 0.62108207 0.34326616 0.8127922
0.78150165 0.26209792 0.110623874 1.0874568 0.5016707 1.1818862 0.8699114 0.035676666
1.1407335 0.6078825 0.659047 0.5206993 1.0508561 0.9439375 0.6659295 1.2465051
00000000: dea2 fc3f 86fe 5d3f e3aa da3c e8a6 f03e
00000010: c06e c73f ef89 be3f a0dc 743f 42da ca3e
00000020: 6473 fb3e f191 753e 10f5 a93f 4d80 093d
00000030: 812d c63f 87f3 cf3f c4aa d03e 8b9e 7b3d
00000040: 04e0 cc3f 014e 8d3f a2fe 4f3e 96a6 cd3e
00000050: 3d80 c53e 7620 b53e e2a6 093f ee59 3b3f
00000060: d019 203e 1837 b43c 714b 0240 147a c53f
00000070: 8a86 f43e acbf fe3e 5a27 ae3e 6108 ce3f
00000080: 7e0d 593f 6145 983f c708 033e 885f c93d
00000090: 8d92 0340 0fe0 593e 7acf 5f3e b49d 343e
000000a0: ad39 4b3f 2f89 c53f dfd8 cf3f f5e2 8f3e
000000b0: f0ee 813f bb4b e93f 5abf ed3c 4664 a13f
000000c0: 3218 123d 489b ea3f 2e84 6b3f e853 cf3f
000000d0: 58aa 383f 846e 2340 b748 fb3e b28a 4a3e
000000e0: f872 203f 8696 563f 7e4e 0d3f 3096 6e3f
000000f0: d822 8a3f 6583 fe3f be5c 163f 0bce 8e3e
00000100: 901d 0540 8af1 b23e b5a4 ca3e d3aa 763f
00000110: dc99 953d ecaa 163f bd8b 893d bfa6 783f
00000120: cda7 8c3e 6c64 db3e c262 9e3f dd45 913f
00000130: ab77 d83e 3c0f d33f 5b33 df3e 6ae2 353f
00000140: 1413 9d3f d2dc 2a3f 8987 c73f 37f4 803e
00000150: 10ab 133f 6ce1 0240 aaad 023f 0e65 fd3e
00000160: b42f b93d 819f 183f de97 5c3d 5a89 923e
00000170: b851 223e 6f15 8a3f 361e 4a3e 658a 513d
00000180: 58e2 dc3f 681b 233d 2ee9 b53f b0c3 253f
00000190: b07b 683e 4f78 a13f 07d1 763e f73e a23f
000001a0: adf0 383f 25fd 163f 816c 853f d446 5d3e
000001b0: 08ff e43e abcf 133e 3064 a13d 12bd c83f
000001c0: 1c16 b53d 8972 4e3f a89d fa3d e4be b03e
000001d0: 7149 593d b175 b93f e44e 013f a392 6e3f
000001e0: 9a6f 323d 166d 463e f6cd 983e f342 143d
000001f0: 2521 bd3e 5d22 523f 5413 6d3f de29 0b3f
00000200: fa84 1d3e 5336 e13f ee49 633f a519 1c3f
00000210: 9edb fe3d 1ff8 813d bc66 f93e f30f d03f
00000220: 81c6 6b3f 7387 ba3d 5f13 223e 72da 733f
00000230: 8762 0c3f a080 1d3f 1df9 d73d e9a2 133f
00000240: 57a6 a73b a1ed 663e 6d38 6f3f 1db7 c43e
00000250: 2f29 223f bfb4 ef3f 9fd5 dc3e f997 9d3f
00000260: fd88 a03e 0c4a 913f 674a 853f 7c06 063f
00000270: 3d0f a83f 7550 0a3f 5eff a43f 7f97 103f
00000280: 3ab2 353f c88c ff3e 1096 c53f 271a 313f
00000290: 9007 873f a97f bf3b a73f 893d bfb6 d53f
000002a0: 8e49 7a3e a0fe 8b3f 689c 0a3f 2596 693f
000002b0: 1867 3c3e adf0 e03f 2e1f 8c3f 0243 973e
000002c0: 74e8 343f 4402 773f 7dc7 783f 1157 803e
000002d0: 28e6 693f 3f04 ee3f 3a5a 8a3f 2a5e a23e
000002e0: 94fc 4e3e c3b8 e03f 3716 763f b2fd 9d3f
000002f0: c075 193d 98b0 f73e 2d4d 1640 c4d2 7f3e
00000300: c891 1c3f 7c60 2c3f bcf4 353f e418 663f
00000310: 2764 2b3f 2bfb 993e f98d 453d 0d2e a33e
00000320: c00c 513f 0fb0 923f 2aee b43f 44fd 303f
00000330: 9ed8 953f 3708 6d3f a3e8 f23f b463 3b3f
00000340: f3b8 a03e 2bcb da3e e2f2 213c 8b61 823e
00000350: 0adb e33e 7d1e e33e 8d15 b93f 342c 873e
00000360: daf6 fe3d ba5d 5e3f 18f2 553e 0cde 353e
00000370: 1b4d bf3d f81d 7b3e 8275 bc3f 21ba af3f
00000380: cadd 473f 35da 923f b166 213f 7458 073f
00000390: 7e0d 983d 94b3 ca3d b5ee c93d a23b 963f
000003a0: c60e 553f 4405 933d 56d3 fb3e 1584 6d3f
000003b0: 8878 2e3f 3cff 1e3f 95c0 af3e 2613 503f
000003c0: 7e10 483f b331 863e c58e e23d c931 8b3f
000003d0: 7e6d 003f 0c48 973f 83b2 5e3f b221 123d
000003e0: 8e03 923f 309e 1b3f 4eb7 283f 8d4c 053f
000003f0: 7482 863f e3a5 713f 5b7a 2a3f 7b8d 9f3f

batch_norm1.running_var f4 [256]
2.6978712 1.9112916 0.023942798 0.3362187 3.3313506 2.4643743 1.4633282 0.20538136
1.1477785 0.11406953 2.7239387 0.024155658 2.377984 3.8575282 0.92051595 0.020113764
1.7149827 3.6089787 0.15188633 0.87451893 0.75900203 0.33072242 0.9114771 2.4568493
0.13708958 0.013669491 1.5886289 1.80968 0.12162782 0.4761926 0.35808712 0.5755051
2.496081 1.2462738 0.122677386 0.052320093 4.2780633 0.0334143 0.20837235 0.16277339
1.9624745 1.9368473 3.9894629 0.37379217 1.8122423 0.48557514 0.032812074 2.5940132
0.02295878 5.1022058 1.3851806 2.2225168 1.7231774 2.7557483 0.35210913 0.37997434
0.40711954 1.3416529 0.910178 1.2866776 1.6010425 2.5614543 0.63478 0.3903773
2.3056054 0.52608955 0.33236587 2.9800818 0.065183 1.1717331 0.08276724 1.859984
0.41145325 0.5119158 3.0855992 2.1015077 0.8203527 1.2245269 0.56841415 1.9741962
1.859641 1.6002548 3.8643856 0.35282764 1.751782 2.6878896 0.49264193 0.74698585
0.08289889 1.4566562 0.030023988 0.13205534 0.27719945 1.4553968 0.07112462 0.038884886
4.233715 0.02953943 2.930652 1.490019 0.4476751 2.2307048 0.38134077 0.896783
0.8349459 0.55456895 0.89405274 0.19822472 0.850185 0.14132945 0.04472511 1.9851891
0.08724647 1.9887829 0.044582553 0.44715804 0.041578855 3.694972 1.1774063 2.7057927
0.047278255 0.30879405 0.2164975 0.016873686 0.37384883 1.9353802 1.3778889 0.96362096
0.09717162 2.8875887 1.6876407 1.2892109 0.043873034 0.0471221 0.8401743 3.0836532
0.53576833 0.03500657 0.12559812 1.1362464 0.9448428 1.0959315 0.043910507 0.6236802
0.0053698756 0.25828788 0.96738017 0.6519139 1.3901974 2.225118 0.46185243 2.0046222
0.31072882 2.1886177 0.9112907 0.85659677 2.4241955 0.402868 1.988553 0.56084
1.6898829 0.82076395 1.2388082 0.9309556 2.0531678 0.00433263 0.03868155 2.5557396
0.41321436 3.4639301 1.1950772 0.7178144 0.11381479 1.7161274 1.9272734 0.41577414
1.1537502 1.0415288 1.6303849 0.1935409 2.3242278 1.410311 1.2780596 0.41274977
0.49267116 3.6259289 1.2884897 2.0418417 0.017717136 0.72698605 3.2385125 0.2599129
1.3682039 0.8592892 1.8146343 0.9106685 1.9131846 0.5232504 0.028399184 0.5887601
2.2847443 3.5500016 2.2500029 1.1311841 0.916505 2.1071715 3.3255916 0.9424898
0.17901115 0.7976726 0.0072387974 0.4789151 1.1124946 0.5285994 3.442908 0.43358448
0.16561024 0.7874873 0.3117473 0.28465998 0.021088943 0.0799546 1.6209629 3.2891262
0.94985586 4.143993 1.553658 0.59641826 0.04872196 0.11348098 0.075421415 0.38557556
1.5706232 0.060423058 0.8032435 1.6465986 0.93960965 1.6100444 0.24035795 1.355176
0.8975187 0.031942807 0.1518554 2.2197082 0.37311745 1.2857196 1.8849652 0.0049268086
3.1127093 1.4885955 0.687453 0.8298243 2.2828677 0.8310058 0.9724133 1.8287737
00000000: eca9 2c40 34a5 f43f b023 c43c dc24 ac3e
00000010: d934 5540 4fb8 1d40 574e bb3f 7e4f 523e
00000020: 68ea 923f 499d e93d 0355 2e40 16e2 c53c
00000030: e430 1840 bee1 7640 efa6 6b3f 9fc5 a43c
00000040: 8e84 db3f 82f9 6640 1788 1b3e 79e0 5f3f
00000050: f54d 423f 7354 a93e 9056 693f 053d 1d40
00000060: 3661 0c3e 00f6 5f3c 3158 cb3f 98a3 e73f
00000070: 0218 f93d 84cf f33e 3257 b73e 4d54 133f
00000080: cbbf 1f40 e685 9f3f 483e fb3d 984d 563d
00000090: e5e5 8840 6fdd 083d 905f 553e 11ae 263e
000000a0: 5d32 fb3f 9dea f73f 5c53 7f40 b061 bf3e
000000b0: 8ef7 e73f 4e9d f83e f465 063d 5004 2640
000000c0: 0d14 bc3c 4545 a340 994d b13f b73d 0e40
000000d0: 1491 dc3f 2e5e 3040 a647 b43e ff8b c23e
000000e0: f971 d03e 48bb ab3f 6d01 693f dab1 a43f
000000f0: f6ee cc3f deee 2340 f180 223f 89df c73e
00000100: 0a8f 1340 cead 063f dc2b aa3e a9b9 3e40
00000110: aa7e 853d 5afb 953f df81 a93d f513 ee3f
00000120: 00aa d23e ea0c 033f 757a 4540 1a7f 0640
00000130: a202 523f 4cbd 9c3f 9783 113f 76b2 fc3f
00000140: b708 ee3f 26d5 cc3f 1852 7740 d3a5 b43e
00000150: 643a e03f 6206 2c40 903b fc3e 773a 3f3f
00000160: e5c6 a93d b673 ba3f def4 f53c 8439 073e
00000170: 16ed 8d3e 714a ba3f c9a9 913d c245 1f3d
00000180: 987a 8740 adfc f13c cd8f 3b40 f1b8 be3f
00000190: ac35 e53e dec3 0e40 193f c33e 9293 653f
000001a0: 04bf 553f 3bf8 0d3f a4e0 643f 6cfb 4a3e
000001b0: b9a5 593f abb8 103e ad31 373d ad1a fe3f
000001c0: 47ae b23d 7090 fe3f 329c 363d e6f1 e43e
000001d0: 974e 2a3d 6c7a 6c40 40b5 963f b52b 2d40
000001e0: d8a6 413d 411a 9e3e 85b1 5d3e af3a 8a3c
000001f0: 1d69 bf3e 8aba f73f aa5e b03f ddaf 763f
00000200: ea01 c73d 41ce 3840 9c04 d83f dd04 a53f
00000210: 36b4 333d 1a03 413d aa15 573f 935a 4540
00000220: 1d28 093f 0d63 0f3d cb9c 003e 8670 913f
00000230: 38e1 713f 7c47 8c3f 81db 333d 81a9 1f3f
00000240: c8f5 af3b 4f3e 843e 3aa6 773f d4e3 263f
00000250: fdf1 b13f 5568 0e40 ec77 ec3e bb4b 0040
00000260: d917 9f3e 5012 0c40 594a 693f ed49 5b3f
00000270: 0526 1b40 b744 ce3e e888 fe3f 3693 0f3f
00000280: 154e d83f 961d 523f 4491 9e3f 1b53 6e3f
00000290: 1a67 0340 bcf8 8d3b 8c70 1e3d 3d91 2340
000002a0: d590 d33e 08b1 5d40 4af8 983f afc2 373f
000002b0: bb17 e93d 10aa db3f e5b0 f63f 59e0 d43e
000002c0: 16ae 933f d150 853f 74b0 d03f 962f 463e
000002d0: 26c0 1440 1285 b43f 7597 a33f f053 d33e
000002e0: 653f fc3e 380f 6840 3bed a43f 89ad 0240
000002f0: 8723 913c c21b 3a3f ca43 4f40 4e13 853e
00000300: 4e21 af3f 61fa 5b3f f045 e83f 9221 693f
00000310: 3ce3 f43f bdf3 053f 68a5 e83c fbb8 163f
00000320: 4039 1240 3a33 6340 0c00 1040 a4ca 903f
00000330: 12a0 6a3f e6db 0640 7ed6 5440 0347 713f
00000340: b34e 373e 4634 4c3f 6f33 ed3b 5c34 f53e
00000350: 3966 8e3f 4a52 073f 9b58 5c40 c9fe dd3e
00000360: bb95 293e c598 493f 589d 9f3e f4be 913e
00000370: b8c2 ac3c 3dbf a33d b67b cf3f 0b81 5240
00000380: c129 733f 979b 8440 44de c63f deae 183f
00000390: ae90 473d b768 e83d 8b76 9a3d 296a c53e
000003a0: 2e0a c93f 2b7e 773d 5ea1 4d3f bec3 d23f
000003b0: 428a 703f ef15 ce3f 6520 763e 6876 ad3f
000003c0: c9c3 653f 76d6 023d fb7f 1b3e b30f 0e40
000003d0: 4009 bf3e 7692 a43f 8a46 f13f 1171 a13b
000003e0: a136 4740 4c8a be3f ebfc 2f3f 5e6f 543f
000003f0: 811a 1240 ccbc 543f 14f0 783f 4215 ea3f

fc2.weight f4 [256, 258]
0.028189735 -0.016291432 0.023905935 0.04741928 0.01897419 -0.06333585 0.06837489 0.016841909
0.051440105 0.021689788 0.047850978 0.021554664 0.0011670077 0.0033526716 0.009211853 0.051732596
-0.0497329 -0.052212767 -0.052367724 0.07041216 0.03879269 0.020018674 -0.0013985104 0.012220769
0.08499762 0.06843546 -0.017462641 -0.045007005 0.057681058 -0.02676648 0.011820754 0.014598126
-0.00035857636 0.037541203 0.06346665 0.008710246 -0.0412354 -0.012320663 0.06895511 -0.048812453
-0.03201648 -0.026825178 -0.019113496 -0.027691966 0.04625952 0.007301754 0.0016173635 0.063587606
0.0019894764 -0.00847823 0.06086463 0.072381236 0.045094524 0.044404678 -0.015759546 -0.012151689
0.035916332 -0.044347376 -0.029395794 -0.044647347 -0.009876015 0.039014596 0.00049608253 -0.058802404
-0.0503079 -0.03420975 0.062191457 0.022311086 -0.027566325 0.030914556 -0.004206311 -0.0052923644
0.03441762 -0.0019987696 0.016457666 0.0071241735 0.02840155 -0.02640263 -0.048025932 0.03640864
-0.0080625815 -0.032117303 0.01132258 -0.0549613 -0.05420057 -0.019312242 0.07652037 -0.03441327
-0.046192884 0.034094393 -0.021825518 0.044581357 0.009886131 0.043811854 0.040240034 0.029621689
0.040888313 -0.017171947 0.026968138 0.02356126 -0.030012215 0.103680275 -0.07777242 -0.022748541
0.038072962 -0.030738324 0.050195556 -0.0054784743 0.013067013 0.04721359 0.087088175 -0.012633104
0.042487226 -0.0008477626 0.066730574 0.041959416 -0.01672598 -0.024066187 -0.003453129 0.032242835
-0.034882553 0.04116428 -0.008566932 0.07587514 0.08646204 -0.054415543 -0.041917406 -0.02057256
0.08416503 0.06580935 -0.047163002 0.020308781 0.0315483 -0.06692636 -0.014912421 -0.011865634
0.050223388 -0.037778433 -0.00936926 0.08439601 -0.023059325 -0.042459495 0.0119827585 0.028003735
0.03782948 -0.059151977 -0.05445823 0.01870444 -0.021973457 0.05785686 -0.033536892 -0.015964832
-0.034685172 -0.010921519 0.033199918 -0.014322068 0.054178186 -0.008804542 -0.030847082 0.0061440957
-0.0026299707 0.055255238 0.04820414 -0.018567884 0.032797407 0.0071425023 -0.0627509 -0.057541754
0.011501273 -0.048982542 -0.035148535 0.029106772 0.054977242 -0.021694757 0.038451806 -0.047022346
0.0053965156 -0.04342524 0.0050819516 -0.04164376 -0.016706174 -0.015750993 -0.0007348002 -0.054213114
0.020122651 -0.05664527 0.032924805 -0.07692029 0.06137854 -0.04723194 0.04576566 0.0070972303
0.019442597 0.0014031279 0.013232941 -0.016868742 0.018730786 0.011815087 0.046661373 0.033676974
0.038953625 -0.0093050385 0.03563342 -0.037249595 0.020814808 0.0056546964 0.003407358 -0.04871567
0.059614703 0.020016473 -0.010183387 -0.014835069 0.021622341 0.019759916 0.077916555 0.0012421525
-0.025743507 0.0048612664 -0.056210052 -0.05507845 -0.019012174 0.0042787567 0.062084947 0.0055919155
0.046522442 0.027589267 -0.017698368 -0.03649363 -0.009463633 -0.013319211 -0.058742024 -0.03940619
-0.0028611645 0.066785865 -0.037454244 0.013803812 -0.05477095 -0.037267484 0.011344821 -0.009407975
0.014639316 0.011718799 0.036799595 -0.059574448 -0.021863893 0.06364517 -0.028105024 0.10124896
-0.020717002 0.011301705 -0.0356104 0.008952423 -0.03689254 -0.023044255 0.04512625 0.037981912
00000000: 29ee e63c 9c75 85bc 61d6 c33c b83a 423d
00000010: c36f 9b3c 3ab6 81bd 2208 8c3d 0bf8 893c
00000020: dcb2 523d c8ae b13c 63ff 433d 6893 b03c
00000030: 48f6 983a 7fb8 5b3b 50ed 163c 8fe5 533d
00000040: bab4 4bbd 0edd 55bd 8a7f 56bd 4034 903d
00000050: 15e5 1e3d 34fe a33c 394e b7ba 9f39 483c
00000060: 3b13 ae3d e427 8c3d d00d 8fbc 4459 38bd
00000070: f942 6c3d 6145 dbbc d6ab 413c fa2c 6f3c
00000080: 4eff bbb9 cec4 193d cefa 813d 6bb5 0e3c
00000090: 73e6 28bd 9bdc 49bc 5638 8d3d 91ef 47bd
000000a0: b623 03bd 7ac0 dbbc e893 9cbc 43da e2bc
000000b0: 9f7a 3d3d 8d43 ef3b b7fd d33a 383a 823d
000000c0: e061 023b 46e8 0abc 314d 793d 9d3c 943d
000000d0: 09b5 383d aee1 353d 2a1a 81bc e117 47bc
000000e0: 011d 133d 98a5 35bd 73cf f0bc 23e0 36bd
000000f0: 02cf 21bc c5cd 1f3d 890b 023a cada 70bd
00000100: a80f 4ebd 861f 0cbd 78bc 7e3d bdc5 b63c
00000110: c6d2 e1bc 8640 fd3c 18d5 89bb 926b adbb
00000120: 7ef9 0c3d cafd 02bb 3ad2 863c e671 e93b
00000130: 5eaa e83c 544a d8bc d7b6 44bd 3a21 153d
00000140: eb18 04bc 6f8d 03bd 5882 393c 1a1f 61bd
00000150: 6b01 5ebd b534 9ebc b6b6 9c3d eef4 0cbd
00000160: c034 3dbd 90a6 0b3d 6ecb b2bc f19a 363d
00000170: 70f9 213c 0f74 333d bcd2 243d 2fa9 f23c
00000180: 817a 273d 2fac 8cbc 49ec dc3c 8b03 c13c
00000190: 2ddc f5bc 5356 d43d 2647 9fbd 265b babc
000001a0: 65f2 1b3d f0ce fbbc db99 4d3d c684 b3bb
000001b0: 0617 563c 0a63 413d 495b b23d 14fb 4ebc
000001c0: 1607 2e3d 633c 5eba 0aaa 883d a3dd 2b3d
000001d0: ec04 89bc 7426 c5bc e44d 62bb 1011 043d
000001e0: 02e1 0ebd e09b 283d 515c 0cbc 6d64 9b3d
000001f0: 0313 b13d d5e2 5ebd 96b1 2bbd c987 a8bc
00000200: b75e ac3d 0dc7 863d fe2d 41bd 9a5e a63c
00000210: ca38 013d b010 89bd 3a53 74bc 1368 42bc
00000220: 0ab7 4d3d 8fbd 1abd 8681 19bc d1d7 ac3d
00000230: e9e6 bcbc 02ea 2dbd 5553 443c 1768 e53c
00000240: 16f3 1a3d 5849 72bd 980f 5fbd 0e3a 993c
00000250: ae01 b4bc 51fb 6c3d fb5d 09bd aec8 82bc
00000260: 0a12 0ebd 2cf0 32bc a3fc 073d 1ba7 6abc
00000270: f2e9 5d3d ed40 10bc 05b3 fcbc 6954 c93b
00000280: 965b 2cbb 5153 623d b471 453d ad1b 98bc
00000290: 9356 063d a70b ea3b 8b83 80bd e7b0 6bbd
000002a0: d66f 3c3c eba1 48bd e9f7 0fbd 5371 ee3c
000002b0: d12f 613d 34b9 b1bc a47f 1d3d 819a 40bd
000002c0: 41d5 b03b aade 31bd 8086 a63b a692 2abd
000002d0: 63db 88bc 3a08 81bc 9b9f 40ba 920e 5ebd
000002e0: 42d8 a43c df04 68bd 29dc 063d 6388 9dbd
000002f0: 1068 7b3d 4776 41bd c674 3b3d e28f e83b
00000300: 1546 9f3c 29e9 b73a face 583c 5130 8abc
00000310: 4e71 993c 1194 413c ff1f 3f3d def0 093d
00000320: d68d 1f3d 2974 18bc 59f4 113d 0893 18bd
00000330: d183 aa3c 084b b93b fb4d 5f3b 158a 47bd
00000340: 8c2e 743d 96f9 a33c 39d8 26bc ca0e 73bc
00000350: 5621 b13c 8cdf a13c b792 9f3d b9cf a23a
00000360: 0ce4 d2bc 424b 9f3b 833c 66bd f199 61bd
00000370: 6bbf 9bbc d034 8c3b c94c 7e3d 633c b73b
00000380: 518e 3e3d e302 e23c 2bfc 90bc 587a 15bd
00000390: 5b0d 1bbc d238 5abc 7a9b 70bd 6368 21bd
000003a0: 6082 3bbb 07c7 883d 9f69 19bd 6229 623c
000003b0: 8157 60bd caa5 18bd a1df 393c e823 1abc
000003c0: bed9 6f3c 3500 403c 2cbb 163d 5604 74bd
000003d0: e81b b3bc 6658 823d 823c e6bc 9d5b cf3d
000003e0: b4b6 a9bc c92a 393c 36dc 11bd 2fad 123c
000003f0: a21c 17bd 4ec7 bcbc 4dd6 383d ec92 1b3d

fc2.bias f4 [256]
-0.027440289 -0.055925503 0.02633348 -0.03084181 -0.029762981 0.020579495 -0.016288145 -0.1298888
0.034109946 -0.09624599 -0.0780861 0.035610538 -0.026554514 -0.03718244 -0.09659801 -0.032354414
-0.054164797 -0.08480043 -0.037330303 -0.024101464 -0.07659427 -0.042188216 -0.06784221 -0.027834099
-0.114312515 -0.057959605 -0.009156904 -0.04011177 -0.04930895 0.01381636 -0.07378132 -0.03615414
-0.011601596 -0.142902 0.030210583 -0.09730481 -0.003323185 0.0190174 -0.03710368 -0.013456579
-0.045818567 -0.09606566 -0.060866255 -0.060967542 0.027075771 -0.056604944 -0.013306578 0.029348213
-0.03618116 -0.095454976 -0.045710176 -0.006850053 -0.014387069 -0.033322934 0.019429931 -0.0058857864
0.018035406 -0.060880177 -0.029449875 0.021298284 -0.021684097 -0.061923712 0.014948977 -0.06783752
-0.059870582 -0.10036238 0.028554335 -0.06353328 -0.07940765 -0.055388756 -0.033767078 -0.09062693
0.00609854 -0.021617413 0.013213535 0.00021714835 -0.07622846 -0.05005179 -0.00039939897 -0.05419839
0.028769769 -0.06380797 -0.067158416 -0.07902245 -0.042761814 -0.064636454 0.013947957 -0.046685297
0.003532682 -0.14350072 -0.04283153 -0.025664056 -0.07258936 0.014280913 -0.06179024 -0.057113484
-0.094005175 -0.019398082 -0.06862565 -0.0058794552 0.04642205 -0.050826747 0.022592641 0.014009794
-0.032234695 -0.06451465 -0.016797576 -0.07785272 -0.025528736 0.0038279619 0.008036758 0.03089534
-0.061625298 -0.021688903 -0.055186752 -0.069263846 0.03634105 -0.101747766 -0.032901485 -0.027963646
-0.012752266 0.080819555 0.01305271 -0.014242414 0.013784186 0.006635644 -0.045191217 -0.0052065817
-0.0074169803 0.010811209 -0.08006833 -0.09020491 -0.056131825 -0.042529956 0.026303375 0.020464398
-0.042145763 -0.06031419 0.016533712 0.019148672 -0.1283981 0.013558946 -0.016538572 -0.039815843
-0.08525327 -0.019597925 -0.05839344 -0.04646487 -0.032848053 -0.017294688 0.019888824 -0.02900716
-0.066306025 -0.109200396 -0.08524474 -0.11600779 -0.060289484 -0.0902818 0.014234483 -0.038080472
-0.021618675 -0.022413446 -0.025637027 -0.047754362 -0.0769345 -0.023355253 -0.055146962 -0.014802193
0.0036142683 -0.054804076 -0.06806234 -0.067730956 -0.04081567 0.010956486 -0.017469505 0.005912471
-0.009908245 0.009650196 -0.0113190515 0.035882376 0.032067254 -0.012970646 -0.06940735 -0.07442846
-0.015467337 -0.091550075 -0.06502242 -0.025435066 -0.059671253 -0.07858366 -0.078979634 -0.11485525
0.02945676 -0.09427814 0.006217822 -0.006468262 0.024175206 -0.027482012 -0.010546757 -0.059109118
-0.006018934 0.009470506 -0.10158808 -0.08006089 -0.08614302 -0.04327925 0.014477006 0.04595361
0.011175092 -0.052645843 0.013064799 -0.07028879 -0.025633961 -0.009863033 0.05694252 0.022164077
-0.006778115 -0.0776431 -0.020588925 -0.05755796 -0.06704693 -0.048307538 -0.031575106 -0.010715806
-0.054998722 -0.01327563 0.007933112 -0.011094533 0.027699234 -0.014128484 0.010435916 0.0024024826
-0.061495736 0.016382275 -0.048345353 0.007138221 -0.019464182 -0.00093413366 -0.046963736 -0.057979282
-0.103470184 -0.028990118 -0.104289606 -0.030226666 0.008229233 -0.041458603 -0.08405919 -0.07197816
-0.08644941 0.023502806 -0.03816427 0.018924661 -0.056631234 -0.08600411 -0.08913729 0.014644187
00000000: 75ca e0bc 2412 65bd 4fb9 d73c f7a7 fcbc
00000010: 7fd1 f3bc 5496 a83c b76e 85bc 9201 05be
00000020: dfb6 0b3d 9e1c c5bd 9beb 9fbd 5bdc 113d
00000030: da88 d9bc 9d4c 18bd 2dd5 c5bd 1086 04bd
00000040: e8db 5dbd d9ab adbd a9e7 18bd 6f70 c5bc
00000050: 75dd 9cbd 8dcd 2cbd dbf0 8abd 5604 e4bc
00000060: ae1c eabd 0d67 6dbd d706 16bc 3d4c 24bd
00000070: 2ef8 49bd 045e 623c a91a 97bd 5d16 14bd
00000080: 9f14 3ebc e754 12be 2f7c f73c bf47 c7bd
00000090: cbc9 59bb 61ca 9b3c 07fa 17bd fc78 5cbc
000000a0: 40ac 3bbd 13be c4bd e54e 79bd 1ab9 79bd
000000b0: 02ce dd3c 96da 67bd d503 5abc aa6b f03c
000000c0: b232 14bd e67d c3bd 983a 3bbd 6976 e0bb
000000d0: beb7 6bbc a17d 08bd 852b 9f3c 8edd c0bb
000000e0: fdbe 933c 7e5d 79bd dd40 f1bc bd79 ae3c
000000f0: d9a2 b1bc b8a3 7dbd 8eec 743c 66ee 8abd
00000100: db3a 75bd cb8a cdbd c8ea e93c bc1d 82bd
00000110: 7aa0 a2bd 52df 62bd 594f 0abd 9d9a b9bd
00000120: 43d6 c73b 0017 b1bc 957d 583c 51b2 6339
00000130: ab1d 9cbd 1b03 4dbd 6c66 d1b9 22ff 5dbd
00000140: 94ae eb3c c1ad 82bd 5a8a 89bd 86d6 a1bd
00000150: 0327 2fbd 1e60 84bd f985 643c 1539 3fbd
00000160: 9284 673b daf1 12be 1d70 2fbd 6d3d d2bc
00000170: bba9 94bd 7efa 693c c317 7dbd d4ef 69bd
00000180: c985 c0bd bae8 9ebc 9b8b 8cbd 72a8 c0bb
00000190: 0c25 3e3d b52f 50bd 3414 b93c 5689 653c
000001a0: 8708 04bd 4220 84bd 129b 89bc 3f71 9fbd
000001b0: a421 d1bc 8bde 7a3b 9bac 033c 3918 fd3c
000001c0: cf6a 7cbd edac b1bc 810b 62bd 34da 8dbd
000001d0: 5ada 143d 2261 d0bd b5c3 06bd 0414 e5bc
000001e0: e1ee 50bc b984 a53d 09db 553c 0459 69bc
000001f0: 11d7 613c d16f d93b 6d1a 39bd f99b aabb
00000200: 240a f3bb 7f21 313c ddfa a3bd 5abd b8bd
00000210: 7cea 65bd e433 2ebd 2d7a d73c f4a4 a73c
00000220: 09a1 2cbd 030c 77bd b571 873c addd 9c3c
00000230: cb7a 03be 5726 5e3c e67b 87bc f015 23bd
00000240: 4499 aebd d48b a0bc f62d 6fbd f351 3ebd
00000250: ae8b 06bd 97ad 8dbc e3ed a23c 6ca0 edbc
00000260: 74cb 87bd 75a4 dfbd cb94 aebd 7e95 edbd
00000270: 1bf2 76bd aae5 b8bd c037 693c 45fa 1bbd
00000280: a619 b1bc 679c b7bc be04 d2bc 149a 43bd
00000290: d68f 9dbd 8453 bfbc c8e1 61bd e684 72bc
000002a0: 5cdd 6c3b 3d7a 60bd 4564 8bbd 87b6 8abd
000002b0: 552e 27bd d582 333c 351c 8fbc 67bd c13b
000002c0: 3156 22bc db1b 1e3c 8b73 39bc 66f9 123d
000002d0: f458 033d d582 54bc 7125 8ebd f36d 98bd
000002e0: b76a 7dbc 9b7e bbbd 792a 85bd 335d d0bc
000002f0: d869 74bd 78f0 a0bd 13c0 a1bd 3b39 ebbd
00000300: 4e4f f13c e614 c1bd dfbe cb3b b7f3 d3bb
00000310: 150b c63c f521 e1bc 4ecc 2cbc 671c 72bd
00000320: 7a3a c5bb 2e2a 1b3c 690d d0bd f7f6 a3bd
00000330: c06b b0bd 9545 31bd f730 6d3c da39 3c3d
00000340: bc17 373c 2ba3 57bd bd0d 563c 92f3 8fbd
00000350: 50fe d1bc 8f98 21bc 8f3c 693d 7091 b53c
00000360: f31a debb 5803 9fbd 1baa a8bc e5c1 6bbd
00000370: e74f 89bd 20de 45bd e654 01bd 5991 2fbc
00000380: 5746 61bd 0782 59bc e2f9 013c d8c5 35bc
00000390: 81e9 e23c 287b 67bc 67fb 2a3c f872 1d3b
000003a0: f4e2 7bbd 1f34 863c c705 46bd bde7 e93b
000003b0: 5973 9fbc a6e0 74ba 0c5d 40bd af7b 6dbd
000003c0: 2de8 d3bd af7c edbc ca95 d5bd ea9d f7bc
000003d0: e8d3 063c 7fd0 29bd 3927 acbd 4969 93bd
000003e0: 630c b1bd f588 c03c 2352 1cbd e407 9b3c
000003f0: 27f6 67bd ec22 b0bd 9d8d b6bd 2cee 6f3c
